src/TRAINED_MODEL_DIR/image_fragment_model_conv_fd_64_epoch_1.pth (torch, 432285 bytes, 4 tensors)

conv1.weight f4 [64, 3, 5, 5]
0.08580601 -0.09141065 0.109730355 0.08986147 0.031024879 -0.083355896 -0.004271562 -0.0696085
-0.10176347 0.053797267 -0.031592216 -0.020022808 0.10610933 0.09116393 0.06266885 -0.10413067
-0.10440125 -0.074403785 0.10742342 0.035002936 -0.051521666 -0.027833067 -0.086989105 -0.053131763
-0.053085722 0.0642333 -0.0051951096 0.011519221 0.0822414 0.085998744 0.08282633 -0.02362611
-0.00066263205 -0.072267674 0.005790247 0.05375035 -0.08532092 -0.008634512 -0.066014774 -0.053416207
0.028108327 0.10019626 0.061178055 -0.04889682 0.018638838 -0.039072182 0.073232286 -0.053606622
0.057414975 0.08026139 0.033980574 -0.09054276 0.0074289204 0.015728977 0.04892231 0.05084464
-0.10517916 0.029675264 -0.06532748 0.09116291 -0.06445443 -0.03768029 0.036779977 -0.027065307
-0.0017574114 0.033257786 -0.011071152 -0.059083827 -0.050820313 0.06020216 -0.0108863255 -0.0063155433
-0.1099984 -0.039785743 0.006302218 0.048334114 0.070651956 0.033097584 -0.045830328 -0.081599705
0.063956 -0.03406538 0.090754345 0.046680156 -0.09113174 -0.08045443 -0.11348956 0.100878134
-0.023747696 -0.10143095 0.07539591 -0.08579904 0.11195611 0.10866728 -0.015215414 -0.112725355
-0.0845178 -0.07001785 0.077818066 0.04299824 0.019509368 -0.11542507 0.0013761545 0.0038811192
0.10511769 -0.07127412 -0.08040801 -0.06901396 -0.044117156 0.054868147 -0.018060762 0.114229135
0.08927044 -0.06652299 0.01338686 0.030316481 -0.0511758 0.007504344 -0.013371872 -0.052664533
-0.013624539 -0.016634947 -0.083450876 -0.03142745 0.017394403 0.07597732 0.0979835 0.037825685
0.0038259071 0.068530604 0.10731209 -0.110918954 0.0067818933 -0.011648748 -0.105402514 -0.08903543
-0.11515637 -0.0042581274 -0.069594815 0.020475158 -0.041609835 -0.08589013 -0.048491057 -0.055650853
0.060453895 -0.10503128 -0.07589188 0.0513736 0.060414232 -0.092166856 0.030080616 0.040948212
0.01643787 0.10598581 0.026412774 -0.10838817 -0.06627358 -0.049563482 0.0074533396 -0.04567057
0.08195643 0.03281055 0.051016282 0.026926123 -0.0856445 -0.0064081666 0.113358416 -0.061484195
-0.040203016 0.08310811 0.0024198953 0.045534197 -0.004583412 0.08270575 0.054745056 -0.010859481
-0.025624504 -0.110821 0.09646565 -0.08488387 0.028912634 -0.056728598 0.03585945 -0.05133166
0.09276262 0.066168346 -0.109234735 0.012452614 0.11323409 0.04797671 0.08114445 -0.01504932
0.08830464 -0.048035134 0.09495768 0.07590315 0.027741706 0.049462963 0.06885807 -0.07053066
-0.04289343 0.10400875 0.085972086 0.01588469 -0.021823281 -0.023667058 0.041860987 -0.09599993
-0.09559512 -0.10748278 0.0894409 -0.04423485 0.11276454 -0.033102028 0.017302752 0.081985965
-0.0009108789 -0.049523823 -0.03948667 0.10928887 0.044386055 -0.07109152 -0.020633841 0.10048889
-0.071670696 -0.03667482 0.020474214 0.017184254 -0.01352491 0.039872438 -0.016253352 0.0012942243
-0.026155991 -0.0015861886 0.07235235 0.028821742 -0.08163252 -0.020921879 0.023118746 -0.08980402
0.011966673 0.08591522 -0.07985427 0.063850455 0.09782881 0.065394774 0.09427885 -0.044716418
0.042844888 -0.0138088325 -0.0008375066 0.05088286 -0.084372506 0.011348561 -0.08106316 -0.07457805
00000000: 10bb af3d 8235 bbbd 4fba e03d 4a09 b83d
00000010: e327 fe3c 7fb6 aabd 76f8 8bbb e78e 8ebd
00000020: 5e69 d0bd 865a 5c3d d766 01bd df06 a4bc
00000030: d94f d93d 28b4 ba3d 8758 803d 7642 d5bd
00000040: 53d0 d5bd 0361 98bd cf00 dc3d 3d5f 0f3d
00000050: 6208 53bd 2c02 e4bc 5827 b2bd b1a0 59bd
00000060: 6a70 59bd c08c 833d bd3b aabb 1dbb 3c3c
00000070: 2e6e a83d 1c20 b03d daa0 a93d 8b8b c1bc
00000080: 7cb4 2dba 1301 94bd 1dbc bd3b 5429 5c3d
00000090: bcbc aebd c577 0dbc c132 87bd f4ca 5abd
000000a0: 6f43 e63c b233 cd3d d795 7a3d 0848 48bd
000000b0: 7ab0 983c 270a 20bd cffa 953d 9e92 5bbd
000000c0: f72b 6b3d 1560 a43d 372f 0b3d 7c6e b9bd
000000d0: 4d6e f33b 0eda 803c c362 483d 7842 503d
000000e0: 2c68 d7bd 8a19 f33c 6aca 85bd 9fb3 ba3d
000000f0: af00 84bd a656 1abd 9aa6 163d 10b8 ddbc
00000100: f158 e6ba 5139 083d c763 35bc e201 72bd
00000110: f628 50bd 8a96 763d 8f5c 32bc 9ef2 cebb
00000120: d746 e1bd 60f6 22bd d682 ce3b fef9 453d
00000130: f9b1 903d 5591 073d 95b8 3bbd bf1d a7bd
00000140: 5dfb 823d 2488 0bbd 6add b93d b133 3f3d
00000150: 47a3 babd 4bc5 a4bd 376d e8bd 3299 ce3d
00000160: 878a c2bc 08bb cfbd 2c69 9a3d 68b7 afbd
00000170: 3f49 e53d f38c de3d 124a 79bc 8ddc e6bd
00000180: ab17 adbd 8565 8fbd 145f 9f3d ec1e 303d
00000190: 1cd2 9f3c fb63 ecbd 1560 b43a 605a 7e3b
000001a0: f247 d73d 2af8 91bd f4ac a4bd 3157 8dbd
000001b0: 31b4 34bd 6cbd 603d 2af4 93bc f7f0 e93d
000001c0: 6cd3 b63d 353d 88bd 8f54 5b3c 455a f83c
000001d0: b79d 51bd 00e7 f53b b215 5bbc c4b6 57bd
000001e0: 7539 5fbc 0346 88bc 4be8 aabd 12ba 00bd
000001f0: b57e 8e3c ff99 9b3d 93ab c83d 1bef 1a3d
00000200: 12bc 7a3b c659 8c3d 71c6 db3d 7a29 e3bd
00000210: a53a de3b 64da 3ebc 46dd d7bd 3558 b6bd
00000220: 1ad7 ebbd c387 8bbb ba87 8ebd 85bb a73c
00000230: 136f 2abd 2ae7 afbd 8f9e 46bd 26f2 63bd
00000240: 819e 773d a41a d7bd 346d 9bbd 206d 523d
00000250: ea74 773d fac1 bcbd a06b f63c 50b9 273d
00000260: b6a8 863c 170f d93d 9a5f d83c 9efa ddbd
00000270: 71ba 87bd 1403 4bbd 253b f43b 1011 3bbd
00000280: c6d8 a73d 5b64 063d 73f6 503d 2c94 dc3c
00000290: 6266 afbd 99fb d1bb 7528 e83d dad6 7bbd
000002a0: ebab 24bd 9634 aa3d 1b97 1e3b 1182 3a3d
000002b0: 7230 96bb a261 a93d 5a3c 603d f7eb 31bc
000002c0: 7bea d1bc 1ff6 e2bd c88f c53d 98d7 adbd
000002d0: 30da ec3c 3f5c 68bd 5ce1 123d 2641 52bd
000002e0: 54fa bd3d 4583 873d 76b6 dfbd 0c06 4c3c
000002f0: 46e7 e73d 3a83 443d 102f a63d 6c91 76bc
00000300: 10d9 b43d 7dc0 44bd 2c79 c23d 1c73 9b3d
00000310: 9342 e33c ad99 4a3d 7605 8d3d 6172 90bd
00000320: 05b1 2fbd 8a02 d53d 2212 b03d 9c20 823c
00000330: bdc6 b2bc 6be1 c1bc 6d76 2b3d 9c9b c4bd
00000340: 60c7 c3bd ef1f dcbd ca2c b73d 9a2f 35bd
00000350: 18f1 e63d fe95 07bd 80be 8d3c 42e8 a73d
00000360: 0cc8 6eba 7ed9 4abd c6bc 21bd d8d2 df3d
00000370: 27ce 353d 6e98 91bd 4d08 a9bc 1fcd cd3d
00000380: 16c8 92bd 5638 16bd 8ab9 a73c fec5 8c3c
00000390: 9697 5dbc 4851 233d c025 85bc f6a2 a93a
000003a0: 1745 d6bc a8e7 cfba 782d 943d 931b ec3c
000003b0: f32e a7bd 5c64 abbc 8663 bd3c 2ceb b7bd
000003c0: dd0f 443c 52f4 af3d a38a a3bd 07c4 823d
000003d0: 795a c83d b2ed 853d 4515 c13d 9028 37bd
000003e0: 1f7e 2f3d 713e 62bc 1e8c 5bba 8c6a 503d
000003f0: 7ecb acbd 51ef 393c 7104 a6bd 60bc 98bd

conv1.bias f4 [64]
-0.03811438 -0.083135486 0.08046786 0.04348971 1.2911055e-05 0.04133472 -0.03739499 0.065041624
-0.080686465 0.07973689 -0.03396733 0.037680205 0.009124831 0.10875616 -0.0056763925 -0.0011380254
0.108486034 0.06903281 -0.050279956 -0.040975604 -0.0011843089 0.109628126 0.07439868 0.014340865
0.057144877 -0.038726628 0.06601221 0.0018091614 -0.08298312 -0.09068667 0.09166852 0.0733107
0.032765187 -0.07721219 -0.012287255 -0.10699613 0.044054255 -0.0050371676 0.02227858 -0.054456532
-0.018894523 0.12141696 -0.037480585 0.08233474 -0.03655283 0.10146569 0.07037459 -0.09442163
-0.087089635 -0.07678131 0.015406286 0.016421609 -0.098841466 0.11200714 0.01768573 0.09242837
-0.007847452 -0.036578357 0.10990172 -0.042972617 0.09362337 -0.032403227 -0.04647438 0.01671884
00000000: d31d 1cbd f042 aabd 55cc a43d 4422 323d
00000010: 8f9c 5837 984e 293d 7d2b 19bd 8b34 853d
00000020: f23e a5bd 184d a33d 5421 0bbd 8f56 1a3d
00000030: 5180 153c 8dbb de3d 0801 babb cc29 95ba
00000040: ed2d de3d 1361 8d3d 5bf2 4dbd 09d6 27bd
00000050: d03a 9bba b684 e03d 565e 983d f3f5 6a3c
00000060: bf10 6a3d d09f 1ebd 6931 873d 6221 ed3a
00000070: 0ef3 a9bd efb9 b9bd b4bc bb3d ec23 963d
00000080: ca34 063d 6d21 9ebd 7c50 49bc c920 dbbd
00000090: 3c72 343d d30e a5bb 9281 b63c d00d 5fbd
000000a0: b0c8 9abc 75a9 f83d 3e85 19bd 1e9f a83d
000000b0: 6cb8 15bd 3ecd cf3d 8e20 903d 2160 c1bd
000000c0: 0d5c b2bd 853f 9dbd a66a 7c3c 9c86 863c
000000d0: 656d cabd 0064 e53d aae1 903c 164b bd3d
000000e0: 9992 00bc 30d3 15bd 2714 e13d 0e04 30bd
000000f0: 9cbd bf3d 3fb9 04bd eb5b 3ebd f3f5 883c

conv2.weight f4 [64, 64, 5, 5]
-0.022609591 0.021565018 0.0066836616 0.010241686 -0.021617727 0.0050253477 0.015637744 0.023854766
0.014833038 0.023957945 0.009223754 -0.015782123 -0.010539372 0.012899955 0.013973968 -0.006378699
-0.010125613 -0.02374373 -0.018420065 0.0017332252 -0.0062305774 0.020700296 -0.0053283344 -0.012211139
0.0016422541 0.01678786 -0.0016669352 -0.0014301226 0.014925896 0.0022368233 0.010663719 0.00869574
0.017043177 0.019446459 -0.021061681 0.0016685757 0.022180887 -0.006698381 -0.020681864 -0.019121127
0.009327909 0.0051507475 0.0025023073 0.0058288835 0.013026143 -0.023965506 0.0048253634 -0.012025615
-0.0061371876 0.02392729 -0.0024500412 -0.012071477 0.007638278 -0.021921474 0.0075570554 -0.018283272
-0.01876088 0.0009916457 -0.01383265 0.023379058 0.013142431 0.010318303 -0.023435375 0.017477022
-0.006144311 0.022170234 -0.025118168 0.002715093 0.012055987 0.020090798 -0.008110594 0.0015123965
-0.0061903833 -0.02567419 -0.0138104465 -0.015966352 -0.016451204 0.010018096 0.0095478 -0.014666231
-0.020019101 0.023684433 -0.01550705 0.0034567607 0.013219048 0.02298336 -0.0043699313 -0.000615934
0.02098138 -0.019422214 0.009494074 0.023426902 -0.010150471 0.024471441 -0.0038859528 -0.020992514
-0.0017415368 -0.022616457 0.004575425 0.010618922 0.004271514 -0.017109636 0.019818928 -0.015553693
0.00810063 -0.022211324 0.011015458 0.014711916 -0.007491432 0.025355075 0.014640504 0.008789159
0.012282507 0.013247809 -0.016731827 -0.007872504 0.00280697 -0.002602425 0.00401557 0.010462639
-0.0049994 0.018505882 -0.021489825 -0.0038132598 0.014902167 0.020454986 0.005724727 -0.0069876174
-0.020736257 0.016129496 0.008885313 -0.0063292882 0.008290745 0.014420552 0.015031247 0.010147436
-0.0034258117 -0.024960779 0.016397348 -0.004530237 -0.008715054 0.022858012 -0.025005436 -0.0038220198
0.018416762 0.0068964045 0.0076050363 0.0070982063 -0.017419405 -0.011309742 0.012486974 -0.0033841615
-0.0040735565 -0.01589429 -0.00848474 0.015141015 -0.0051056203 0.013807694 0.025013372 -0.02199103
-0.00012521145 -0.015266696 -0.00040995685 0.021947375 -0.01863472 0.013945657 -0.023217412 -0.011500548
0.002301235 0.0147265 0.019251132 0.0073828013 -0.0134699615 0.012116284 -0.017118748 -0.023641571
-0.015995547 -0.014428739 -0.00023138402 -0.021622606 -0.006669976 0.023434427 0.022951897 0.021275599
-0.014251597 0.01949112 0.015672183 0.00622756 0.019476546 0.010273873 -0.020678302 -0.01159122
0.016388705 -0.01756892 0.0072886273 -0.011643761 0.016995035 -0.004734784 0.00811077 -0.01362787
-0.017209433 -0.020754255 -0.022552034 0.01608148 -0.009795514 -0.0164113 0.018780898 -0.017971896
0.025698723 0.015819134 0.021230478 -0.013621322 0.0074804486 -0.0047581443 0.020844134 0.015515707
-0.015921174 0.0083780335 0.006235998 0.0066841748 0.0073491423 0.0046818326 0.022652341 0.013573194
0.017430592 -0.014139463 -0.02053912 0.011797606 0.011649076 0.020600107 0.0020524992 0.0056415177
-0.011217131 0.024363372 0.020201739 -0.010466517 -0.021349188 0.007252422 0.0032362097 0.01354241
-0.020574324 0.020048793 -0.022050876 0.024231236 0.01991178 0.0155736 0.021736715 0.021042844
-0.023664262 -0.00062923215 0.019271832 -0.024892796 -0.024425419 -0.017540673 -0.005150752 0.0049070213
00000000: c037 b9bc 1fa9 b03c 9e02 db3b bfcc 273c
00000010: a917 b1bc acab a43b ba1a 803c 126b c33c
00000020: 4506 733c 7443 c43c 3a1f 173c 8349 81bc
00000030: 55ad 2cbc 555a 533c 12f3 643c 6804 d1bb
00000040: e6e5 25bc 3682 c2bc ade5 96bc 632d e33a
00000050: df29 ccbb ab93 a93c 4f99 aebb 3b11 48bc
00000060: e740 d73a b286 893c 107d daba f472 bbba
00000070: bf8b 743c ab97 123b e1b6 2e3c 9478 0e3c
00000080: 229e 8b3c 2e4e 9f3c 8c89 acbc 1cb4 da3a
00000090: b1b4 b53c 187e dbbb 036d a9bc e9a3 9cbc
000000a0: 16d4 183c 9ac7 a83b c0fd 233b 3800 bf3b
000000b0: 9b6b 553c 4f53 c4bc 151e 9e3b 1607 45bc
000000c0: 761a c9bb 2a03 c43c df90 20bb 72c7 45bc
000000d0: 854a fa3b aa94 b3bc 2da1 f73b cdc6 95bc
000000e0: 6bb0 99bc 1cfa 813a 57a2 62bc 7085 bf3c
000000f0: 5a53 573c 190e 293c 8bfb bfbc f92b 8f3c
00000100: 3756 c9bb 5a9e b53c 9ec4 cdbc b4ef 313b
00000110: 7986 453c 7595 a43c 4ce2 04bc 9b3b c63a
00000120: b3d8 cabb ae52 d2bc 3645 62bc decb 82bc
00000130: adc4 86bc f122 243c 606e 1c3c a24a 70bc
00000140: 19ff a3bc db05 c23c 4811 7ebc d28a 623b
00000150: b594 583c 9947 bc3c a431 8fbb a276 21ba
00000160: 25e1 ab3c 561b 9fbc 088d 1b3c c6e9 bf3c
00000170: 294e 26bc 5578 c83c 78ab 7ebb 7ef8 abbc
00000180: 4744 e4ba 2646 b9bc 72ed 953b fdfa 2d3c
00000190: 0ef8 8b3b 8229 8cbc 4e5b a23c ebd4 7ebc
000001a0: 81b8 043c 86f4 b5bc 2e7a 343c 400a 713c
000001b0: b07a f5bb 72b5 cf3c b9de 6f3c 6800 103c
000001c0: 913c 493c 570d 593c 2f11 89bc adfb 00bc
000001d0: 24f5 373b 728d 2abb 0b95 833b 7d6b 2b3c
000001e0: 02d2 a3bb a699 973c 6e0b b0bc e2e7 79bb
000001f0: 3828 743c 3791 a73c 7e96 bb3b 62f8 e4bb
00000200: 15df a9bc 0122 843c b493 113c eb65 cfbb
00000210: e8d5 073c 2e44 6c3c 9f45 763c 6e41 263c
00000220: 9583 60bb 8c7a ccbc bb53 863c 6272 94bb
00000230: 96c9 0ebc ba40 bb3c 33d8 ccbc da7a 7abb
00000240: c0de 963c 3cfb e13b ab33 f93b 1298 e83b
00000250: 24b3 8ebc 7f4c 39bc 2a96 4c3c cfc8 5dbb
00000260: 787b 85bb be34 82bc 9403 0bbc 0512 783c
00000270: 0c4d a7bb ab39 623c d8e8 cc3c 8826 b4bc
00000280: 314b 03b9 2a21 7abc 7aef d6b9 fbca b33c
00000290: d7a7 98bc 537c 643c 7132 bebc cb6c 3cbc
000002a0: 51d0 163b 6b47 713c 8db4 9d3c 6deb f13b
000002b0: 1db1 5cbc 6183 463c 9e3c 8cbc f8ab c1bc
000002c0: 1809 83bc 8566 6cbc ad9f 72b9 e421 b1bc
000002d0: d08f dabb 8ef9 bf3c 9e05 bc3c 2a4a ae3c
000002e0: 887f 69bc d7ab 9f3c f362 803c 8f10 cc3b
000002f0: 478d 9f3c bf53 283c 8b65 a9bc 1ae9 3dbc
00000300: 9b41 863c b2ec 8fbc 70d5 ee3b 79c5 3ebc
00000310: 2c39 8b3c 3f26 9bbb 09e3 043c 6e47 5fbc
00000320: ccfa 8cbc d404 aabc 0bbf b8bc 4fbd 833c
00000330: 5d7d 20bc fe70 86bc 66da 993c cc39 93bc
00000340: 2186 d23c 2197 813c 8aeb ad3c f72b 5fbc
00000350: 8d1e f53b 35ea 9bbb 51c1 aa3c 9835 7e3c
00000360: 1f6d 82bc 0544 093c 5857 cc3b ec06 db3b
00000370: 13d1 f03b 0f6a 993b 6791 b93c 1a62 5e3c
00000380: 9aca 8e3c 35a9 67bc a841 a8bc bf4a 413c
00000390: c4db 3e3c 8ec1 a83c 3983 063b 7bdc b83b
000003a0: 0fc8 37bc b295 c73c 1e7e a53c c17b 2bbc
000003b0: 7ee4 aebc baa5 ed3b 9716 543b fce0 5d3c
000003c0: 7c8b a8bc 5e3d a43c 0aa4 b4bc 9680 c63c
000003d0: 071e a33c 6a28 7f3c 3211 b23c 0b62 ac3c
000003e0: 8edb c1bc 0ef3 24ba f6df 9d3c faeb cbbc
000003f0: d117 c8bc 75b1 8fbc a4c7 a8bb 14cb a03b

conv2.bias f4 [64]
0.004888627 -0.0055961013 -0.0105492715 -0.018437399 0.019940773 0.018212095 -0.023351047 0.021234466
0.021121774 -0.019015748 -0.02404115 -0.019135116 -0.022411609 0.022273049 -0.003688845 -0.0124223
-0.000680688 0.0053297104 -0.011395315 -0.006735754 0.005378434 0.0032459737 0.022892063 -0.010206336
-0.0143348845 -0.0046296357 -0.012145489 -0.021256039 0.022090098 -0.02039135 -0.017373135 -0.013092634
0.018455226 0.014267874 0.019196529 0.0203537 -0.011397353 0.02182833 0.013077241 0.007738143
0.011713269 0.018932128 -0.01951999 0.019995932 -0.0014220088 -0.0023237676 0.0040483745 0.01769585
0.004052538 -0.012149483 0.0018137604 -0.01687171 0.0107859345 -0.009988087 0.021637172 -0.003596723
-4.4042798e-05 -0.0044939998 -0.022186166 -0.0025363415 -0.013309411 0.016561603 0.0008397937 -0.0026482015
00000000: c730 a03b 805f b7bb dad6 2cbc 070a 97bc
00000010: d55a a33c 8831 953c b24a bfbc e7f3 ad3c
00000020: 9207 ad3c eac6 9bbc f2f1 c4bc 3fc1 9cbc
00000030: 8d98 b7bc f875 b63c 8dc0 71bb e786 4bbc
00000040: 3370 32ba daa4 ae3b 6ab3 3abc 9ab7 dcbb
00000050: 933d b03b 67ba 543b 2388 bb3c 7a38 27bc
00000060: dddc 6abc 33b4 97bb e0fd 46bc 2521 aebc
00000070: 4bf6 b43c c30b a7bc 1b52 8ebc 7d82 56bc
00000080: 6a2f 973c cdc3 693c 0a42 9d3c cdbc a63c
00000090: f7bb 3abc 53d1 b23c ed41 563c 4090 fd3b
000000a0: 03e9 3f3c 8d17 9b3c 63e8 9fbc 82ce a33c
000000b0: b362 baba 5a4a 18bb 3aa8 843b e3f6 903c
000000c0: 27cb 843b a00e 47bc b3bb ed3a 8a36 8abc
000000d0: 7db7 303c 13a5 23bc 7040 b13c 00b7 6bbb
000000e0: 98ba 38b8 6742 93bb c3bf b5bc c038 26bb
000000f0: b70f 5abc 33ac 873c 9a25 5c3a 738d 2dbb
