src/TRAINED_MODEL_DIR/image_fragment_model_linear_fd_256_epoch_2.pth (torch, 789821 bytes, 2 tensors)

linear.weight f4 [256, 768]
00000000: 510f 083d 63e6 f23c 38a0 933c 06df 42bc
00000010: 77db 013d 97b8 c93c 8f79 f6bc a842 c73c
00000020: e39c 80bb 66f5 243c 1ef6 9a3b 31ec 4f3c
00000030: e062 583c 7a53 ba3b aa34 03bb 946c 08bd
00000040: 8f0b e23b 9336 00bd f62f c7bb 141e c9bc
00000050: 6794 963c 5eaa 85bc 4c90 73bc c15f 53bc
00000060: 4ab8 cf3c c2f0 e23b 562d 06bd 42f7 4f3a
00000070: b87d 923b 9760 043d 86ed 0a3c 1b46 0b3d
00000080: 4d15 fa3c 12de 06bd 5efb 7abc 2d7c 2c3c
00000090: 8114 a3bc 51e3 30bc 17c2 8abb f902 e5bc
000000a0: 6191 95bb 9eb1 07bd 0984 be3c 6101 883c
000000b0: 4aa3 1e3b c89c c4bc f107 48bc e8dc 843b
000000c0: ea24 d4bc 121b f43c 8fae abbc 2d9b 483c
000000d0: 6219 6bbb b0ee 98bc 749d 23bc b055 1dbb
000000e0: bd25 ccbc bce3 8f3c c346 e6bc 2714 eabc
000000f0: 7ccb 903c 9d48 fbb9 6fc5 5cbb 48aa 4e3c
00000100: e354 9a3c a733 6a3c 44b4 023c 549b 453c
00000110: 144e 4abb 6748 fcbc fe81 b6bb d81d abbc
00000120: 84c8 103d b2ec c73c a88d 483a be4c cebc
00000130: 678b 43bb 5334 babb f72f c0bc cdb5 dabc
00000140: decb dbbb a666 243c 6a56 793b 0df1 1cbc
00000150: 4b6f 5abc 85fa 893c 8cd3 093c f42d 853c
00000160: 0375 54ba 34a1 b6bc 12d6 73bc 17b4 d53b
00000170: 83c7 db3a b126 b83c d46a dbbc 8c3d e43c
00000180: d425 0cbc d3e7 c0ba 0631 04bd d814 c73c
00000190: 8b23 2ebc 4f67 103b 426e 943c f00b 54ba
000001a0: 8b32 8abc d43f e13a 6f22 5f3c 993d 513c
000001b0: 3441 fdbc e6bf 75bc d3f9 dcbc 46c5 273c
000001c0: 35fd f43b 780a ee3b 3026 963b edc3 82bc
000001d0: 7bed 0f3d 0bb6 9fbb da78 01bb e956 e0bc
000001e0: 1d1e f43c b172 b03c 5520 bd3b 9d8f f43c
000001f0: fc8c b9bb 2a5f bdbc f69d 073d 4f87 06bd
00000200: 47df b93c a548 ebba 4c46 85bb 5738 0c3d
00000210: bcff 4c3c 7a29 4c3c 4b82 51bb 25fb 193c
00000220: 2280 28bc 708c cebb 4950 11bd c380 fd3c
00000230: 52db 06bd 1d86 583c d133 b6bc 6866 07bd
00000240: 9e09 c2bc 520b 97ba 3793 b5bc 085c e63c
00000250: 86d3 a73c 54a6 ca3c 8424 9c3b 1cb6 293c
00000260: 70f9 0bbc dff3 50bc 34bb 533c 7b03 06bc
00000270: c64c 46bc 1b7d 0ebc dad0 f43a bdb7 023d
00000280: 1997 ecbc f09e ce3c 71ac 99bc a4f1 7abb
00000290: 28f5 dabc b68b 8c3c c64f a9bc cca1 493b
000002a0: 65ee e0bc 9881 333c 9237 893c 9684 863c
000002b0: 946f b9bb 14ec d53c ebee 303b e512 8fba
000002c0: 6776 1a3c a3ba 8bba 7626 70bc 4575 eebb
000002d0: 2656 09bd 94c7 f13c ca7a 723c bd73 853c
000002e0: 20ff 1dbb 1bb3 693c eba3 563c d5b1 d53c
000002f0: f1b3 edbc 8c33 b23c 10ab cd3c d682 083c
00000300: 031c 10bd f9b4 68bc f145 6239 2495 2d3c
00000310: 92c3 023d 9bd3 23b9 3334 143d 6659 e2ba
00000320: 4d69 0f3b 0b93 babc 5f84 a33b f7dc abbb
00000330: f1c4 f93c c04f b0bc af87 21ba 82b5 90bc
00000340: ddac ae3a 9e63 a83b 90a0 0f3d ce17 b3bc
00000350: 8a13 e3bc f20c 11bc fc6d 1a3c e46f ebbc
00000360: f3a2 42bb f213 8f3b d2ae b03c 9339 d5bc
00000370: 5e07 c8bb c120 a63c 9fa1 acb9 2f75 503c
00000380: 14a5 f13c 31ad efbc b02b 2b3c a11b 4e3b
00000390: bcfe b3ba 1f15 04bd 7e1c 8c3b 9abd 0f3d
000003a0: 883d fb3b 4861 4abc 153f 933b 0433 fa3c
000003b0: dd57 1bbc 1127 4abc 253d f0bc 65fc b93c
000003c0: b937 053d 8398 a93c f8c5 17bc 0bc0 ce3c
000003d0: 76f8 5fbc 45e9 b53a 6d0d 6fbb e02f ebbb
000003e0: 1f23 4fbc bc3a 883b f8d9 a43c 4f0a 8ebc
000003f0: b752 813c ed48 f4bc 91d2 dcbc f3f5 8cbc
0.033217732 0.029650873 0.018020734 -0.011893993 0.03170344 0.024624152 -0.03008726 0.024323776
-0.0039249524 0.010068273 0.0047290465 0.01269059 0.013207167 0.0056862207 -0.0020020404 -0.033306673
0.0068983505 -0.031302046 -0.0060787154 -0.024550475 0.01838131 -0.016316589 -0.014865946 -0.0129012475
0.02535643 0.006925673 -0.03275808 0.00079332676 0.0044705532 0.032318678 0.008479482 0.034002405
0.030527735 -0.032926627 -0.01531872 0.010527653 -0.019907238 -0.010796384 -0.004234563 -0.027955519
-0.0045644497 -0.033128373 0.023256319 0.01660222 0.0024206215 -0.02400054 -0.012208925 0.0040546544
-0.025896508 0.029798064 -0.02095726 0.012244028 -0.0035873284 -0.018668503 -0.00998627 -0.0024007373
-0.024920339 0.017564647 -0.028109914 -0.028574063 0.017675154 -0.00047928552 -0.0033687016 0.01261384
0.018839305 0.014294541 0.007977549 0.012060959 -0.0030869292 -0.030796243 -0.0055696955 -0.020888254
0.035347477 0.024404857 0.0007650503 -0.025183078 -0.002983773 -0.005682507 -0.023460371 -0.026698017
-0.0067076525 0.010034239 0.0038045892 -0.009578955 -0.013332198 0.01684309 0.008412253 0.016257264
-0.00081045943 -0.022293665 -0.014882581 0.0065217125 0.0016767833 0.022479387 -0.026784338 0.02786138
-0.008553941 -0.0014717527 -0.032273315 0.024301931 -0.010628591 0.0022034233 0.018118981 -0.0008088937
-0.016869804 0.001718516 0.013619049 0.012771034 -0.03091488 -0.014999365 -0.026974594 0.010239905
0.0074764737 0.0072644316 0.004582189 -0.015962565 0.03513859 -0.004873996 -0.001975587 -0.027385192
0.029799515 0.021539064 0.0057716765 0.029853636 -0.0056625586 -0.023116667 0.033109628 -0.032843884
0.022689475 -0.0017950727 -0.004067218 0.034233417 0.012512144 0.012461061 -0.003196853 0.009398256
-0.0102844555 -0.0063033625 -0.035476957 0.030945187 -0.032924004 0.013215569 -0.022241505 -0.033056647
-0.023686226 -0.001152376 -0.022164924 0.028120056 0.020486604 0.024737515 0.004765095 0.01035836
-0.008543357 -0.012753456 0.012923051 -0.008179541 -0.012103265 -0.00869682 0.0018677965 0.031913508
-0.028880643 0.025222272 -0.018758984 -0.0038291002 -0.026728228 0.017156463 -0.020667922 0.0030766604
-0.027457425 0.0109561905 0.01675013 0.016420644 -0.005659053 0.026113547 0.0026997875 -0.0010915665
0.009427643 -0.001066048 -0.014657607 -0.007277163 -0.033529423 0.029514112 0.014799783 0.01629054
-0.0024108365 0.0142638935 0.0131006045 0.026085773 -0.029016467 0.021753095 0.025105983 0.008331975
-0.035182964 -0.0142033035 0.00021579095 0.01059464 0.03192479 -0.0001562372 0.036182594 -0.0017269074
0.0021882833 -0.022775194 0.004990145 -0.005244847 0.030489417 -0.021522403 -0.0006161881 -0.017664675
0.0013326664 0.0051388284 0.035065234 -0.021861937 -0.027719278 -0.008853184 0.009425636 -0.028739877
-0.0029699176 0.0043663913 0.021567736 -0.02602843 -0.006104394 0.02027929 -0.00032926814 0.012723251
0.02949766 -0.029257389 0.010447428 0.0031449574 -0.0013732533 -0.032246705 0.0042758575 0.035092928
0.007667247 -0.012352295 0.004493604 0.030541904 -0.009481397 -0.012338416 -0.029326031 0.022703359
0.032523844 0.020702606 -0.009263508 0.025238058 -0.013670078 0.0013878724 -0.0036476508 -0.007177338
-0.012642651 0.0041573923 0.020123467 -0.0173389 0.015786512 -0.02981993 -0.026955875 -0.017207121

linear.bias f4 [256]
00000000: 632b c1bc dd1d b6bc 709a f63c 09be 113c
00000010: e532 303c e769 b53c a9c8 ddbb 6617 c63c
00000020: 504a bb3c a93b 8f3b 6880 0c3d 5899 9d3b
00000030: ffec 8e3b 2db3 97bb 30b0 bbbc bfde 7b3c
00000040: 32d6 47bc b34c 1a3c 5488 f43c a4aa 133d
00000050: 1745 debc 7e06 12bc 6076 983c f9f3 063c
00000060: 7ae9 a53c e22b 913c 23f3 16bb c567 3c3b
00000070: 59e6 853c 385f 58bc 86d6 67bc f595 21bc
00000080: 0a86 abbc 9786 103c 9e2b 22bc 7036 f53c
00000090: bb7d da3c 379a 883c 69e6 01bd 06cd b3bc
000000a0: e6a5 a43c c077 343c 5b55 89bc 6a68 6abc
000000b0: c310 cbbc 28dc 863c ad72 a6bc 4183 2cba
000000c0: 6ed7 913c 8920 a0bc 1519 1ebc 854a 3bbc
000000d0: 07e2 dfbb 26fe 013d 60bf f5bc 0496 44bc
000000e0: 0c33 dd3c 1456 e13c d9ba 7ebc caef 113d
000000f0: 7857 b43c ba3e 69b9 2f0a 053d 95c5 023c
00000100: 7583 db3c 4fa3 b1bc d2f5 943c 6bdb af3c
00000110: b449 e5bc eb98 fe3c bd91 10bc 57b6 3a3c
00000120: 8cd8 cebc 0baa 00bd 64b1 fa3a 4b3c a93c
00000130: ea36 a9bb 5606 503c be2f 013c 7399 2f3c
00000140: fb03 8f3b 6cdd 70bc 8d79 103d 0b34 80bc
00000150: d5ac d13a 532e c0ba 8d47 82bc 2a5d 8e3b
00000160: 4ece 0fbc a746 af3b 438e 983c e9af a1bc
00000170: 993d 1bbc 3552 233c 3fae 76bc d452 87bc
00000180: ebd7 0bbd 3a60 df3c 695c 033d 9570 7d3c
00000190: c0df d73c f133 d5bc 9d3a 59bc 74ef 2c3c
000001a0: c02a be3c b394 463c ed71 09bd 4432 80bc
000001b0: 9cc1 f9bc 5879 b9b8 0620 e239 b07f cfbc
000001c0: 112e f6bc f693 003d efc6 1a3c 3d39 c73c
000001d0: 8d62 823c 373d c83c d411 e93c eaa9 c2bb
000001e0: 7f47 f6bc 68e2 76bc fb35 f8bb f78b fe3c
000001f0: 2afc edbc 44a4 0a3d 0a22 0c3c f401 85bb
00000200: 12cf 4a3c c577 a0bb d0bf 883b b8b7 12bc
00000210: 7195 f93b e749 7d3c 55c7 833c 1a4d 863b
00000220: 5d42 a0ba d9f7 833c 5a2f a63a 75a2 f6bc
00000230: 30ab 05bd 83ce 4aba 96b0 ca3c b139 073d
00000240: 12f7 cabc 9de1 c3bc c1e5 b53b c791 45bc
00000250: b265 963c e365 e73c 175d 25bc 0381 da3b
00000260: 76ac f53c a559 f1bb cd63 3c3a 278f 53bc
00000270: 9f88 6bbc ef5e f5bc dae1 fcbb d44d a83c
00000280: 1d8a 34bb 3e8c 8cbc 68f8 bb39 5267 0bbc
00000290: ae30 0b3d efef a6bb 5708 ac3c ee59 df3c
000002a0: c7c9 023d 189b 13bd e06b 82ba 5efa 293c
000002b0: 186d 59bc ff79 433c 4201 5ebc fa06 073d
000002c0: ff6e f0bc c991 073d 7191 1dbb e133 f93c
000002d0: e06d 133c 39ed e7bb dcb5 5bbc 83f6 113d
000002e0: 0e24 d63c 70bc a03b f8ce d53b b4c4 a639
000002f0: fee9 e83a 492a de3c ed56 79bc ff8a fdbc
00000300: 13c9 5d3c 6afd e9bc b824 9c3c d9d9 09bc
00000310: 19f0 57bc 965e 053d f6a2 cebc a564 93bc
00000320: 9969 14bc e829 9a3c 6176 eb3c a240 0b3d
00000330: b242 2abb 9dec 56bc e694 103d fc74 8a3c
00000340: 42dd d53c f4cb 4fbc b285 db3c e40f cf3c
00000350: 662d ebbc 3045 12bd 6e3f 9c3c fc5f fbbc
00000360: 9364 0b3d 2822 84bc 1ee7 14bc 71bc 123d
00000370: 04e8 b43c 040a 7e3c 7ee1 053d b5af 8f3a
00000380: 6062 a63c a93b 053d 4a9f ac3b 5759 293c
00000390: 7e85 d53c c80e ac3c c4b7 043c 7693 13bd
000003a0: 55d5 81bb 0386 c33c eaa0 a03c 6259 cc3b
000003b0: 3bee 8f3c 1287 083d 163b fb3c 18a2 7fbc
000003c0: bbc6 8fbc d02f 4abb bb36 0b3c 873b ad3c
000003d0: 3299 8abc d299 b1bc 6bc8 e9ba 28cc 8cbc
000003e0: e79f eabc c9fe 733c d87a a83b 7b0b c63c
000003f0: 2d6a f93c c28c dc3c 3c02 89bc 0222 ba3c
-0.023580259 -0.022231037 0.030102938 0.008895406 0.010754322 0.022145225 -0.0067683053 0.02418108
0.022862583 0.0043711257 0.034302145 0.0048095398 0.004361748 -0.0046295137 -0.022911161 0.015372931
-0.012197064 0.009417701 0.029850163 0.036051407 -0.027132554 -0.008912681 0.018611133 0.008236879
0.020252932 0.01772112 -0.0023033104 0.0028748375 0.01634519 -0.013206296 -0.0141502675 -0.009862413
-0.020937938 0.008821151 -0.009898094 0.029933184 0.026671281 0.016675098 -0.031713877 -0.021948349
0.020098638 0.011014879 -0.016764333 -0.014307121 -0.024788266 0.0164624 -0.020318354 -0.00065808377
0.01780292 -0.019546764 -0.009649535 -0.011431341 -0.0068323645 0.031736515 -0.029998481 -0.011998657
0.02700188 0.027506866 -0.015547478 0.03562907 0.022014365 -0.00022243979 0.032480415 0.007981678
0.026796082 -0.021684317 0.018183623 0.021466931 -0.027989246 0.031078776 -0.008823809 0.011396012
-0.025249742 -0.031412166 0.0019126353 0.020658633 -0.005164017 0.012696823 0.007884918 0.0107177375
0.004364488 -0.014701229 0.03527217 -0.015649816 0.0015996943 -0.0014662243 -0.015903259 0.004344602
-0.008777214 0.0053489986 0.018622523 -0.0197372 -0.009475135 0.00996833 -0.015056192 -0.016518988
-0.034141462 0.027267564 0.03207055 0.015468736 0.02635181 -0.026025744 -0.013258603 0.010555137
0.023213744 0.012120414 -0.033555914 -0.015648969 -0.030487828 -8.8440895e-05 0.00043129938 -0.02532944
-0.030051263 0.031391107 0.0094468435 0.024319286 0.015916133 0.024443252 0.028450884 -0.0059406655
-0.030063389 -0.015068628 -0.0075747943 0.0310726 -0.029050905 0.033848062 0.008553037 -0.0040590707
0.012378471 -0.00489709 0.0041732565 -0.008954935 0.0076166918 0.015459514 0.01608626 0.0040985467
-0.0012226809 0.016109394 0.0012678907 -0.030106762 -0.03263396 -0.0007736461 0.024742406 0.033014003
-0.024776015 -0.023911292 0.0055510704 -0.012058682 0.018359039 0.028246826 -0.010092995 0.0066682114
0.029989462 -0.007365423 0.00071865023 -0.012912548 -0.014375835 -0.029952494 -0.0077173533 0.020544924
-0.0027548142 -0.017156716 0.00035852497 -0.00850852 0.03398197 -0.0050945203 0.02100007 0.027264562
0.03193071 -0.03603658 -0.0009950362 0.010374634 -0.013270639 0.011930942 -0.013550105 0.032965638
-0.029349802 0.033098016 -0.0024042989 0.030420246 0.008998364 -0.0070778397 -0.013410058 0.035635483
0.02614024 0.004905276 0.0065249167 0.00031808543 0.001776993 0.027119773 -0.015218479 -0.030950068
0.013536709 -0.02856322 0.019060478 -0.008413755 -0.013179802 0.032560907 -0.02522419 -0.017992327
-0.00905838 0.01881881 0.02874297 0.033997186 -0.0025979695 -0.013117936 0.03529825 0.016901486
0.02610648 -0.012682904 0.02679715 0.025276132 -0.028708171 -0.035710514 0.019073214 -0.030685417
0.034031462 -0.016129568 -0.009088306 0.035824243 0.02208329 0.015505318 0.03268575 0.0010962399
0.02031058 0.0325276 0.005268012 0.010336242 0.02606463 0.021003142 0.008100454 -0.0360293
-0.0039621987 0.023867613 0.01960798 0.006236241 0.017569652 0.033331938 0.030667823 -0.015602611
-0.017550817 -0.0030851252 0.0084969355 0.021146549 -0.016918752 -0.021679793 -0.0017836218 -0.017187193
-0.0286407 0.0148922885 0.0051415972 0.024175396 0.030446136 0.026922587 -0.016724698 0.022721294
