src/TRAINED_MODEL_DIR/image_fragment_model_linear_fd_32_epoch_1.pth (torch, 100789 bytes, 2 tensors)

linear.weight f4 [32, 768]
0	0x3cb21397	0.021737857
1	0xba5a85d2	-0.0008335981
2	0xbc126fa9	-0.008937755
3	0xbb2a330e	-0.0025970372
4	0xba0db705	-0.0005405995
5	0x3d033eb8	0.032042235
6	0xbb4198c9	-0.002954053
7	0xbce87a1e	-0.028378543
8	0x3caff0c1	0.021477105
9	0x3bfc25f2	0.007694953
10	0xbcdf2a7b	-0.027241936
11	0xbc9b1dfa	-0.018935192
12	0xbc499b29	-0.0123050595
13	0xbb1d8fba	-0.0024041967
14	0x3cb3576f	0.021892278
15	0xbc00d54f	-0.007863357
16	0x3caec598	0.021334454
17	0x3c67d923	0.0141508905
18	0xbc5aedb5	-0.013362338
19	0x3c1ebebe	0.009689031
20	0xbcd15140	-0.025551438
21	0xbc52b885	-0.012861376
22	0xbcdbd2fb	-0.026834002
23	0xbce01d9d	-0.02735787
24	0xbca4487e	-0.020054098
25	0x3cf9e5b2	0.030505035
26	0xbd0267d6	-0.031837307
27	0x3bdcdd5c	0.0067402553
28	0xbcfe3d6c	-0.031035148
29	0x3cab3699	0.020900058
30	0xbd0892d3	-0.033343147
31	0x3c8c57e9	0.017131763
32	0xbb2aa4a5	-0.0026038077
33	0x3c8bfa75	0.0170872
34	0x3cc6594e	0.024212506
35	0xbc1c777e	-0.0095499735
36	0xbb5f771e	-0.00340981
37	0xbc14e76f	-0.009088381
38	0xbc90c8cd	-0.017673874
39	0xbbfc2aa6	-0.007695514
40	0xbc757fa6	-0.014984047
41	0xbd176513	-0.036961626
42	0xbd0dc9f0	-0.03461641
43	0xbd095b27	-0.033534195
44	0x3bcd6fb7	0.006269421
45	0xbc69c889	-0.014269003
46	0x3cd69b8c	0.026197217
47	0xbd071072	-0.032974668
48	0x3c51edde	0.01281306
49	0xbc02861d	-0.007966545
50	0xbcbd1104	-0.023079403
51	0x3af1ffdc	0.0018463093
52	0x3c9b653b	0.018969169
53	0x3c2e8039	0.010650688
54	0x3caf3ebd	0.02139222
55	0x3b85a0d9	0.0040780124
56	0x392372dc	0.0001558768
57	0x3bc1371a	0.005896461
58	0x3c8a8371	0.01690838
59	0xbc07cb0c	-0.008288156
60	0xbb527484	-0.0032112906
61	0x3c210f02	0.009830238
62	0xbcd1094e	-0.025517132
63	0xbbc5e6fb	-0.006039498
64	0x3cdf4d6e	0.027258601
65	0xbcb65f0f	-0.022262124
66	0xbd0ca54b	-0.034337323
67	0x3c9093b1	0.01764855
68	0xbd0bdac3	-0.034144174
69	0xbbeb03e1	-0.0071720933
70	0x3cb97e69	0.022643285
71	0xb9cec027	-0.00039434546
72	0xbced5872	-0.028972838
73	0xbc84a7e4	-0.016193338
74	0xbcce86ab	-0.025210699
75	0xbaee6017	-0.0018186596
76	0xba965449	-0.0011469211
77	0x3d02412f	0.031800445
78	0x3b565ece	0.0032710317
79	0x3d19a78a	0.037513293
80	0xbd0d3778	-0.034476727
81	0x3a831b9a	0.0010002733
82	0xbafb9553	-0.0019194282
83	0xbce4c92b	-0.027927956
84	0x3bfa097c	0.007630525
85	0xbcf15396	-0.029458802
86	0x3b8dd16a	0.0043279426
87	0x3b2dad72	0.0026501087
88	0x3c48f1c0	0.012264669
89	0x3ce431cc	0.027855776
90	0xbd0a22e2	-0.033724673
91	0x3cb6f456	0.022333305
92	0x3cf11474	0.029428698
93	0x3cc0c283	0.02353025
94	0x3c20d885	0.009817247
95	0xbc7f72f1	-0.015591369
96	0xbca27f4a	-0.019836087
97	0xbce3ca7c	-0.027806513
98	0xbc6666e4	-0.014062617
99	0xbbb84a1e	-0.00562407
100	0x3c8b508a	0.017006177
101	0xbd15d49f	-0.036579724
102	0xbc4eb974	-0.012617458
103	0x3cd37469	0.025812345
104	0x3b4e162a	0.0031446316
105	0x3b853865	0.0040655606
106	0x3c037530	0.008023545
107	0x3c63e0ee	0.013908608
108	0xbc3f82fc	-0.011688944
109	0x3cae630d	0.021287465
110	0x3d08f265	0.03343429
111	0x3c0bdafa	0.008536095
112	0xbc60d21a	-0.013721967
113	0xbd13bf8c	-0.036071345
114	0xbcdc280d	-0.026874566
115	0xbc15548c	-0.009114396
116	0xbd088907	-0.033333804
117	0xbd01fbf6	-0.03173443
118	0xbca67e28	-0.020323828
119	0xbcaecff3	-0.021339392
120	0x3d0bb2fd	0.034106243
121	0xbd044e90	-0.032301486
122	0xbc9936b0	-0.018702835
123	0x3ce7949a	0.028269101
124	0xbc5f62d7	-0.013634405
125	0x3c32d11a	0.0109141115
126	0x3cf15e8f	0.029464034
127	0xba6b5d74	-0.0008978464
128	0xbcd20393	-0.02563647
129	0x3c197081	0.009365202
130	0x3b2bdd17	0.002622431
131	0x3c994c8f	0.018713264
132	0x3d08dc56	0.033413254
133	0xbbd01c8c	-0.0063510593
134	0x3c8bbc05	0.017057428
135	0x3a6303fc	0.00086599565
136	0x3cf4ae9e	0.02986842
137	0xbcb28a8c	-0.02179458
138	0xbcecc3ff	-0.028902052
139	0x3c16eb1d	0.009211329
140	0x3b5a46c3	0.0033306337
141	0xbc3233f2	-0.010876643
142	0xbcc71936	-0.024304014
143	0x3b86bb02	0.0041116485
144	0x39b8e0d4	0.00035262725
145	0x3d186a5a	0.0372108
146	0x3bd6a261	0.006550119
147	0xbc58d783	-0.013234976
148	0x3c80c7bc	0.01572024
149	0x3cbba010	0.022903472
150	0x3cb96f00	0.022635937
151	0xbc8af119	-0.016960667
152	0x3ab107a3	0.0013506304
153	0x39630883	0.00021651578
154	0xbc81ea94	-0.015858926
155	0x3c0b4835	0.008501102
156	0x3d11a3e5	0.035556693
157	0xbac7cc2b	-0.0015243342
158	0xbccd9816	-0.025096934
159	0xb9b5f122	-0.00034702668
160	0x3c2861c3	0.010277214
161	0xbc9f571d	-0.019450719
162	0x3c91361e	0.017726
163	0x39be357b	0.0003627947
164	0xbc1b6159	-0.009483659
165	0xbd0f8b3c	-0.035044894
166	0x3c51fe1a	0.01281693
167	0xbcda1ee3	-0.026626056
168	0x3d123a6b	0.035700243
169	0x3c80a294	0.015702523
170	0x3cd95df6	0.026534062
171	0xbb318c4f	-0.0027091687
172	0xbc4e24e8	-0.012582041
173	0x3c8280ec	0.015930615
174	0xbc3f4862	-0.011674972
175	0xbd031762	-0.03200472
176	0x3cba9229	0.022774773
177	0x3cea6e11	0.028616937
178	0xbcbbb73e	-0.022914525
179	0x3cd619a3	0.026135271
180	0x3bed5b04	0.007243516
181	0x3ca25179	0.01981424
182	0x3c16e070	0.0092087835
183	0x3c1199e2	0.008886786
184	0x3c35b169	0.011089661
185	0x3cab077e	0.020877596
186	0xbc22c66c	-0.009935003
187	0x3cd31ad1	0.025769623
188	0xbc81d914	-0.015850581
189	0x3cf22a27	0.029561115
190	0x3d0bd54a	0.034138955
191	0x3c9bb3f1	0.019006701
192	0xb9bbc3aa	-0.000358132
193	0x3c0a9bc6	0.008459991
194	0xbc8fde48	-0.017562047
195	0x3c90e39e	0.017686661
196	0xbc8ba730	-0.017047495
197	0x3c162ab3	0.009165454
198	0xbbd5a822	-0.006520287
199	0x3c8a2fb8	0.016868457
200	0xbcb924ee	-0.022600617
201	0x3c521aad	0.012823743
202	0x3cf4f476	0.029901724
203	0xbd069834	-0.032859996
204	0x3c40aba3	0.011759671
205	0xbcef3dbb	-0.02920424
206	0xbcbc9cca	-0.023023982
207	0xbcf29adb	-0.029614856
208	0x3bc1ff92	0.005920359
209	0x3be77aa4	0.0070641804
210	0x3cdc6999	0.026905822
211	0x3c0a30b4	0.008434463
212	0xbc370d23	-0.011172566
213	0xbb74aab8	-0.0037333202
214	0x3c2eeef3	0.010677087
215	0x3a79622d	0.00095132255
216	0x3c65303f	0.013988554
217	0x3cf4bf0b	0.029876253
218	0xbc676c05	-0.014124875
219	0xbc1d90cd	-0.009617043
220	0x3cd76557	0.02629344
221	0xbcc82948	-0.024433747
222	0xbcdf0ecc	-0.027228735
223	0x3cea0b8f	0.028569965
224	0xbc74f48a	-0.014950881
225	0xbd003fd9	-0.03131089
226	0x3d101bbf	0.03518271
227	0x3bc180fa	0.005905268
228	0x3d128ed7	0.035780754
229	0xbc56c7b3	-0.013109135
230	0xbb82a32e	-0.0039867377
231	0xbc7253d3	-0.014790493
232	0x3b82a1ba	0.0039865645
233	0x3cf1c1bc	0.029511325
234	0x398a5b8b	0.00026389616
235	0x3cc0d372	0.023538325
236	0xbc1d6407	-0.009606368
237	0x3d0b8ae8	0.03406802
238	0xb9c6e3f0	-0.0003793533
239	0x3c9a9e1c	0.01887422
240	0x3c1c3220	0.009533435
241	0xbab87df2	-0.001407562
242	0xbc47ae28	-0.012187518
243	0xbc6efc44	-0.014586512
244	0x3c88c14a	0.01669373
245	0xbc542f6a	-0.0129507575
246	0x3c86b19a	0.016442109
247	0xbc995027	-0.018714977
248	0xbaca90ab	-0.0015454491
249	0xbaad4d66	-0.0013221919
250	0xbca53125	-0.020165036
251	0xbcba078a	-0.022708673
252	0x3cf8795f	0.030331312
253	0xbc80130d	-0.015634084
254	0xbb26a4d7	-0.0025427842
255	0xbce92d2e	-0.028463926

linear.bias f4 [32]
0	0xbcb91287	-0.022591842
1	0xbab34807	-0.0013678082
2	0xbd06e68f	-0.03293472
3	0x3b131364	0.0022441978
4	0xbcf84d51	-0.030310305
5	0xbc829edd	-0.015944893
6	0xbc505152	-0.012714701
7	0xbc9ec47c	-0.0193808
8	0xbcbf0eec	-0.023322545
9	0x3d069a70	0.032862127
10	0xbca1883a	-0.019718278
11	0x3cd05114	0.025429286
12	0xbb70f24c	-0.0036765514
13	0x3c7147f6	0.0147266295
14	0x3c4bf323	0.012448105
15	0x3cc2f59f	0.023798762
16	0x3d0e3b4a	0.03472451
17	0xbb05959c	-0.0020383364
18	0x3d0a0ee2	0.0337056
19	0x3b7d2477	0.003862647
20	0xbb6e2392	-0.003633712
21	0xbc7e6947	-0.01552803
22	0x3c7a6462	0.015282722
23	0xbc752561	-0.014962525
24	0x3b132a8f	0.0022455787
25	0xbad62524	-0.0016337973
26	0xbc4b5a72	-0.012411701
27	0x3c52194d	0.012823415
28	0x3c85f774	0.016353346
29	0xbd0921a1	-0.033479337
30	0x3cda88ea	0.026676614
31	0xbc0f2a24	-0.008738074
