src/TRAINED_MODEL_DIR/image_fragment_model_linear_fd_64_epoch_5.pth (torch, 199221 bytes, 2 tensors)

linear.weight f4 [64, 768]
-0.023887655 0.03376604 -0.018214568 -0.021834463 -0.025868747 -0.017640214 0.005696156 0.010770298
0.020392807 -0.007499523 -0.028858794 -0.00995395 0.0039563677 -0.0119470125 -0.028866474 0.011973813
0.014662767 0.009248242 -0.034976937 0.016327335 -0.012762932 -0.030876186 -0.0116642285 0.019819736
-0.034215514 -0.020652229 -0.026086437 -0.018621052 -0.012337896 0.00447192 0.030797757 -0.025515879
-0.010980824 0.025394592 0.025834149 -0.005239047 -0.035189614 0.03759806 -0.0081962645 0.015541781
0.029664407 -0.022322552 -0.03231587 -0.008693621 0.02838711 0.021310285 -0.024663236 0.020863198
0.021102114 -0.020267937 -0.014124962 -0.03618868 -0.011658859 -0.026069166 -0.014548117 -0.007020373
0.024812974 -0.0149902925 -0.011030908 -0.02054042 -0.014351854 -0.01923982 -0.010954566 0.029804196
0.009967602 -0.009714628 0.034854908 0.034980096 -0.0017004415 0.0011854674 0.03615068 0.0030736676
0.0015662892 0.036929775 -0.01154941 -0.027182782 -0.03310427 -0.025229646 0.023759272 0.002366682
0.025857586 -0.033037353 -0.009179291 -0.012183156 0.016245859 -0.0021774273 0.010108478 0.033896033
0.007610484 -0.016473697 -0.010106975 0.03660063 -0.009901331 0.028753852 0.022086473 0.015299315
-0.019001752 0.025635816 -0.02519955 0.030573769 -0.016897127 0.035430387 0.032063287 -0.023086913
0.0059300805 0.03328628 0.03368917 -0.0053608706 -0.026711036 -0.01614959 -0.005761624 -0.011673813
-0.026025767 -0.014301874 0.020570926 -0.013446246 0.010987039 -0.026791917 0.03450351 0.02551777
0.022886548 0.018074064 0.011637923 0.027786128 0.03785957 0.034020692 0.02846299 -0.016044585
0.017740954 -0.028511552 -0.0033472255 0.005412567 0.023687175 -0.002280928 0.020634105 -0.02298723
0.011396564 -0.022084797 -0.010679223 -0.016648958 0.013153056 -0.021256829 0.01745772 -0.029374037
-0.0030995721 -0.008162136 0.02645774 0.010074413 -0.020804007 0.029963266 4.9537728e-05 0.02417538
0.027316827 -0.009902713 -0.006524326 0.011590429 0.014493334 0.02856423 0.0021852404 -0.03075187
0.018892536 -0.007973167 0.033371612 0.023354758 -0.0139329545 -0.034231257 -0.00028667238 -0.00987355
0.01964405 -0.008227089 -0.022415567 -0.033670455 -0.031732604 -0.03233956 0.012354351 0.010417522
-0.018874308 0.018390635 -0.020223128 -0.009434553 -0.004745433 0.003775857 -0.018043514 -0.015630303
0.022845386 -0.013014152 -0.030508773 -0.030634686 0.033415563 -0.025820466 0.03394146 -0.021864202
-0.032593027 0.02647755 0.004598133 -0.01875979 -0.01606504 -0.013621204 -0.0056535667 0.02018731
-0.00062813156 -0.020038411 -0.010658016 -0.020520518 -0.035648555 0.020779207 -0.0065053003 7.44103e-05
-0.018553965 0.012248741 -0.020022111 -0.032763433 -0.015185592 -0.022835428 0.018890519 -0.022806482
-0.020322435 0.033657894 -0.032774616 0.02850587 0.0033300228 -0.0011027597 0.0042614276 0.029819114
0.019249983 0.028928595 -0.0003417897 -0.021966295 -0.002803933 -0.012572464 0.01313373 -0.014843203
-0.008177208 -0.028448459 0.007931591 -0.007275657 -0.010548499 0.0015150546 -0.013040607 -0.028372476
0.009078658 0.01924453 -0.018107712 -0.027375914 0.009217905 0.023082089 -0.022182396 0.03411274
0.011628073 -0.0219967 -0.021416007 0.023822665 0.027581032 -0.008944433 0.018102087 0.0054809446
00000000: 0bb0 c3bc 424e 0a3d b836 95bc 30de b2bc
00000010: b2ea d3bc 3682 90bc d2a6 ba3b e775 303c
00000020: d10e a73c 8fbe f5bb 4769 ecbc e415 23bc
00000030: 6ba4 813b 67bd 43bc 6279 ecbc d02d 443c
00000040: 1a3c 703c f085 173c fa43 0fbd e7c0 853c
00000050: 9e1b 51bc 0ef0 fcbc 521b 3fbc 005d a23c
00000060: 9125 0cbd dd2e a9bc 39b3 d5bc 2d8b 98bc
00000070: e324 4abc 2f89 923b 944b fc3c ad06 d1bc
00000080: eae8 33bc 5208 d03c 23a2 d33c 50ac abbb
00000090: fc22 10bd 6c00 1a3d a049 06bc f4a2 7e3c
000000a0: c502 f33c c9dd b6bc a55d 04bd b06f 0ebc
000000b0: 168c e83c e892 ae3c 8e0a cabc 4ce9 aa3c
000000c0: 57de ac3c f208 a6bc 626c 67bc 953a 14bd
000000d0: cd04 3fbc 018f d5bc 3a5b 6ebc 280b e6bb
000000e0: 9444 cb3c d899 75bc fbba 34bc 6244 a8bc
000000f0: 0a24 6bbc d49c 9dbc c87a 33bc ee27 f43c
00000100: 274f 233c 1a2a 1fbc 05c4 0e3d 4a47 0f3d
00000110: 59e1 deba af61 9b3a bc12 143d 966f 493b
00000120: f24b cd3a ad43 173d bd39 3dbc 6dae debc
00000130: 5898 07bd 67ae cebc cea2 c23c 561a 1b3b
00000140: 4ad3 d33c 2d52 07bd bd64 16bc dc9b 47bc
00000150: 0916 853c 2bb3 0ebb 089e 253c 91d6 0a3d
00000160: 5e61 f93b d9f3 86bc ba97 25bc 8bea 153d
00000170: 3139 22bc 338d eb3c b1ee b43c faa9 7a3c
00000180: 90a9 9bbc 3402 d23c 496f cebc d775 fa3c
00000190: d86b 8abc 741f 113d cb54 033d c420 bdbc
000001a0: 1f51 c23b 3257 083d a8fd 093d 3eaa afbb
000001b0: 1ad1 dabc 254c 84bc 01cc bcbb 8543 3fbc
000001c0: fd33 d5bc 6852 6abc 5c84 a83c a54d 5cbc
000001d0: fb02 343c b97a dbbc 8d53 0d3d a40a d13c
000001e0: 927c bb3c 0f10 943c fdac 3e3c bc9f e33c
000001f0: a312 1b3d 4859 0b3d 372b e93c ef6f 83bc
00000200: 7a55 913c 0f91 e9bc 205d 5bbb e75b b13b
00000210: 9b0b c23c 9f7b 15bb db08 a93c b74f bcbc
00000220: a7b8 3a3c 2deb b4bc e8f7 2ebc 6563 88bc
00000230: ea7f 573c cd22 aebc 7e03 8f3c d2a1 f0bc
00000240: 3122 4bbb 7bba 05bc e7bd d83c 270f 253c
00000250: 2a6d aabc 8675 f53c bbc6 4f38 720b c63c
00000260: 8ac7 df3c fd3e 22bc 03ca d5bb c8e5 3d3c
00000270: 7375 6d3c 88ff e93c 4036 0f3b 58eb fbbc
00000280: 85c4 9a3c e3a1 02bc acb0 083d 7a52 bf3c
00000290: 0c47 64bc 1336 0cbd 844c 96b9 acc4 21bc
000002a0: 8fec a03c eaca 06bc daa0 b7bc 08ea 09bd
000002b0: 0cfa 01bd 7d76 04bd e769 4a3c 41ae 2a3c
000002c0: 4b9e 9abc f5a7 963c f9aa a5bc 6293 1abc
000002d0: 947f 9bbb 5e74 773b fecf 93bc 1f0b 80bc
000002e0: 3f26 bb3c 4f39 55bc 89ed f9bc 98f5 fabc
000002f0: c2de 083d 7185 d3bc 3306 0b3d 8e1c b3bc
00000300: 4480 05bd 72e7 d83c efab 963b 22ae 99bc
00000310: d59a 83bc 782b 5fbc 8e41 b9bb dc5f a53c
00000320: 32a9 24ba 9827 a4bc f69e 2ebc a51a a8bc
00000330: 3804 12bd 2839 aa3c 6a2a d5bb ba0c 9c38
00000340: 7cfe 97bc f2ae 483c 6905 a4bc f332 06bd
00000350: fdcc 78bc 5d11 bbbc 4ac0 9a3c a9d4 babc
00000360: 3c7b a6bc dcdc 093d ad3e 06bd 2485 e93c
00000370: 833c 5a3b 7a8a 90ba 72a3 8b3b 3747 f43c
00000380: 24b2 9d3c a9fb ec3c 3d32 b3b9 a9f2 b3bc
00000390: 31c2 37bb bcfc 4dbc db2e 573c e830 73bc
000003a0: b2f9 05bc be0c e9bc 81f3 013c a268 eebb
000003b0: 9dd3 2cbc cc94 c63a 45a8 55bc 656d e8bc
000003c0: a7be 143c b4a6 9d3c a056 94bc 7443 e0bc
000003d0: b206 173c a616 bd3c dbb7 b5bc cdb9 0b3d
000003e0: ac83 3e3c 6c32 b4bc 9f70 afbc c027 c33c
000003f0: 9ef1 e13c ac8b 12bc d44a 943c 7f99 b33b

linear.bias f4 [64]
0.03416434 0.010240397 0.012742635 -0.019393757 0.014923785 0.009584611 0.027713079 -0.029758736
0.016612805 -0.017289111 0.030703487 -0.029716449 -0.026864685 -0.023450771 0.015661951 -0.012127701
-0.020146545 0.007139391 -0.009173181 -0.025038077 0.025765162 0.01326207 -0.013128966 -0.016222695
0.026054887 -0.0114351185 -0.008103744 0.018956237 0.0053039524 -0.02314036 -0.014685833 0.010312148
-0.019717425 0.028627869 0.027253032 0.02600643 0.0014294586 0.015959255 0.029979154 0.016790453
-0.019537851 0.028770622 0.027971575 -0.022471517 -0.025956644 0.016512781 -0.031430084 0.009216764
0.019282127 -0.0044868942 0.0042233057 0.017720276 0.013084866 -0.008502975 -0.0016513134 0.031618
0.03260431 0.0018273604 0.035910554 0.015297528 0.006591441 -0.0069846455 0.007005891 -0.03084236
00000000: e8ef 0b3d 57c7 273c 7cc6 503c a8df 9ebc
00000010: e482 743c c608 1d3c 8a06 e33c 98c8 f3bc
00000020: 9417 883c e5a1 8dbc e185 fb3c e96f f3bc
00000030: 5413 dcbc d51b c0bc 7e4d 803c 44b3 46bc
00000040: 5e0a a5bc 8df1 e93b 1c4b 16bc a71c cdbc
00000050: 7611 d33c 2749 593c e01a 57bc 75e5 84bc
00000060: 0f71 d53c 5d5a 3bbc 91c5 04bc 1c4a 9b3c
00000070: c7cc ad3b da90 bdbc d99c 70bc 49f4 283c
00000080: 7086 a1bc fe84 ea3c c041 df3c 700b d53c
00000090: ac5c bb3a fcbc 823c d896 f53c 228c 893c
000000a0: d80d a0bc 5eb0 eb3c a524 e53c 3016 b8bc
000000b0: 07a3 d4bc d045 873c d5bc 00bd e901 173c
000000c0: 8df5 9d3c cc06 93bb a863 8a3b 1d2a 913c
000000d0: e861 563c 1050 0bbc e270 d8ba e081 013d
000000e0: 198c 053d 0a84 ef3a f216 133d 7ca2 7a3c
000000f0: 04fd d73b 74df e4bb ac91 e53b 1ea9 fcbc
