src/TRAINED_MODEL_DIR/image_fragment_model_conv_fd_64_epoch_3.pth (torch, 432285 bytes, 4 tensors)

conv1.weight f4 [64, 3, 5, 5]
0.089236364 -0.08777127 0.11371325 0.094230704 0.035704013 -0.08026527 -0.0009973375 -0.06600141
-0.09776059 0.05815633 -0.028860716 -0.017129563 0.10931384 0.0947582 0.06662935 -0.101722814
-0.1018589 -0.071593374 0.110612094 0.03855974 -0.049369484 -0.025571652 -0.08450895 -0.050306305
-0.049909443 0.068150215 -0.0010887036 0.015960922 0.08707007 0.09114127 0.08639111 -0.019898698
0.0033875601 -0.06782219 0.010597543 0.056949932 -0.0819795 -0.0049918205 -0.061983533 -0.049014553
0.03098727 0.10319236 0.064431325 -0.045267083 0.02263961 -0.0364379 0.07596053 -0.050670646
0.060693383 0.08389251 0.03732174 -0.08702369 0.011286413 0.019984731 0.053508405 0.05383938
-0.102032796 0.033147383 -0.06144869 0.09542068 -0.061814126 -0.034907598 0.039856534 -0.023589453
0.002104619 0.0355945 -0.008626991 -0.056382917 -0.047732946 0.06367537 -0.008772612 -0.0041165296
-0.10759473 -0.03703287 0.009420286 0.048333667 0.07065183 0.033097602 -0.045830306 -0.08160006
0.06395584 -0.034064885 0.090754464 0.046680424 -0.09113174 -0.08045443 -0.11348956 0.10087819
-0.023747094 -0.10143095 0.07539591 -0.08579904 0.11195614 0.108667344 -0.01521494 -0.112725355
-0.0845178 -0.070017844 0.07781812 0.042998694 0.019508407 -0.11542583 0.001375629 0.0038808798
0.10511732 -0.07127496 -0.08040837 -0.06901411 -0.044117417 0.054868005 -0.018060759 0.114229135
0.08927044 -0.06652299 0.013386845 0.030316457 -0.0511758 0.0075042797 -0.013371906 -0.052664533
-0.01362457 -0.016634949 -0.083450876 -0.031427473 0.0173944 0.07597661 0.09798297 0.037825406
0.0038259896 0.06853062 0.1073114 -0.110919215 0.0067817927 -0.011648656 -0.105402514 -0.08903543
-0.11515637 -0.004258218 -0.069594815 0.020475168 -0.041609835 -0.08589013 -0.04849106 -0.055650856
0.060453895 -0.10503128 -0.07589188 0.051373597 0.06041422 -0.092166856 0.03239991 0.042934656
0.018084113 0.10731291 0.02747203 -0.10584561 -0.06405885 -0.04768645 0.009009642 -0.044389367
0.08476482 0.03530086 0.053175922 0.028767582 -0.084082596 -0.0033401037 0.11612037 -0.05904262
-0.038073353 0.084957585 0.0057105008 0.04853106 -0.0018944625 0.08509267 0.05685651 -0.009462701
-0.02452682 -0.11002934 0.09697132 -0.08461624 0.030518172 -0.055418108 0.03686642 -0.050611198
0.093239814 0.06801435 -0.10767543 0.0137147335 0.114212796 0.04870908 0.0832172 -0.013253546
0.08981234 -0.04680499 0.095941715 0.078161836 0.029733423 0.05117739 0.0703038 -0.0693267
-0.041553006 0.105102554 0.08680342 0.016461777 -0.021465257 -0.022086287 0.04319932 -0.09492208
-0.09477235 -0.10688501 0.09127931 -0.042631444 0.11411317 -0.03200685 0.0181689 0.08405372
0.00093036523 -0.04792992 -0.03814148 0.110404044 0.04662942 -0.06906663 -0.018847525 0.102033645
-0.07035281 -0.036600724 0.021298308 0.018798782 -0.0111367265 0.042931255 -0.015581806 0.0027510223
-0.023888445 0.0014658336 0.07607493 0.030127218 -0.07951508 -0.01796307 0.026871767 -0.08539008
0.013915305 0.08868672 -0.07623124 0.068261266 0.10288131 0.0679715 0.09767324 -0.040488046
0.047833495 -0.008206619 -0.004844219 0.047653593 -0.086819775 0.009631084 -0.08218421 -0.077969946
00000000: 8ec1 b63d 6cc1 b3bd 7ee2 e83d 07fc c03d
00000010: 5f3e 123d 1e62 a4bd 18b9 82ba bf2b 87bd
00000020: b436 c8bd 5535 6e3d 4f6d ecbc 4c53 8cbc
00000030: efdf df3d 9610 c23d f874 883d 0d54 d0bd
00000040: 669b d0bd 8c9f 92bd 9888 e23d d1f0 1d3d
00000050: a837 4abd a47b d1bc 0713 adbd fc0d 4ebd
00000060: d86d 4cbd 5792 8b3d d5b2 8eba 7bc0 823c
00000070: cb51 b23d 46a8 ba3d d3ed b03d 9802 a3bc
00000080: d401 5e3b 5ce6 8abd 51a1 2d3c 5544 693d
00000090: dee4 a7bd 6d92 a3bb 72e2 7dbd 7cc3 48bd
000000a0: 04d9 fd3c 8456 d33d 92f4 833d fa69 39bd
000000b0: b476 b93c e83f 15bd 3291 9b3d 068c 4fbd
000000c0: a099 783d d6cf ab3d aede 183d 7a39 b2bd
000000d0: a6ea 383c 05b7 a33c a12b 5b3d af86 5c3d
000000e0: 92f6 d0bd 8dc5 073d 9fb1 7bbd eb6b c33d
000000f0: cf30 7dbd 45fb 0ebd 9b40 233d ab3e c1bc
00000100: a6ed 093b 8acb 113d 3958 0dbc c6f1 66bd
00000110: 9f83 43bd 3b68 823d 00bb 0fbc f4e3 86bb
00000120: a05a dcbd c7af 17bd 8b57 1a3c 86f9 453d
00000130: e8b1 903d 5a91 073d 8fb8 3bbd ef1d a7bd
00000140: 48fb 823d 9f87 0bbd 7add b93d f933 3f3d
00000150: 47a3 babd 4bc5 a4bd 376d e8bd 3999 ce3d
00000160: 4489 c2bc 08bb cfbd 2c69 9a3d 68b7 afbd
00000170: 4349 e53d fc8c de3d 1548 79bc 8ddc e6bd
00000180: ab17 adbd 8465 8fbd 1b5f 9f3d 661f 303d
00000190: 18d0 9f3c 6164 ecbd 734e b43a 5c56 7e3b
000001a0: c047 d73d 9bf8 91bd 25ad a4bd 4557 8dbd
000001b0: 77b4 34bd 46bd 603d 28f4 93bc f7f0 e93d
000001c0: 6cd3 b63d 353d 88bd 7f54 5b3c 385a f83c
000001d0: b79d 51bd 76e6 f53b d715 5bbc c4b6 57bd
000001e0: 9739 5fbc 0446 88bc 4be8 aabd 18ba 00bd
000001f0: b37e 8e3c a099 9b3d 4cab c83d d0ee 1a3d
00000200: 74bd 7a3b c859 8c3d 14c6 db3d 9d29 e3bd
00000210: cd39 de3b 01da 3ebc 46dd d7bd 3558 b6bd
00000220: 1ad7 ebbd 8688 8bbb ba87 8ebd 8abb a73c
00000230: 136f 2abd 2ae7 afbd 909e 46bd 27f2 63bd
00000240: 819e 773d a41a d7bd 346d 9bbd 1f6d 523d
00000250: e774 773d fac1 bcbd c5b5 043d 40dc 2f3d
00000260: 2225 943c dfc6 db3d 060d e13c 95c5 d8bd
00000270: 4931 83bd de52 43bd 2d9d 133c a0d1 35bd
00000280: 2e99 ad3d a297 103d ffce 593d fea9 eb3c
00000290: 7f33 acbd a4e5 5abb 84d0 ed3d add6 71bd
000002a0: cef2 1bbd 3efe ad3d 271f bb3b 81c8 463d
000002b0: 9d4f f8ba 1145 ae3d 5fe2 683d 7209 1bbc
000002c0: 78ec c8bc 1057 e1bd e698 c63d 474b adbd
000002d0: 3f01 fa3c 19fe 62bd 3e01 173d b04d 4fbd
000002e0: 84f4 be3d 1c4b 8b3d f084 dcbd c3b3 603c
000002f0: 66e8 e93d 2c83 473d c86d aa3d 6725 59bc
00000300: 88ef b73d 97b6 3fbd 177d c43d 5013 a03d
00000310: 8293 f33c 629f 513d 70fb 8f3d 28fb 8dbd
00000320: 7c33 2abd 0240 d73d fec5 b13d d9da 863c
00000330: e8d7 afbc 4dee b4bc c5f1 303d 8266 c2bd
00000340: 0118 c2bd 87e6 dabd a6f0 ba3d 4f9e 2ebd
00000350: 2ab4 e93d 9d19 03bd f2d6 943c 5b24 ac3d
00000360: c1e3 733a 2a52 44bd 3e3a 1cbd 841b e23d
00000370: 7efe 3e3d ce72 8dbd 2066 9abc 04f7 d03d
00000380: 2215 90bd a4ea 15bd ca79 ae3c e7ff 993c
00000390: d176 36bc afd8 2f3d d54a 7fbc 7f4a 343b
000003a0: b3b1 c3bc 3721 c03a 2ccd 9b3d 5bcd f63c
000003b0: cdd8 a2bd 4a27 93bc 2e22 dc3c ffe0 aebd
000003c0: 05fd 633c 62a1 b53d 201f 9cbd 90cc 8b3d
000003d0: 70b3 d23d a434 8b3d e808 c83d cbd6 25bd
000003e0: 0eed 433d 0e75 06bc 41bc 9ebb 6a30 433d
000003f0: 91ce b1bd b2cb 1d3c 3250 a8bd b5ae 9fbd

conv1.bias f4 [64]
-0.028213633 -0.08313669 0.080470115 0.044080388 0.00023182417 0.04399862 -0.033160273 0.07042081
-0.07411649 0.087141566 -0.032713406 0.037666246 0.00938366 0.11245148 -0.004567939 0.00061545736
0.10963307 0.058223017 -0.050795797 -0.040868055 0.0043391297 0.104608424 0.075275704 0.01820384
0.059037734 -0.038722888 0.06662238 0.0013885603 -0.08297317 -0.09068484 0.09170658 0.07294468
0.038143735 -0.0772122 -0.009824459 -0.107528195 0.048297662 -0.0047150594 0.023298496 -0.054356676
-0.01544395 0.12689339 -0.037531663 0.0882818 -0.037586983 0.11181441 0.07026967 -0.094483085
-0.07976236 -0.075747356 0.02323267 0.021565758 -0.09884358 0.1115767 0.019909795 0.09490649
-0.007915056 -0.03327931 0.11155209 -0.0409357 0.09787037 -0.032510445 -0.046573896 0.019464692
00000000: 4720 e7bc 9243 aabd 84cd a43d a38d 343d
00000010: d415 7339 e637 343d 11d3 07bd c938 903d
00000020: 63ca 97bd 4777 b23d 7efe 05bd ec47 1a3d
00000030: ecbd 193c f64c e63d a6ae 95bb a556 213a
00000040: 4e87 e03d 427b 6e3d 410f 50bd 4365 27bd
00000050: 422f 8e3b f13c d63d 262a 9a3d 3820 953c
00000060: 8dd1 713d e49b 1ebd 5071 883d 5a00 b63a
00000070: d6ed a9bd f9b8 b9bd a9d0 bb3d 0564 953d
00000080: 9b3c 1c3d 6e21 9ebd c5f6 20bc be37 dcbd
00000090: c5d3 453d c980 9abb 7ddc be3c 1ba5 5ebd
000000a0: 9f08 7dbc 57f0 013e cdba 19bd 17cd b43d
000000b0: cff4 19bd f4fe e43d 8be9 8f3d 5980 c1bd
000000c0: 735a a3bd 6e21 9bbd 7152 be3c acaa b03c
000000d0: 816e cabd 5382 e43d de19 a33c 555e c23d
000000e0: 27ae 01bc e34f 08bd 6c75 e43d 31ac 27bd
000000f0: 4370 c83d ac29 05bd 45c4 3ebd 6b74 9f3c

conv2.weight f4 [64, 64, 5, 5]
-0.02218661 0.022063553 0.0072458405 0.01084802 -0.020987194 0.005381171 0.016069885 0.0243554
0.015386845 0.024547702 0.009510178 -0.015422954 -0.010111086 0.013386956 0.014506198 -0.0061554755
-0.009836924 -0.023389434 -0.01800579 0.002198139 -0.006058598 0.020928109 -0.005041694 -0.011867085
0.002038246 0.016787833 -0.0016673531 -0.0014305364 0.014925571 0.0022364366 0.010663209 0.008695231
0.01704314 0.019446436 -0.021061702 0.0016679699 0.022180751 -0.0066989525 -0.020681955 -0.019121189
0.0093271285 0.005150058 0.0025016447 0.0058282577 0.01302551 -0.023965945 0.004824617 -0.012026401
-0.006137853 0.023927124 -0.003237692 -0.012685341 0.007257048 -0.02202911 0.0077428934 -0.019159717
-0.019500187 0.00044218212 -0.014154323 0.023305522 0.012215614 0.009491199 -0.024116825 0.016975498
-0.006445445 0.021222325 -0.026001377 0.0019359656 0.011411775 0.019602187 -0.009044849 0.0006135043
-0.0070205997 -0.026408164 -0.014427434 -0.016244391 -0.016473023 0.010236734 0.009963323 -0.014108549
-0.02040139 0.023524739 -0.015457088 0.0036806222 0.013572453 0.022503449 -0.0046652323 -0.0007359821
0.021010507 -0.019275948 0.008929233 0.023008976 -0.010426735 0.024320967 -0.0039298143 -0.021618308
-0.0022543168 -0.023017325 0.004280435 0.010422458 0.0031490324 -0.017877698 0.01951681 -0.015311932
0.008923161 -0.02360625 0.009933274 0.014045934 -0.0076688123 0.025702152 0.013038531 0.0074482616
0.011296018 0.012681473 -0.016843084 -0.0096063875 0.0012773364 -0.0038458616 0.0031169802 0.009942998
-0.0067934645 0.01685834 -0.022920487 -0.004975135 0.014042689 0.020403018 0.00566937 -0.0070465393
-0.020798754 0.01606358 0.008836061 -0.006381685 0.008234957 0.01436133 0.014968654 0.0101008685
-0.0034752488 -0.025013335 0.016341534 -0.0045892517 -0.008759 0.022811512 -0.025054762 -0.0038743347
0.018361446 0.0068549183 0.0075613013 0.007051914 -0.017468423 -0.011361519 0.012586564 -0.0031161099
-0.0036041513 -0.015208915 -0.0075814724 0.0150762 -0.0050183213 0.014084037 0.025497878 -0.0212938
-0.00032365078 -0.015335547 -0.00031001715 0.02223882 -0.018144524 0.013649987 -0.023409385 -0.011549673
0.0024198517 0.015022629 0.018893618 0.007102538 -0.013636197 0.01208945 -0.016994212 -0.023627613
-0.015986208 -0.014429656 -0.0002480385 -0.02165826 -0.0066518146 0.023449292 0.022958389 0.021268563
-0.014275494 0.019512288 0.015691135 0.006239899 0.01947768 0.010260647 -0.020656342 -0.011570746
0.016404105 -0.0175624 0.0072833817 -0.011623292 0.017014438 -0.004719077 0.008119745 -0.013628081
-0.017616818 -0.020933041 -0.022418808 0.01658647 -0.00889068 -0.017011344 0.018387068 -0.018080287
0.025931971 0.016420206 0.020482216 -0.014191229 0.0071614766 -0.0047752955 0.021153035 0.014676015
-0.016614158 0.007895712 0.006008775 0.006734372 0.006473635 0.003918393 0.022055468 0.013181161
0.017264586 -0.01288027 -0.019235147 0.013150326 0.013045982 0.022029027 0.0032971932 0.0069250404
-0.009892904 0.025723357 0.021586947 -0.0092334775 -0.02008387 0.008550432 0.0045622704 0.014888255
-0.019346407 0.02130221 -0.02077249 0.025530897 0.021227317 0.016800798 0.022982232 0.022306038
-0.022385295 0.0006632381 0.019272886 -0.024879947 -0.024406493 -0.017522972 -0.0051405337 0.0049161883
00000000: b2c0 b5bc a0be b43c 846e ed3b e5bb 313c
00000010: 56ed abbc 8954 b03b fea4 833c fa84 c73c
00000020: 1b19 7c3c 4318 c93c 94d0 1b3c 8fb0 7cbc
00000030: f8a8 25bc f754 5b3c 67ab 6d3c dfb3 c9bb
00000040: 0d2b 21bc 339b bfbc e180 93bc a70e 103b
00000050: 3487 c6bb 6d71 ab3c cb34 a5bb 296e 42bc
00000060: 1894 053b a386 893c 168b daba d680 bbba
00000070: 628a 743c 2e91 123b bdb4 2e3c 7176 0e3c
00000080: 0e9e 8b3c 224e 9f3c 9789 acbc c89f da3a
00000090: 68b4 b53c e382 dbbb 346d a9bc 0aa4 9cbc
000000a0: d0d0 183c d1c1 a83b a2f2 233b f8fa be3b
000000b0: f368 553c 3b54 c4bc d217 9e3b 620a 45bc
000000c0: 0b20 c9bb d102 c43c 752f 54bb 2dd6 4fbc
000000d0: 88cc ed3b 6476 b4bc 19b8 fd3b d7f4 9cbc
000000e0: dbbe 9fbc aed4 e739 89e7 67bc 39eb be3c
000000f0: 0024 483c f980 1b3c a690 c5bc 3310 8b3c
00000100: 5034 d3bb 71da ad3c d700 d5bc 3ac0 fd3a
00000110: 74f8 3a3c c494 a03c d930 14bc 94d3 203a
00000120: 0f0d e6bb ef55 d8bc 0b61 6cbc f512 85bc
00000130: 6ff2 86bc f9b7 273c 353d 233c 8b27 67bc
00000140: d120 a7bc f4b6 c03c ba3f 7dbc 9836 713b
00000150: fe5e 5e3c 2759 b83c cede 98bb ecee 40ba
00000160: 3a1e ac3c 98e8 9dbc eb4b 123c 527d bc3c
00000170: e5d4 2abc c43c c73c acc5 80bb e118 b1bc
00000180: 29bd 13bb d48e bcbc e442 8c3b f5c2 2a3c
00000190: ff5f 4e3b 4074 92bc b8e1 9f3c e6de 7abc
000001a0: 7332 123c e561 c1bc 2cbf 223c eb20 663c
000001b0: a94a fbbb 528d d23c 909f 553c 8c10 f43b
000001c0: ef12 393c f4c5 4f3c 82fa 89bc 1c64 1dbc
000001d0: 4c6c a73a da0a 7cbb 4046 4c3b f5e7 223c
000001e0: b69b debb 801a 8a3c bfc3 bbbc 7506 a3bb
000001f0: 4f13 663c 3b24 a73c 1fc6 b93b a8e6 e6bb
00000200: 2662 aabc c597 833c 20c5 103c 741d d1bb
00000210: eaeb 063c c94b 6b3c 163f 753c 1d7e 253c
00000220: 00c1 63bb c4e8 ccbc aede 853c 6f61 96bb
00000230: e981 0fbc 35df ba3c a53f cdbc 8de8 7dbb
00000240: be6a 963c 399f e03b cbc4 f73b be13 e73b
00000250: f019 8fbc aa25 3abc e037 4e3c a637 4cbb
00000260: a033 6cbb d02e 79bc 006e f8bb 2a02 773c
00000270: bb70 a4bb bcc0 663c ede0 d03c 5670 aebc
00000280: acaf a9b9 f241 7bbc cc89 a2b9 302e b63c
00000290: d3a3 94bc 32a4 5f3c 0ac5 bfbc d73a 3dbc
000002a0: 6096 1e3b 7921 763c cac6 9a3c 68bc e83b
000002b0: 5b6a 5fbc d412 463c 7237 8bbc b28e c1bc
000002c0: 82f5 82bc 5d6a 6cbc 2a0b 82b9 aa6c b1bc
000002d0: 77f7 d9bb bb18 c03c 3b13 bc3c 693b ae3c
000002e0: c3e3 69bc 3cd8 9f3c b28a 803c 1178 cc3b
000002f0: a88f 9f3c 461c 283c 7d37 a9bc 3a93 3dbc
00000300: e761 863c 06df 8fbc 6fa9 ee3b 9f6f 3ebc
00000310: dd61 8b3c 7da2 9abb ae08 053c 5148 5fbc
00000320: 2551 90bc c57b abbc a6a7 b7bc 59e0 873c
00000330: 37aa 11bc 605b 8bbc 7aa0 963c 1c1d 94bc
00000340: 496f d43c ab83 863c 52ca a73c 5482 68bc
00000350: d2aa ea3b 157a 9cbb 2149 ad3c ab73 703c
00000360: 6a1a 88bc 045d 013c 42e5 c43b 02ac dc3b
00000370: c920 d43b dd65 803b abad b43c ccf5 573c
00000380: 766e 8d3c c507 53bc 0793 9dbc 7774 573c
00000390: d1be 553c 3876 b43c b915 583b 73eb e23b
000003a0: d915 22bc cab9 d23c 1cd7 b03c 0348 17bc
000003b0: ee86 a4bc 1c17 0c3c 197f 953b deed 733c
000003c0: 5b7c 9ebc f981 ae3c 122b aabc 2c26 d13c
000003d0: e9e4 ad3c d4a1 893c 3c45 bc3c 27bb b63c
000003e0: 5e61 b7bc 28dd 2d3a 2ce2 9d3c 08d1 cbbc
000003f0: 20f0 c7bc 568c 8fbc ec71 a8bb fa17 a13b

conv2.bias f4 [64]
0.004888627 -0.0055961013 -0.0105492715 -0.018437399 0.019940773 0.018212095 -0.023351047 0.021234466
0.021121774 -0.019015748 -0.02404115 -0.019135116 -0.022411609 0.022273049 -0.003688845 -0.0124223
-0.000680688 0.0053297104 -0.011395315 -0.006735754 0.005378434 0.0032459737 0.022892063 -0.010206336
-0.0143348845 -0.0046296357 -0.012145489 -0.021256039 0.022090098 -0.02039135 -0.017373135 -0.013092634
0.018455226 0.014267874 0.019196529 0.0203537 -0.011397353 0.02182833 0.013077241 0.007738143
0.011713269 0.018932128 -0.01951999 0.019995932 -0.0014220088 -0.0023237676 0.0040483745 0.01769585
0.004052538 -0.012149483 0.0018137604 -0.01687171 0.0107859345 -0.009988087 0.021637172 -0.003596723
-4.404302e-05 -0.0044939998 -0.022186166 -0.0025363415 -0.013309411 0.016561603 0.0008397937 -0.0026482015
00000000: c730 a03b 805f b7bb dad6 2cbc 070a 97bc
00000010: d55a a33c 8831 953c b24a bfbc e7f3 ad3c
00000020: 9207 ad3c eac6 9bbc f2f1 c4bc 3fc1 9cbc
00000030: 8d98 b7bc f875 b63c 8dc0 71bb e786 4bbc
00000040: 3370 32ba daa4 ae3b 6ab3 3abc 9ab7 dcbb
00000050: 933d b03b 67ba 543b 2388 bb3c 7a38 27bc
00000060: dddc 6abc 33b4 97bb e0fd 46bc 2521 aebc
00000070: 4bf6 b43c c30b a7bc 1b52 8ebc 7d82 56bc
00000080: 6a2f 973c cdc3 693c 0a42 9d3c cdbc a63c
00000090: f7bb 3abc 53d1 b23c ed41 563c 4090 fd3b
000000a0: 03e9 3f3c 8d17 9b3c 63e8 9fbc 82ce a33c
000000b0: b362 baba 5a4a 18bb 3aa8 843b e3f6 903c
000000c0: 27cb 843b a00e 47bc b3bb ed3a 8a36 8abc
000000d0: 7db7 303c 13a5 23bc 7040 b13c 00b7 6bbb
000000e0: d5ba 38b8 6742 93bb c3bf b5bc c038 26bb
000000f0: b70f 5abc 33ac 873c 9a25 5c3a 738d 2dbb
