src/TRAINED_MODEL_DIR/image_fragment_model_conv_fd_64_epoch_5.pth (torch, 432285 bytes, 4 tensors)

conv1.weight f4 [64, 3, 5, 5]
0.08964724 -0.087187015 0.114491306 0.09521462 0.036867015 -0.080011226 -0.00058341504 -0.06539798
-0.096951276 0.059142828 -0.028783342 -0.016916586 0.10969322 0.09533091 0.067380756 -0.10184168
-0.10186094 -0.071443714 0.11093397 0.039049026 -0.04969698 -0.02579355 -0.08458654 -0.05022648
-0.04967673 0.06918443 6.007473e-05 0.017277976 0.08859337 0.092859216 0.08722118 -0.018969081
0.004480159 -0.06652216 0.012096685 0.057577185 -0.08127436 -0.0041439757 -0.060938753 -0.047768757
0.031420346 0.103688054 0.06505537 -0.044465095 0.02363215 -0.03618019 0.07627237 -0.050239604
0.06128636 0.08466185 0.037933744 -0.086300924 0.012193221 0.021122532 0.05486852 0.0542461
-0.10152826 0.033832327 -0.060529638 0.09656924 -0.06160598 -0.034620244 0.04030724 -0.022912908
0.0030117421 0.035619985 -0.008536559 -0.056144707 -0.04728638 0.06434212 -0.008899255 -0.0041872594
-0.107531466 -0.036780663 0.009877577 0.048340507 0.07065774 0.033102315 -0.045826584 -0.081597514
0.063959636 -0.034062512 0.09075488 0.04668126 -0.09113174 -0.080454424 -0.11348956 0.10087824
-0.023746865 -0.10143095 0.07539591 -0.08579904 0.11195617 0.10866738 -0.015214854 -0.112725355
-0.0845178 -0.07001784 0.07781814 0.042998742 0.019515248 -0.11541971 0.0013804364 0.0038848952
0.105120495 -0.07127144 -0.08040776 -0.069014065 -0.044116754 0.05486839 -0.018059643 0.114229135
0.08927044 -0.06652299 0.013387119 0.030316532 -0.0511758 0.0075046076 -0.013371603 -0.052664533
-0.013624264 -0.016634937 -0.083450876 -0.031427465 0.017394582 0.07598377 0.097989224 0.037830394
0.0038302313 0.06853421 0.10731508 -0.110918574 0.0067833057 -0.011647415 -0.105402514 -0.08903543
-0.11515637 -0.0042579263 -0.069594815 0.020475222 -0.041609835 -0.08589013 -0.04849106 -0.055650856
0.060453895 -0.10503128 -0.07589188 0.051373597 0.060414217 -0.092166856 0.03250231 0.042921137
0.018029407 0.10730428 0.027599247 -0.10569943 -0.06402791 -0.047691762 0.009059332 -0.04419364
0.08505781 0.035481725 0.053325344 0.028977048 -0.0837243 -0.0028302546 0.11652217 -0.058669243
-0.037639603 0.085536234 0.006478187 0.04919446 -0.0012588049 0.08578485 0.057684317 -0.009476254
-0.024602907 -0.110101245 0.09698064 -0.08444857 0.030526532 -0.055473115 0.036820505 -0.050565995
0.09345527 0.068129934 -0.10762207 0.01378101 0.114375524 0.04904665 0.08349649 -0.013035311
0.09004475 -0.046476133 0.0964425 0.07863731 0.030148206 0.0516048 0.07082289 -0.06864513
-0.04160912 0.105039634 0.08678627 0.016550153 -0.021212688 -0.02208869 0.043189898 -0.094881274
-0.09461686 -0.10655459 0.09139675 -0.042520516 0.114277214 -0.031724095 0.018629784 0.084328406
0.0011978595 -0.047609705 -0.03770384 0.11101576 0.047076415 -0.06862895 -0.01836081 0.102631316
-0.069591336 -0.037075266 0.021063793 0.018852409 -0.010804754 0.043462675 -0.016070321 0.0025200944
-0.023813168 0.0018308857 0.076636985 0.029670086 -0.079698645 -0.017824994 0.027301053 -0.08477087
0.013534182 0.08858108 -0.07601824 0.06875798 0.103565834 0.06768922 0.097654544 -0.04020603
0.048387118 -0.0074595795 -0.006089591 0.046699926 -0.087500304 0.009145962 -0.0826148 -0.07916512
00000000: f998 b73d 1b8f b2bd 6b7a ea3d e2ff c23d
00000010: de01 173d eddc a3bd 52f0 18ba 60ef 85bd
00000020: 648e c6bd c03f 723d 0bcb ebbc a794 8abc
00000030: d7a6 e03d da3c c33d ecfe 893d 5f92 d0bd
00000040: 789c d0bd 1551 92bd 5931 e33d dff1 1f3d
00000050: 0f8f 4bbd ff4c d3bc b53b adbd 48ba 4dbd
00000060: d479 4bbd 91b0 8d3d c0f8 7b38 8b8a 8d3c
00000070: 7170 b53d f92c be3d 05a1 b23d 0c65 9bbc
00000080: 4cce 923b c53c 88bd 2d31 463c 0ed6 6b3d
00000090: 2c73 a6bd 30ca 87bb ea9a 79bd 2ca9 43bd
000000a0: 9fb2 003d 675a d43d c03b 853d 0821 36bd
000000b0: 3698 c13c ae31 14bd b034 9c3d 0bc8 4dbd
000000c0: 6807 7b3d 3163 ad3d 6a60 1b3d 8abe b0bd
000000d0: 13c6 473c 2909 ad3c d0bd 603d 2931 5e3d
000000e0: 0cee cfbd c493 0a3d eded 77bd 18c6 c53d
000000f0: 8d56 7cbd f5cd 0dbd 3419 253d dab3 bbbc
00000100: a660 453b 43e6 113d ecdc 0bbc fef7 65bd
00000110: 5daf 41bd cdc5 833d 2ece 11bc 4735 89bb
00000120: 7539 dcbd 52a7 16bd 90d5 213c b200 463d
00000130: 01b5 903d 4b96 073d a8b4 3bbd 991c a7bd
00000140: 45fd 823d 2285 0bbd b2dd b93d d934 3f3d
00000150: 47a3 babd 4ac5 a4bd 376d e8bd 4099 ce3d
00000160: c988 c2bc 08bb cfbd 2c69 9a3d 68b7 afbd
00000170: 4749 e53d 018d de3d b947 79bc 8ddc e6bd
00000180: ab17 adbd 8365 8fbd 1e5f 9f3d 731f 303d
00000190: 71de 9f3c 2b61 ecbd c2ef b43a ba99 7e3b
000001a0: 6a49 d73d c3f6 91bd d3ac a4bd 3f57 8dbd
000001b0: c5b3 34bd adbd 603d d1f1 93bc f7f0 e93d
000001c0: 6cd3 b63d 353d 88bd a655 5b3c 605a f83c
000001d0: b79d 51bd 36e9 f53b 9114 5bbc c4b6 57bd
000001e0: 4e38 5fbc fe45 88bc 4be8 aabd 16ba 00bd
000001f0: 157f 8e3c 619d 9b3d 93ae c83d 0bf4 1a3d
00000200: 9e04 7b3b aa5b 8c3d 02c8 db3d 4729 e3bd
00000210: 7e46 de3b cdd4 3ebc 46dd d7bd 3558 b6bd
00000220: 1ad7 ebbd 1386 8bbb ba87 8ebd a7bb a73c
00000230: 136f 2abd 2ae7 afbd 909e 46bd 27f2 63bd
00000240: 819e 773d a41a d7bd 346d 9bbd 1f6d 523d
00000250: e674 773d fac1 bcbd 2421 053d 13ce 2f3d
00000260: 68b2 933c 59c2 db3d d117 e23c f178 d8bd
00000270: 1121 83bd 7058 43bd 986d 143c 6404 35bd
00000280: ca32 ae3d 4955 113d ad6b 5a3d 4661 ed3c
00000290: a577 abbd cb7b 39bb 2da3 ee3d 294f 70bd
000002a0: fc2b 1abd 9f2d af3d f946 d43b 2180 493d
000002b0: 7cfe a4ba f8af af3d 6446 6c3d 4a42 1bbc
000002c0: 098c c9bc c37c e1bd c99d c63d 5ff3 acbd
000002d0: c712 fa3c c737 63bd 19d1 163d 4a1e 4fbd
000002e0: 7a65 bf3d b587 8b3d f668 dcbd bfc9 613c
000002f0: b73d ea3d 24e5 483d 3500 ab3d 0f92 55bc
00000300: 6269 b83d c25d 3ebd a583 c53d 990c a13d
00000310: 5ff9 f63c 8e5f 533d 970b 913d d195 8cbd
00000320: 536e 2abd 051f d73d 00bd b13d 3094 873c
00000330: 3bc6 adbc 57f3 b4bc e4e7 303d 1d51 c2bd
00000340: 7cc6 c1bd 4b39 dabd 382e bb3d fe29 2ebd
00000350: 2c0a ea3d 20f1 01bd 7d9d 983c 5fb4 ac3d
00000360: 7f01 9d3a 6502 43bd 576f 1abd 3b5c e33d
00000370: 33d3 403d 568d 8cbd 6969 96bc 5e30 d23d
00000380: e785 8ebd 3cdc 17bd fa8d ac3c 5e70 9a3c
00000390: 6c06 31bc eb05 323d e8a5 83bc 2b28 253b
000003a0: d513 c3bc 54fa ef3a daf3 9c3d ae0e f33c
000003b0: 0b39 a3bd b905 92bc 75a6 df3c 5a9c adbd
000003c0: 79be 5d3c ff69 b53d 73af 9bbd fcd0 8c3d
000003d0: 531a d43d a5a0 8a3d 1bff c73d 14af 24bd
000003e0: 9231 463d 7d6f f4bb 318b c7bb 6c48 3f3d
000003f0: 5c33 b3bd f2d8 153c f331 a9bd 5321 a2bd

conv1.bias f4 [64]
-0.023951603 -0.083126724 0.08047053 0.043679997 0.00034819328 0.04695765 -0.030445678 0.076855816
-0.07080242 0.09048668 -0.033043418 0.038241476 0.009439332 0.11683806 -0.0037797026 0.0012442132
0.108863175 0.058478285 -0.050905205 -0.040782996 0.0067262775 0.1085467 0.07305126 0.026413217
0.06169024 -0.03872019 0.06492567 0.0014067522 -0.082963385 -0.090687856 0.09171837 0.07787126
0.043890525 -0.0772122 -0.00902543 -0.11170164 0.05195339 -0.004627435 0.02191849 -0.054337494
-0.013449886 0.13855006 -0.03752444 0.09098593 -0.03833417 0.12240302 0.06997401 -0.09451139
-0.076858126 -0.077298194 0.025460599 0.02994117 -0.09885026 0.109191924 0.022366812 0.09531325
-0.008002303 -0.03151323 0.113271564 -0.039938457 0.10267393 -0.03257892 -0.046755143 0.02306789
00000000: 2736 c4bc 583e aabd bccd a43d cce9 323d
00000010: b68d b639 aa56 403d 3769 f9bc 9566 9d3d
00000020: dc00 91bd 1551 b93d 8958 07bd 18a3 1c3d
00000030: 6ea7 1a3c cb48 ef3d e3b4 77bb de14 a33a
00000040: a8f3 de3d ed86 6f3d fa81 50bd 120c 27bd
00000050: 1b68 dc3b bb4d de3d e69b 953d 8860 d83c
00000060: e8ae 7c3d 1099 1ebd c0f7 843d c562 b83a
00000070: b5e8 a9bd 8eba b9bd d7d6 bb3d f87a 9f3d
00000080: 8dc6 333d 6e21 9ebd 66df 13bc d4c3 e4bd
00000090: 14cd 543d bda1 97bb 688e b33c fe90 5ebd
000000a0: e95c 5cbc 11e0 0d3e 3ab3 19bd d556 ba3d
000000b0: 4a04 1dbd 6fae fa3d 894e 8f3d 308f c1bd
000000c0: cb67 9dbd 844e 9ebd bf92 d03c 2f47 f53c
000000d0: 0172 cabd 04a0 df3d 9b3a b73c 9833 c33d
000000e0: 171c 03bc 0414 01bd ecfa e73d 8296 23bd
000000f0: b646 d23d 7971 05bd 5282 3fbd dff8 bc3c

conv2.weight f4 [64, 64, 5, 5]
-0.021988578 0.022345947 0.007611909 0.011288325 -0.020484509 0.0054913037 0.016257502 0.024624959
0.015734788 0.02496714 0.009549133 -0.015318716 -0.009932555 0.013642484 0.01483739 -0.006161161
-0.009793523 -0.023284525 -0.017831033 0.002446899 -0.0060786786 0.020939259 -0.0049850177 -0.011752282
0.0022199422 0.016787801 -0.0016678183 -0.0014309871 0.014925181 0.0022360228 0.010662515 0.008694557
0.017043058 0.019446364 -0.021061763 0.0016672462 0.022180486 -0.006699621 -0.020682126 -0.01912132
0.009326227 0.0051492527 0.0025008714 0.0058275247 0.013024695 -0.023966614 0.0048237806 -0.012027297
-0.0061386176 0.023926826 -0.0036003017 -0.013010474 0.0070030713 -0.022184663 0.007704935 -0.019402606
-0.019734208 0.00024162227 -0.014300531 0.023230027 0.012113593 0.009370984 -0.024239922 0.016863953
-0.006532262 0.021259042 -0.0260062 0.0018968867 0.0113471765 0.019522583 -0.008878172 0.00072128815
-0.006970933 -0.026412502 -0.014477353 -0.016450642 -0.016545093 0.010294699 0.010131967 -0.013854091
-0.020589825 0.023435311 -0.015450862 0.0037690462 0.013727211 0.022331297 -0.0047755744 -0.0007865857
0.021013277 -0.019225435 0.008767977 0.022874773 -0.01053415 0.024241315 -0.003977114 -0.021770034
-0.002408093 -0.023171267 0.00413411 0.010297338 0.0024405343 -0.018458584 0.019133098 -0.015444938
0.009074446 -0.024237964 0.009392656 0.0136526255 -0.007871916 0.025717124 0.012549933 0.0070090825
0.0109475115 0.012455111 -0.016925298 -0.009899865 0.0009902205 -0.004100444 0.0029151384 0.00981038
-0.0068641603 0.016752651 -0.023048867 -0.0051159095 0.013901414 0.020362455 0.0056269444 -0.007091032
-0.02084539 0.016014777 0.008796423 -0.006422993 0.008191796 0.014316246 0.014921591 0.010062058
-0.003515518 -0.025055218 0.01629796 -0.004634565 -0.00879701 0.022772266 -0.025095416 -0.0039164363
0.018317826 0.006817685 0.0075230063 0.0070124296 -0.017509151 -0.011403511 0.012460496 -0.003175975
-0.003566474 -0.015052521 -0.007293073 0.014913002 -0.0051332656 0.014049733 0.025567614 -0.021105124
-0.00048020625 -0.015465096 -0.00038103815 0.022250662 -0.018034052 0.013540358 -0.023513963 -0.011620685
0.0024060183 0.015082064 0.018860087 0.0070537757 -0.013676545 0.012078827 -0.016959269 -0.023670703
-0.01602788 -0.014472533 -0.00029521665 -0.021711893 -0.006699524 0.023403535 0.022912871 0.021220846
-0.014327185 0.01946043 0.015641421 0.006191544 0.019429097 0.010210478 -0.02071221 -0.011624719
0.016352125 -0.017613012 0.0072333785 -0.0116831185 0.016955953 -0.004775219 0.008066247 -0.013679117
-0.018043984 -0.021272471 -0.022610506 0.016589746 -0.008663448 -0.017423918 0.01804198 -0.018305518
0.025867311 0.016540855 0.020134311 -0.014494557 0.006945398 -0.004871499 0.021196844 0.014440321
-0.016829476 0.0077324146 0.005921281 0.0067382385 0.0063840463 0.0038237602 0.021976646 0.013133726
0.017260501 -0.012105606 -0.018442987 0.013969221 0.0138957035 0.022909138 0.004065979 0.0077046817
-0.009094885 0.026543679 0.022430789 -0.0084646065 -0.019311018 0.009333606 0.0053600343 0.015704012
-0.018569058 0.022076897 -0.019994961 0.026316442 0.022026781 0.017593056 0.023765268 0.023085263
-0.021603176 0.0014567297 0.019254358 -0.024890227 -0.02441339 -0.017532757 -0.005157679 0.0049202912
00000000: 6421 b4bc d90e b73c 526d f93b abf2 383c
00000010: 21cf a7bc 65f0 b33b 742e 853c 48ba c93c
00000020: 3ee6 803c e387 cc3c f773 1c3c 5afb 7abc
00000030: 28bc 22bc ba84 5f3c 8618 733c 91e3 c9bb
00000040: 0375 20bc 30bf bebc 6312 92bc 275c 203b
00000050: a72f c7bb cf88 ab3c 5c59 a3bb a58c 40bc
00000060: 737c 113b 9286 893c b29a daba f68f bbba
00000070: bf88 743c 3d8a 123b d4b1 2e3c 9d73 0e3c
00000080: e29d 8b3c fb4d 9f3c b889 acbc 8087 da3a
00000090: dab3 b53c 7f88 dbbb 906d a9bc 51a4 9cbc
000000a0: 08cd 183c 10bb a83b a9e5 233b d2f4 be3b
000000b0: 8865 553c a255 c4bc ce10 9e3b 240e 45bc
000000c0: 7526 c9bb 3102 c43c 0af3 6bbb e229 55bc
000000d0: 057a e53b 9cbc b5bc ae79 fc3b 37f2 9ebc
000000e0: a2a9 a1bc fc5b 7d39 c64c 6abc e64c be3c
000000f0: 1778 463c c188 193c cd92 c6bc 4626 8a3c
00000100: 960c d6bb 7127 ae3c f40a d5bc f5a0 f83a
00000110: 82e9 393c d3ed 9f3c c175 11bc d414 3d3a
00000120: 6d6c e4bb 085f d8bc 6b32 6dbc 7fc3 86bc
00000130: 9389 87bc 19ab 283c 8d00 263c 45fc 62bc
00000140: feab a8bc 69fb bf3c 9d25 7dbc 1a02 773b
00000150: 19e8 603c 20f0 b63c 6c7c 9cbb df32 4eba
00000160: 0924 ac3c a97e 9dbc 90a7 0f3c e063 bb3c
00000170: 6d97 2cbc b995 c63c 7352 82bb 1257 b2bc
00000180: 19d1 1dbb abd1 bdbc 6e77 873b 2ab6 283c
00000190: 5ff1 1f3b 7536 97bc 04bd 9c3c c40c 7dbc
000001a0: fcac 143c b28e c6bc a8e3 193c 43af 5f3c
000001b0: 35f9 00bc b8ac d23c 3c9e 4d3c 72ac e53b
000001c0: 315d 333c 8610 4c3c eca6 8abc 0b33 22bc
000001d0: 49ca 813a 045d 86bb e80b 3f3b b7bb 203c
000001e0: c0ec e0bb db3c 893c fad0 bcbc 5ca3 a7bb
000001f0: c2c2 633c 2acf a63c 3b62 b83b e35b e8bb
00000200: f4c3 aabc 6c31 833c df1e 103c f877 d2bb
00000210: e236 063c b08e 6a3c b079 743c 55db 243c
00000220: 9b64 66bb 9a40 cdbc 4d83 853c 8ddd 97bb
00000230: 5621 10bc e78c ba3c e794 cdbc 7355 80bb
00000240: 440f 963c e366 df3b 8d83 f63b 86c8 e53b
00000250: 5a6f 8fbc cbd5 3abc 1c27 4c3c 0524 50bb
00000260: 81bb 69bb d99e 76bc bbfa eebb aa55 743c
00000270: f434 a8bb da30 663c 2c73 d13c a7e4 acbc
00000280: 31c4 fbb9 5061 7dbc 13c6 c7b9 0547 b63c
00000290: 26bc 93bc 61d8 5d3c 5ba0 c0bc b064 3ebc
000002a0: 4aae 1d3b c31a 773c 7880 9a3c 5c23 e73b
000002b0: 9613 60bc 46e6 453c 2aee 8abc 10e9 c1bc
000002c0: e74c 83bc 341e 6dbc 4fc7 9ab9 24dd b1bc
000002d0: ae87 dbbb c5b8 bf3c c6b3 bb3c 57d7 ad3c
000002e0: 92bc 6abc 7b6b 9f3c 7022 803c 6fe2 ca3b
000002f0: c529 9f3c d949 273c a7ac a9bc 9b75 3ebc
00000300: e4f4 853c 2a49 90bc fa05 ed3b 8d6a 3fbc
00000310: 36e7 8a3c 7179 9cbb 4b28 043c 601e 60bc
00000320: fad0 93bc 9b43 aebc ab39 b9bc 38e7 873c
00000330: 22f1 0dbc 9bbc 8ebc c6cc 933c 74f5 95bc
00000340: afe7 d33c b080 873c b6f0 a43c 947a 6dbc
00000350: 3996 e33b 18a1 9fbb 01a5 ad3c 1997 6c3c
00000360: f8dd 89bc 3260 fd3b 4e07 c23b 71cc dc3b
00000370: 4331 d13b 0d98 7a3b 5e08 b43c d72e 573c
00000380: e565 8d3c 9756 46bc bf15 97bc 29df 643c
00000390: ceaa 633c f2ab bb3c e73b 853b 8e77 fc3b
000003a0: b602 15bc 2172 d93c c6c0 b73c 22af 0abc
000003b0: 2432 9ebc fbeb 183c 3aa3 af3b b3a5 803c
000003c0: 231e 98bc 9cda b43c 79cc a3bc 9495 d73c
000003d0: 8271 b43c 501f 903c 61af c23c 4e1d bd3c
000003e0: 25f9 b0bc bdef be3a 51bb 9d3c 97e6 cbbc
000003f0: 97fe c7bc dba0 8fbc bf01 a9bb 653a a13b

conv2.bias f4 [64]
0.004888627 -0.0055961013 -0.0105492715 -0.018437399 0.019940773 0.018212095 -0.023351047 0.021234466
0.021121774 -0.019015748 -0.02404115 -0.019135116 -0.022411609 0.022273049 -0.003688845 -0.0124223
-0.000680688 0.0053297104 -0.011395315 -0.006735754 0.005378434 0.0032459737 0.022892063 -0.010206336
-0.0143348845 -0.0046296357 -0.012145489 -0.021256039 0.022090098 -0.02039135 -0.017373135 -0.013092634
0.018455226 0.014267874 0.019196529 0.0203537 -0.011397353 0.02182833 0.013077241 0.007738143
0.011713269 0.018932128 -0.01951999 0.019995932 -0.0014220088 -0.0023237676 0.0040483745 0.01769585
0.004052538 -0.012149483 0.0018137604 -0.01687171 0.0107859345 -0.009988087 0.021637172 -0.003596723
-4.4043085e-05 -0.0044939998 -0.022186166 -0.0025363415 -0.013309411 0.016561603 0.0008397937 -0.0026482015
00000000: c730 a03b 805f b7bb dad6 2cbc 070a 97bc
00000010: d55a a33c 8831 953c b24a bfbc e7f3 ad3c
00000020: 9207 ad3c eac6 9bbc f2f1 c4bc 3fc1 9cbc
00000030: 8d98 b7bc f875 b63c 8dc0 71bb e786 4bbc
00000040: 3370 32ba daa4 ae3b 6ab3 3abc 9ab7 dcbb
00000050: 933d b03b 67ba 543b 2388 bb3c 7a38 27bc
00000060: dddc 6abc 33b4 97bb e0fd 46bc 2521 aebc
00000070: 4bf6 b43c c30b a7bc 1b52 8ebc 7d82 56bc
00000080: 6a2f 973c cdc3 693c 0a42 9d3c cdbc a63c
00000090: f7bb 3abc 53d1 b23c ed41 563c 4090 fd3b
000000a0: 03e9 3f3c 8d17 9b3c 63e8 9fbc 82ce a33c
000000b0: b362 baba 5a4a 18bb 3aa8 843b e3f6 903c
000000c0: 27cb 843b a00e 47bc b3bb ed3a 8a36 8abc
000000d0: 7db7 303c 13a5 23bc 7040 b13c 00b7 6bbb
000000e0: e7ba 38b8 6742 93bb c3bf b5bc c038 26bb
000000f0: b70f 5abc 33ac 873c 9a25 5c3a 738d 2dbb
