src/TRAINED_MODEL_DIR/image_fragment_model_conv_fd_32_epoch_5.pth (torch, 115229 bytes, 4 tensors)

conv1.weight f4 [32, 3, 5, 5]
0	0xbd42e19e	-0.047578447
1	0xbd8b41b6	-0.06799643
2	0xbd0cb095	-0.03434809
3	0xbd963498	-0.0733425
4	0xbd551f14	-0.05203159
5	0xbdc17caf	-0.0944761
6	0xbced8438	-0.02899371
7	0x3c9de572	0.019274447
8	0x3d8ba921	0.06819368
9	0xbd07c0f7	-0.03314301
10	0x3d265fad	0.040618587
11	0x3d95bf49	0.073118754
12	0x3d6db823	0.058036935
13	0xbd615c58	-0.055019706
14	0x3db19db2	0.08672656
15	0x3d618a8c	0.05506377
16	0xbcaeb753	-0.02132765
17	0xbca5c76e	-0.020236697
18	0xbc412f3f	-0.0117910495
19	0xbd53d2fd	-0.051714886
20	0xbc9ffb10	-0.019528896
21	0xbdd6e70f	-0.1049329
22	0xbd944ed4	-0.07241598
23	0xbd87eaea	-0.06636603
24	0xbd78d42e	-0.060749225
25	0x3d01d88d	0.03170066
26	0x3bd92985	0.006627264
27	0xbc42bfd0	-0.011886552
28	0x3db54361	0.08850742
29	0xbdb5aa82	-0.088704124
30	0xbda5f96a	-0.081042126
31	0xbd19cc54	-0.037548378
32	0x3d2d3bb0	0.04229325
33	0xbdd51d0b	-0.1040593
34	0x3ce0b452	0.027429733
35	0x3d5210e6	0.051285647
36	0x3d0fe241	0.035127882
37	0xbd31a77f	-0.043372627
38	0x3c295ad8	0.0103366
39	0xbbb5e197	-0.005550574
40	0x3c91cc5e	0.017797645
41	0x3d881b4e	0.06645833
42	0xbd3c7e20	-0.04601872
43	0x3d6240ce	0.055237584
44	0xbdbab43d	-0.09116409
45	0x3b135d38	0.0022485983
46	0xbd99970a	-0.074995115
47	0xbd002dd1	-0.031293694
48	0x3d4f9836	0.05068227
49	0xbdea8daf	-0.11452805
50	0xbd8df2b7	-0.0693106
51	0xbdad600e	-0.084655866
52	0xbcc4360d	-0.023951555
53	0x3d38db01	0.045130733
54	0xbb07e696	-0.0020736805
55	0xbdcab9db	-0.0989873
56	0x3d4a77e5	0.049430747
57	0xbbad3357	-0.005285661
58	0xbdc88480	-0.09790897
59	0x3d956472	0.07294549
60	0xbd9f3cf1	-0.077752955
61	0xbde24e2d	-0.11050067
62	0x3d05c692	0.032660075
63	0x3dbd216e	0.09234892
64	0xbd810977	-0.063006334
65	0x3ad93e68	0.0016574385
66	0xbd479fcc	-0.04873638
67	0xbccc6145	-0.024948725
68	0xbd98816c	-0.0744656
69	0x3d547f84	0.05187942
70	0xbd02641d	-0.031833757
71	0xbd0aa0f8	-0.033844918
72	0x3d04fccd	0.032467652
73	0xbc704b65	-0.014666413
74	0x3ddd99f8	0.10820383
75	0xbd470309	-0.04858688
76	0x3a9fc99a	0.0012190819
77	0x3dbb865d	0.09156487
78	0xbd8b668e	-0.0680667
79	0xbd351514	-0.044209555
80	0xbd869653	-0.06571641
81	0x3db83826	0.089950845
82	0x3dd48ff9	0.10379023
83	0xbce3d7e1	-0.0278129
84	0x3d6b297a	0.057412602
85	0x3d944943	0.07240536
86	0xbd883105	-0.06649975
87	0xbdd3532b	-0.103185974
88	0xbc9e731c	-0.019341998
89	0xbdd0c5dc	-0.10193989
90	0xbdbddd5c	-0.092707366
91	0x3d84d1fe	0.06485365
92	0xbd3960d5	-0.04525836
93	0xbd9f7ad0	-0.077870965
94	0xbda33831	-0.07969702
95	0x3d36e272	0.04464955
96	0xbdd4ae9a	-0.10384865
97	0xbdd1f1a1	-0.10251165
98	0x3d98c5b2	0.074595824
99	0xbdd75ff8	-0.105163515
100	0x3dc00800	0.09376526
101	0xbd4400fc	-0.0478525
102	0xbd8e43f9	-0.069465585
103	0xbdb435c2	-0.08799316
104	0xbcc8b6b8	-0.02450119
105	0x3a9fafc3	0.0012183118
106	0xbd8007a3	-0.062514566
107	0xbd8e3759	-0.069441505
108	0xbd7e740e	-0.062122397
109	0xbcd2b463	-0.02572078
110	0xbd4d3a6f	-0.050104555
111	0xbdcaba14	-0.09898773
112	0x3dc70de9	0.0971945
113	0xbdd11ce8	-0.102105916
114	0xbd8de46c	-0.06928334
115	0x3d96f331	0.07370604
116	0xbbdd4485	-0.006752553
117	0xbdb824c2	-0.08991386
118	0x3d4f0202	0.050539024
119	0xbdae1e4d	-0.08501873
120	0xbdb91d79	-0.090388246
121	0x3c206210	0.009789005
122	0x3c34cf2f	0.011035725
123	0x3ca7c0ff	0.02047777
124	0xbd12d8fc	-0.035851464
125	0x3dc17ee9	0.09448034
126	0xbd5a4c9f	-0.053295728
127	0x3dea1fff	0.11431884
128	0xbd9d4459	-0.07679052
129	0xbdb58495	-0.08863179
130	0xbddde578	-0.10834783
131	0x3dd20cf2	0.10256375
132	0xbd0ced44	-0.03440596
133	0x3d9b325a	0.07577963
134	0xbda89003	-0.08230593
135	0x3d494ccc	0.049145505
136	0xbd3b3877	-0.045708146
137	0x3d7ae658	0.06125483
138	0xbce0b8c1	-0.027431848
139	0x3dc424ea	0.09577353
140	0xbd4c475f	-0.049872752
141	0xbd0ac532	-0.033879466
142	0x3d01f047	0.031723287
143	0xbda201ff	-0.07910537
144	0xbdd83724	-0.10557392
145	0x3c8e04e6	0.01733632
146	0xbdc9e59b	-0.09858247
147	0xbdc190f5	-0.094514765
148	0xbd568b69	-0.052379046
149	0x3db43636	0.087994024
150	0x3db09085	0.08621315
151	0xbba7aa9e	-0.0051167747
152	0x3dea6b16	0.11446206
153	0x3d90095b	0.070330344
154	0x3bc77a9d	0.0060876147
155	0xbd8af25d	-0.067845084
156	0x3dab20f1	0.083558924
157	0x3d35261d	0.0442258
158	0xbdc32bd1	-0.09529842
159	0xbd9fa67b	-0.077954255
160	0xbddba7f2	-0.107253924
161	0x3dad9841	0.08476306
162	0x3c6b8e58	0.014377199
163	0x3db33f02	0.08752252
164	0x3ce498ca	0.027904887
165	0x3d2c67cf	0.042091187
166	0xbce99295	-0.028512279
167	0xbc58af91	-0.013225452
168	0xbddd688e	-0.10810958
169	0xbc8b5e03	-0.017012602
170	0xbc195656	-0.009358963
171	0x3cfad0c5	0.030617127
172	0xbde7849c	-0.1130459
173	0x3dd8d041	0.10586596
174	0xbdc6d723	-0.09709003
175	0xbde51717	-0.11186045
176	0xbd986177	-0.07440465
177	0xbd2e19e5	-0.042505164
178	0xbce55cc4	-0.027998336
179	0x3d4f27f8	0.050575227
180	0x3d14e338	0.036349505
181	0x3da9e8ac	0.08296332
182	0x3d915854	0.070969254
183	0xbd686479	-0.056736443
184	0xbd77fb18	-0.060542196
185	0xbc603797	-0.013685129
186	0xbd4a1876	-0.049339734
187	0xbdd6afc1	-0.10482741
188	0x3bb7c6cf	0.0056084166
189	0x3ba690c4	0.0050831754
190	0x3c3eda64	0.011648748
191	0xbd9429d4	-0.072345406
192	0x3d5f4457	0.054508533
193	0xbde40e0f	-0.11135494
194	0xbd18ea89	-0.037333045
195	0x3dad5c97	0.08464926
196	0xbcdfbe4e	-0.027312424
197	0xbd87d052	-0.06631531
198	0x3dc0c1fc	0.094119996
199	0xbd930a54	-0.07179704
200	0xbcc134db	-0.023584774
201	0xbd5025e6	-0.050817393
202	0xbdd1d009	-0.10244758
203	0xbd5edd92	-0.054410525
204	0xbdc922bb	-0.098210774
205	0x3dd7014f	0.104982965
206	0xbd74c5aa	-0.05975882
207	0x3da690c4	0.081330806
208	0xbd6fe205	-0.05856516
209	0x3de7688a	0.11299236
210	0x3d6bf1b9	0.05760357
211	0xbd2f83ab	-0.042850178
212	0x3dd3a11b	0.10333463
213	0x3b99180c	0.004672056
214	0x3c5b2b20	0.013376981
215	0xbd27014a	-0.040772714
216	0x3da5a222	0.08087565
217	0x3d9bc0f2	0.07605161
218	0x3d93d853	0.07218995
219	0xbb14ba84	-0.002269418
220	0x3d9daac3	0.07698586
221	0x3da029c2	0.07820465
222	0xbdd2e931	-0.10298384
223	0xbda13ef5	-0.07873336
224	0xbd98a1a1	-0.07452703
225	0xbda7a439	-0.0818562
226	0x3deaac12	0.11458601
227	0x3d11ada5	0.03556599
228	0x3db716a1	0.08939863
229	0xbd8678b3	-0.0656599
230	0x3d45f5e4	0.048330203
231	0x3d5c1f81	0.053740982
232	0x3d1222e0	0.03567779
233	0x3da5b42a	0.08091004
234	0x3d3425f6	0.043981515
235	0x3d0df53b	0.034657698
236	0xbb8ad3ce	-0.004236675
237	0xbcbcf866	-0.023067664
238	0xbc160942	-0.009157481
239	0xbd89051c	-0.06690428
240	0xbcba69c5	-0.022755513
241	0x3dc3bf31	0.09557951
242	0x3d9c8a6b	0.07643589
243	0x3d1356e5	0.03597154
244	0x3da6153f	0.08109521
245	0xbdd9a286	-0.10626702
246	0xbd6c0032	-0.057617374
247	0xbd8f9daa	-0.07012494
248	0x3bb5c39d	0.0055470006
249	0x3d0169d6	0.031595074
250	0xbd54aa8c	-0.05192046
251	0xbc734668	-0.014848329
252	0xbd94dadb	-0.07268306
253	0xbd2f7d6e	-0.04284423
254	0xbc1d3d5e	-0.009597151
255	0x3dd97841	0.1061864

conv1.bias f4 [32]
0	0xbdc98bc6	-0.09841113
1	0x3ce74448	0.028230801
2	0xbd729f11	-0.05923373
3	0xbd8a5453	-0.06754365
4	0xbd2e0a58	-0.042490333
5	0x3c9f0463	0.019411271
6	0xbd5f7d55	-0.054562885
7	0xbb325f36	-0.0027217395
8	0x3cc1f678	0.023677096
9	0x3d877140	0.066133976
10	0x3e0f497b	0.13992874
11	0xbda6fcaf	-0.08153664
12	0x3d1d5cc2	0.03841854
13	0xbd9287b7	-0.07154792
14	0xbd853ada	-0.06505366
15	0xbca885f5	-0.020571688
16	0x3daa7fc8	0.083251536
17	0xbdddfb84	-0.108389884
18	0x3cac294a	0.021015782
19	0x3d39a21f	0.045320626
20	0xbde70882	-0.112809196
21	0x3d3d1100	0.04615879
22	0xbce9be41	-0.028533103
23	0xbd0e2640	-0.034704447
24	0x3ca89271	0.020577641
25	0xbd6a1840	-0.057152033
26	0xbd7edd49	-0.062222753
27	0xbdd2b10a	-0.10287674
28	0x3d39a64b	0.045324605
29	0x3bc5b2c5	0.006033274
30	0xbd5796f2	-0.052634187
31	0xbd8cf726	-0.06883077

conv2.weight f4 [32, 32, 5, 5]
0	0xbd08b202	-0.033372886
1	0xbc6aebaa	-0.014338413
2	0xbc1f2aed	-0.009714824
3	0xbc31d796	-0.010854622
4	0x3cd6a3fd	0.026201243
5	0x3bef5fd2	0.007305124
6	0xbc5917f6	-0.013250342
7	0xbbafd63e	-0.005366116
8	0x3c2f2f74	0.010692466
9	0x3d062f5a	0.03276
10	0xbc05607e	-0.008140681
11	0xbca060ce	-0.01957741
12	0xbd00b4e1	-0.0314225
13	0xbcb4743e	-0.022028085
14	0x3c173e6e	0.009231193
15	0x3cff1550	0.031138092
16	0x3b631cde	0.0034654657
17	0x3c2919a1	0.010321052
18	0x3c8a252e	0.016863432
19	0xbc80cb47	-0.01572193
20	0x3c1ea320	0.009682447
21	0x3b95d539	0.0045725373
22	0xbd0760f2	-0.03305144
23	0x3cc7a875	0.024372319
24	0xbccec833	-0.025241947
25	0x3a0141fa	0.0004930791
26	0x3bf25a65	0.00739603
27	0x3b5d38a7	0.0033755691
28	0xbb734884	-0.003712208
29	0x3cfe1d0a	0.031019706
30	0x3c862db6	0.016379219
31	0x3b828b9d	0.0039839284
32	0xbcc32cf1	-0.02382514
33	0xbbb078ec	-0.0053855088
34	0x3c3491c3	0.01102108
35	0xbb2af458	-0.0026085582
36	0xbc5fe2a0	-0.013664871
37	0x3cbd78d6	0.023128908
38	0x3cb723b7	0.022355897
39	0xbc059012	-0.008152025
40	0xbbac3aad	-0.005256018
41	0x3c470467	0.012147046
42	0x3cf091d7	0.029366417
43	0xbd0b0bfa	-0.03394697
44	0x3a7f0cbd	0.0009729376
45	0x3cc4ee6b	0.024039468
46	0xbc30915b	-0.010776843
47	0xbcd9064d	-0.026492262
48	0xbcec8ee2	-0.028876726
49	0xbb321212	-0.0027171415
50	0xbbe1e0fc	-0.0068932753
51	0x3ceabb57	0.028653784
52	0x3c6678c9	0.014066883
53	0x3a5890bd	0.0008261314
54	0xbc0a0389	-0.008423694
55	0x3c7a4609	0.015275487
56	0xbc98b7a1	-0.018642249
57	0xbbf58e5f	-0.0074937786
58	0xbd04a383	-0.0323825
59	0xbcdc1dbc	-0.026869647
60	0x3bb23c71	0.005439334
61	0x3c79fde1	0.015258283
62	0x3d02d654	0.03194268
63	0xbb464b50	-0.0030257292
64	0x3bbdd448	0.005793128
65	0x3bd339b0	0.006446086
66	0xbcdeda08	-0.027203575
67	0x3c90ad79	0.017660843
68	0xbca8bf45	-0.020599017
69	0xbccbe610	-0.024889976
70	0xbd088386	-0.033328556
71	0xbba8cde9	-0.0051514995
72	0xbd017af2	-0.03161139
73	0x3bf49da1	0.00746508
74	0x3c1c6ee6	0.009547925
75	0xbccb802c	-0.02484139
76	0xbc5d6b78	-0.013514392
77	0x3c5f102b	0.013614695
78	0xbc9f702f	-0.019462673
79	0xbcf389f4	-0.029728867
80	0xbb61a529	-0.0034430719
81	0xbd0049d9	-0.031320427
82	0xbc4394f5	-0.01193737
83	0x3cf8cfb3	0.030372476
84	0x3ce06d78	0.027395949
85	0xbc15be7e	-0.009139655
86	0x3add6372	0.0016890599
87	0x3c194f8f	0.009357347
88	0x3c97ed35	0.018545726
89	0xbca082e2	-0.01959366
90	0x3c0d0fd0	0.008609727
91	0xbd133d42	-0.035947092
92	0x3cbf3902	0.023342613
93	0xbbe11243	-0.006868632
94	0x3c896ce8	0.016775563
95	0xbca5a889	-0.020221965
96	0xbc859ad7	-0.016309185
97	0xbc8dc8f8	-0.017307743
98	0xbb80bb28	-0.0039285608
99	0x3ceb0bb8	0.028692111
100	0x3b83181a	0.004000676
101	0xbc07c7d5	-0.00828739
102	0x3cb68550	0.022280365
103	0xbcbdf6e2	-0.023189012
104	0xbcc660c9	-0.024216073
105	0x3ba41876	0.005007799
106	0x3c4f001e	0.012634305
107	0xbc8bf3cb	-0.017084023
108	0x3b39e5a5	0.0028365639
109	0xbb9570c8	-0.0045605637
110	0xbc95459f	-0.018221674
111	0x3bd9b577	0.0066439467
112	0xbc852214	-0.016251601
113	0x3ce35c31	0.027753921
114	0xbc8f339b	-0.017480662
115	0x3cc607a1	0.02417356
116	0xbb4eeca2	-0.003157415
117	0x3ae9f74b	0.0017850188
118	0xbc98342f	-0.01857957
119	0x3c20b511	0.009808795
120	0xbc4b4ae8	-0.012407996
121	0xbd06a7a6	-0.032874726
122	0x3bd3d94d	0.0064651133
123	0xbc708580	-0.014680266
124	0x3c438102	0.011932613
125	0xbd47630d	-0.048678447
126	0x3bbf5211	0.0058386405
127	0x3c223799	0.009900951
128	0x3c757487	0.014981396
129	0x3c253095	0.010082384
130	0xbd0e18cd	-0.03469162
131	0xba71090e	-0.00091947697
132	0x3d027c58	0.031856865
133	0xbc51eb4a	-0.012812445
134	0xbc24c58b	-0.010056864
135	0x3b1c2353	0.0023824766
136	0xbd1e2428	-0.0386087
137	0x3c947862	0.01812381
138	0x3ca916cd	0.020640755
139	0x3be36493	0.0069394796
140	0xbcb84687	-0.022494568
141	0xbcde60a8	-0.027145699
142	0x3aedb8f8	0.001813679
143	0x3ce7b6f3	0.02828548
144	0xbc2071b4	-0.009792734
145	0xbcd33625	-0.025782654
146	0xbcf487a0	-0.029849827
147	0x3bc634a4	0.0060487557
148	0x3af89e06	0.0018967993
149	0x3d2ae637	0.041723456
150	0xbb6f5e16	-0.0036524585
151	0xbac95291	-0.001535969
152	0xbcb32142	-0.021866444
153	0x3cb554f5	0.022135237
154	0xbd0de61d	-0.03464328
155	0x3c212122	0.00983456
156	0xbcf6e31a	-0.030137587
157	0x3cc7ce76	0.02439044
158	0x3c63116c	0.013859134
159	0xbb001191	-0.001954172
160	0x3d037387	0.032092597
161	0xbccdb22f	-0.025109379
162	0xba95b55a	-0.0011421845
163	0xbcee6e8a	-0.029105444
164	0x3d01f41d	0.031726945
165	0xbc078657	-0.008271775
166	0x3ccf56bd	0.025309915
167	0xbcd8b019	-0.026451157
168	0xbca15448	-0.019693509
169	0x3c9cb451	0.01912895
170	0xbcb54519	-0.022127675
171	0xbb8f0835	-0.004364992
172	0x3c59145c	0.013249483
173	0x3c147e73	0.009063351
174	0x3ba0f1b9	0.004911628
175	0xbce63e73	-0.02810595
176	0xbce481e9	-0.027893977
177	0xbb9a4ad4	-0.0047086272
178	0xbb6e74a4	-0.0036385441
179	0x3b61895a	0.0034414143
180	0xbbaef08f	-0.0053387354
181	0x3c0aa781	0.008462788
182	0xbc212ee6	-0.009837842
183	0x3ce52b98	0.027974889
184	0x3d01e17b	0.031709176
185	0xbcbb0619	-0.022830056
186	0xbcf28c2b	-0.029607853
187	0xbd263366	-0.04057636
188	0xbcfc86bd	-0.030825967
189	0x3c9f285d	0.019428426
190	0xbd2aab29	-0.041667137
191	0xbcee198a	-0.029064912
192	0x3ced7e70	0.028990954
193	0x3cc7f364	0.02440805
194	0x3d05e788	0.03269151
195	0xbd30d17e	-0.043168537
196	0xbd27c9b1	-0.040963832
197	0xbcdfbdd7	-0.027312202
198	0xbaac7bd5	-0.0013159463
199	0x3bba9662	0.0056941966
200	0xbd0709b7	-0.03296825
201	0x3b626fa1	0.00345514
202	0x3c1df956	0.009641966
203	0x3b554bdf	0.0032546443
204	0xbcc48433	-0.023988819
205	0x3c5c89dd	0.013460604
206	0xbd03c848	-0.032173425
207	0xbd110c55	-0.03541215
208	0xbc316ed7	-0.010829649
209	0x3c39c833	0.011339235
210	0xbcce5741	-0.02518809
211	0xbd4b91be	-0.049699537
212	0xbce6744e	-0.02813163
213	0xbd005755	-0.031333286
214	0x3c40b86c	0.01176272
215	0xbc85ab9a	-0.016317178
216	0x3c32753c	0.010892209
217	0xbc3fef56	-0.011714777
218	0x3ceeedad	0.029166067
219	0x3c14bb88	0.009077914
220	0xbbde80fd	-0.006790279
221	0xbd211313	-0.03932483
222	0xbcec6d5f	-0.028860746
223	0xbcf88407	-0.030336393
224	0xbc8431c9	-0.01613702
225	0x3c9464ba	0.018114436
226	0xbc6db592	-0.014508622
227	0xbc61ee3d	-0.013789711
228	0xbb36d333	-0.002789688
229	0xbc05dd94	-0.008170504
230	0x3bc06052	0.0058708573
231	0xbd080efd	-0.03321742
232	0xbced453f	-0.028963683
233	0xbbd711ce	-0.006563402
234	0x3cbebf36	0.023284536
235	0xbcfadd22	-0.030623022
236	0x3d02e371	0.031955186
237	0x3d0a5a0b	0.033777278
238	0x3d0a111c	0.033707723
239	0x3a61f62a	0.000861975
240	0x3c98e2db	0.01866286
241	0xbbdfe633	-0.006832862
242	0x3cc42a42	0.023945931
243	0x3cadda33	0.02122221
244	0x3bc78a3a	0.006089476
245	0xbc0c4cc3	-0.008563223
246	0xbc957d78	-0.018248305
247	0xbc9edee6	-0.019393396
248	0xbc1a8267	-0.009430504
249	0x3cd1e1d9	0.025620388
250	0x3cd1d09f	0.025612174
251	0x3c085ad2	0.0083224345
252	0xbc9c2287	-0.019059433
253	0x3cdfc23a	0.027314294
254	0xbcaea265	-0.02131767
255	0xbbafc15b	-0.005363626

conv2.bias f4 [32]
0	0xbc4da9ac	-0.01255266
1	0x3b8859de	0.0041611036
2	0x3cbd9b03	0.023145204
3	0xbd05b7fe	-0.03264617
4	0xbc392145	-0.011299436
5	0xbd06561e	-0.03279697
6	0xbca4961a	-0.020091105
7	0x3ce6dddf	0.028181968
8	0xbc97454e	-0.018465664
9	0x3bb2d081	0.0054569845
10	0x3b951bf6	0.0045504523
11	0x3d057263	0.03257979
12	0x3b3eede9	0.0029133505
13	0x3ca85565	0.020548532
14	0x3c8ea6c3	0.017413503
15	0x3b495ae2	0.0030724336
16	0x3c965bdb	0.018354347
17	0xbd0fc504	-0.035099998
18	0x3c813f67	0.015777303
19	0xbc1d74ad	-0.009610337
20	0x3a714c01	0.0009204746
21	0x3cbf923c	0.02338516
22	0xbc9f1a4f	-0.019421725
23	0x3d047584	0.032338634
24	0xbc1dd17c	-0.0096324645
25	0x3ca64d02	0.020300392
26	0xbd0d397d	-0.034478653
27	0x3ca4db7e	0.020124193
28	0x3d0555ba	0.03255246
29	0x3d0e1043	0.034683477
30	0xbbad917f	-0.0052968855
31	0x3c6145d9	0.013749563
