src/TRAINED_MODEL_DIR/image_fragment_model_linear_fd_64_epoch_1.pth (torch, 199221 bytes, 2 tensors)

linear.weight f4 [64, 768]
000000 9a 34 b4 bc 64 00 06 3d 9f a3 9e bc 32 45 a4 bc
       -0.021997739 0.032715216 -0.01936513 -0.020052526
000010 34 07 dc bc 34 29 99 bc 89 fd ea 3b 70 e7 1d 3c
       -0.026858903 -0.018696405 0.007171337 0.0096376985
000020 a5 7f 9d 3c fc 08 cd bb ac 83 f6 bc 5d cd 37 bc
       0.019225905 -0.0062571745 -0.030092083 -0.011218396
000030 2c 29 a8 3b a8 28 57 bc 3c c1 f6 bc bb b8 57 3c
       0.005131861 -0.013132252 -0.030121438 0.013166602
000040 6a f9 5e 3c 48 2b 04 3c f6 fd 09 bd b5 ec 7c 3c
       0.01360927 0.00806696 -0.03368946 0.015437295
000050 e1 bb 62 bc 24 91 f1 bc 83 42 4c bc 05 df 99 3c
       -0.013838739 -0.029488154 -0.0124670295 0.018783102
000060 e2 45 06 bd 69 12 b0 bc 05 c7 de bc 8f 77 8d bc
       -0.03278149 -0.021493154 -0.02719451 -0.017268924
000070 1e d6 5a bc e7 a4 4f 3b 44 1d 03 3d 23 13 db bc
       -0.013356714 0.0031683983 0.03201033 -0.026742524
000080 a6 d7 4c bc b1 7b d9 3c 73 d9 c8 3c 6a b4 e0 bb
       -0.0125025865 0.026548238 0.02451775 -0.0068574445
000090 ff 02 0b bd 35 dc 14 3d d5 00 20 bc 8c 7e 8a 3c
       -0.033938404 0.03634282 -0.009765823 0.016906045
0000a0 9a f4 e8 3c c8 9b c3 bc 5b 7c fc bc 01 b9 22 bc
       0.028436948 -0.023877993 -0.030821016 -0.009931804
0000b0 0a 86 db 3c 00 eb bb 3c 3a b3 d4 bc a6 08 9d 3c
       0.026797313 0.022939205 -0.025964368 0.019169163
0000c0 ae 89 b8 3c b2 b5 af bc d9 91 79 bc 20 40 0f bd
       0.022526588 -0.021448944 -0.015232527 -0.034973264
0000d0 2c a5 52 bc 8d 61 de bc 77 5e 5f bc e6 ae 08 bc
       -0.012856763 -0.027146125 -0.013633362 -0.00834248
0000e0 18 ac c1 3c 20 a9 69 bc 12 4b 4b bc 85 5d b2 bc
       0.023641631 -0.014261514 -0.012408035 -0.02177311
0000f0 11 5b 5f bc 0a 1d a8 bc f2 f7 46 bc c0 d7 fa 3c
       -0.013632552 -0.02052166 -0.012144076 0.030620456
000100 fb 98 11 3c a8 a7 30 bc 83 ca 12 3d 65 cb 0b 3d
       0.008886571 -0.01078216 0.03583766 0.03412952
000110 19 a6 2b bb c1 af 19 3b 58 4a 11 3d 14 1c 14 3b
       -0.0026191531 0.0023450705 0.03547129 0.0022599744
000120 ba 0b 39 3b 01 7c 14 3d ca 5a 4b bc 1d 76 d4 bc
       0.002823575 0.03625107 -0.0124117825 -0.025935227
000130 22 f4 0a bd 22 30 d7 bc f3 f3 cb 3c 33 38 b0 3a
       -0.03392423 -0.026268069 0.024896597 0.0013444483
000140 d9 86 c9 3c 22 c1 02 bd 51 45 28 bc 7a 7d 5d bc
       0.024600433 -0.031922467 -0.010270433 -0.0135186855
000150 d3 84 8e 3c d8 77 56 bb cf 78 0f 3c 5e ea 0f 3d
       0.01739732 -0.003272524 0.00875683 0.03513562
000160 ef 7f d5 3b 4d 1f 92 bc e6 d3 0e bc 48 76 11 3d
       0.006515495 -0.017837191 -0.008717513 0.035513192
000170 f0 c1 38 bc a5 f5 f7 3c 7f 64 ab 3c 81 33 62 3c
       -0.011276707 0.0302685 0.020921944 0.013806225
000180 96 d5 91 bc 23 9b c9 3c b5 c0 d4 bc 08 db 00 3d
       -0.017802041 0.024610108 -0.025970796 0.031458884
000190 9f 87 93 bc a5 e0 0d 3d 88 0a 06 3d ae 83 c6 bc
       -0.018009005 0.034638066 0.032724887 -0.024232712
0001a0 fc 47 a8 3b 02 a1 0a 3d b4 65 05 3d 5b 70 c9 bb
       0.0051355343 0.033844955 0.032567695 -0.006147427
0001b0 8f 99 d5 bc 60 32 8c bc fd 96 d3 bb f8 79 32 bc
       -0.026074199 -0.017113864 -0.006457208 -0.010893337
0001c0 e0 66 db bc 5f db 73 bc 92 14 b0 3c 2e dd 65 bc
       -0.026782453 -0.014883845 0.021494184 -0.014029784
0001d0 45 a3 2b 3c 59 c3 d2 bc a2 6e 0b 3d c0 18 cd 3c
       0.010475938 -0.025727915 0.034041055 0.025036216
0001e0 33 ba c4 3c be e8 8f 3c 53 d8 34 3c 00 9b ec 3c
       0.024014568 0.017567035 0.011037904 0.028882504
0001f0 99 3c 18 3d 80 e6 07 3d fc ac f1 3c 68 8e 8a bc
       0.037167165 0.033178806 0.02950143 -0.016913608
000200 50 be 88 3c 82 43 e1 bc 44 5e 8d bb 90 60 8b 3b
       0.01669231 -0.02749801 -0.004314216 0.0042534545
000210 da f3 c9 3c 10 ba 5b bb 6b 9e 9e 3c 7b ce b3 bc
       0.02465241 -0.003352765 0.019362649 -0.021949043
000220 2b c8 28 3c e7 9e bf bc d4 08 1b bc cb 1b 91 bc
       0.01030163 -0.0233912 -0.009462554 -0.017713448
000230 db 47 42 3c ae c8 a2 bc 35 00 86 3c ec de fb bc
       0.011857952 -0.019871082 0.01635752 -0.030745946
000240 01 5e ed ba 22 14 0f bc 70 7a d7 3c 2c 8a 35 3c
       -0.001810968 -0.008732827 0.0263035 0.011080306
000250 21 40 af bc 0d b4 f4 3c 33 51 62 3a 48 50 c1 3c
       -0.021392884 0.029871011 0.00086333154 0.023597851
000260 41 72 df 3c 91 14 16 bc 75 26 e7 bb f1 be 3d 3c
       0.02727616 -0.009160177 -0.007054145 0.0115811685
000270 ca 5e 79 3c 32 0e e6 3c cc 6f 0d 3b c1 a3 f5 bc
       0.015220353 0.02808294 0.0021581529 -0.02998531
000280 77 63 97 3c 88 88 03 bc 53 1d 0c 3d 09 5c bc 3c
       0.018480046 -0.008028157 0.034207653 0.022993105
000290 6d 59 66 bc c1 84 08 bd 0e f0 2a ba 2a e8 25 bc
       -0.014059407 -0.03332973 -0.0006520756 -0.010126153
0002a0 38 79 a8 3c 84 a1 0e bc 0d 74 bb bc 38 1f 06 bd
       0.020565614 -0.0087055005 -0.022882486 -0.032744616
0002b0 f2 95 04 bd e8 56 07 bd 03 13 59 3c 73 af 1d 3c
       -0.03236956 -0.033041865 0.013249162 0.00962435
0002c0 d1 10 a2 bc 0a 90 9d 3c 63 62 ad bc 3c 45 2c bc
       -0.01978341 0.019233722 -0.021165079 -0.010514554
0002d0 97 7a 83 bb 2c 84 2d 3b 69 37 9e bc b2 5d 74 bc
       -0.0040124166 0.0026476486 -0.019313531 -0.014914917
0002e0 43 f3 b0 3c 3b f5 6b bc 6f 29 f3 bc a3 c0 02 bd
       0.021600371 -0.014401729 -0.029682843 -0.031921994
0002f0 57 ed 02 3d f6 53 cb bc 2d 9b 05 3d 5a ac bf bc
       0.031964626 -0.02482031 0.03261869 -0.023397613
000300 dc 77 fe bc 8e b1 d8 3c 5b b1 a7 3b 9d 9f 8e bc
       -0.031063013 0.026451852 0.005117578 -0.017410094
000310 6e f8 82 bc b4 84 53 bc b7 4e 93 bb a0 28 a6 3c
       -0.015987601 -0.012910057 -0.0044954675 0.020283043
000320 ee 43 20 39 ca f0 9b bc 5a 99 2d bc 3d f5 a1 bc
       0.00015284095 -0.019035716 -0.010595644 -0.019770259
000330 33 a2 0e bd e1 d1 a9 3c be ce c1 bb 45 58 52 3a
       -0.034822654 0.02072996 -0.005914538 0.00080240174
000340 7c 13 99 bc 4d 63 4f 3c a8 11 9e bc 9a f2 06 bd
       -0.018686049 0.0126579525 -0.019295529 -0.032946207
000350 42 46 75 bc 03 91 b5 bc 5c ef 97 3c 49 93 bb bc
       -0.014970364 -0.022163874 0.018546753 -0.02289738
000360 88 ae a1 bc 8c 7c 07 3d 8a 14 08 bd 1e 15 ee 3c
       -0.019736543 0.03307776 -0.033222713 0.029062804
000370 ec 57 27 3b 55 5d f1 ba ef 32 9d 3b d8 ad ec 3c
       0.0025534583 -0.0018414656 0.0047973315 0.028891489
000380 8d da 95 3c 79 1a f1 3c 70 0f ba ba 03 54 bd bc
       0.01829269 0.029431568 -0.0014195275 -0.023111349
000390 32 ef 1a bb 23 57 62 bc dd 97 41 3c 0c 62 6c bc
       -0.0023641107 -0.01381472 0.011815992 -0.014427673
0003a0 0b 93 1c bc a1 fe f4 bc f6 86 09 3c 54 86 0f bc
       -0.009556542 -0.029906573 0.008393994 -0.008760054
0003b0 b4 d7 46 bc a7 73 09 3b 5f 8f 6f bc fc 9d f6 bc
       -0.012136389 0.0020973475 -0.014621585 -0.03010463
0003c0 09 47 30 3c 01 a8 a0 3c 60 f1 8b bc 8c 03 d3 bc
       0.010759124 0.01961136 -0.01708287 -0.025758527
0003d0 71 f6 20 3c 1f 3a c8 3c fa c7 a9 bc f8 6b 0e 3d
       0.009824381 0.024441777 -0.020725239 0.034770936
0003e0 17 96 56 3c a9 e9 a9 bc 49 b3 aa bc e5 ac ce 3c
       0.013097308 -0.0207413 -0.020837443 0.025228927
0003f0 c1 6b ea 3c 64 85 0b bc 56 4f 9e 3c 48 a8 d0 3b
       0.028615834 -0.0085156895 0.01932494 0.006367717

linear.bias f4 [64]
000000 e8 ef 0b 3d 57 c7 27 3c 7c c6 50 3c a8 df 9e bc
       0.03416434 0.010240397 0.012742635 -0.019393757
000010 e4 82 74 3c c6 08 1d 3c 8a 06 e3 3c 98 c8 f3 bc
       0.014923785 0.009584611 0.027713079 -0.029758736
000020 94 17 88 3c e5 a1 8d bc e1 85 fb 3c e9 6f f3 bc
       0.016612805 -0.017289111 0.030703487 -0.029716449
000030 54 13 dc bc d5 1b c0 bc 7e 4d 80 3c 44 b3 46 bc
       -0.026864685 -0.023450771 0.015661951 -0.012127701
000040 5e 0a a5 bc 8d f1 e9 3b 1c 4b 16 bc a7 1c cd bc
       -0.020146545 0.007139391 -0.009173181 -0.025038077
000050 76 11 d3 3c 27 49 59 3c e0 1a 57 bc 75 e5 84 bc
       0.025765162 0.01326207 -0.013128966 -0.016222695
000060 0f 71 d5 3c 5d 5a 3b bc 91 c5 04 bc 1c 4a 9b 3c
       0.026054887 -0.0114351185 -0.008103744 0.018956237
000070 c7 cc ad 3b da 90 bd bc d9 9c 70 bc 49 f4 28 3c
       0.0053039524 -0.02314036 -0.014685833 0.010312148
000080 70 86 a1 bc fe 84 ea 3c c0 41 df 3c 70 0b d5 3c
       -0.019717425 0.028627869 0.027253032 0.02600643
000090 ac 5c bb 3a fc bc 82 3c d8 96 f5 3c 22 8c 89 3c
       0.0014294586 0.015959255 0.029979154 0.016790453
0000a0 d8 0d a0 bc 5e b0 eb 3c a5 24 e5 3c 30 16 b8 bc
       -0.019537851 0.028770622 0.027971575 -0.022471517
0000b0 07 a3 d4 bc d0 45 87 3c d5 bc 00 bd e9 01 17 3c
       -0.025956644 0.016512781 -0.031430084 0.009216764
0000c0 8d f5 9d 3c cc 06 93 bb a8 63 8a 3b 1d 2a 91 3c
       0.019282127 -0.0044868942 0.0042233057 0.017720276
0000d0 e8 61 56 3c 10 50 0b bc e2 70 d8 ba e0 81 01 3d
       0.013084866 -0.008502975 -0.0016513134 0.031618
0000e0 19 8c 05 3d 0a 84 ef 3a f2 16 13 3d 7c a2 7a 3c
       0.03260431 0.0018273604 0.035910554 0.015297528
0000f0 04 fd d7 3b 74 df e4 bb ac 91 e5 3b 1e a9 fc bc
       0.006591441 -0.0069846455 0.007005891 -0.03084236
