src/TRAINED_MODEL_DIR/image_fragment_model_linear_fd_256_epoch_5.pth (torch, 789821 bytes, 2 tensors)

linear.weight f4 [256, 768]
0.031390835 0.028172411 0.0166997 -0.013647148 0.0303154 0.02343994 -0.031294618 0.023523562
-0.004551566 0.009392551 0.004496444 0.01254545 0.013043388 0.005932124 -0.001797957 -0.0329277
0.007596397 -0.030808847 -0.0053235046 -0.02356829 0.018997708 -0.01559829 -0.014016761 -0.01251729
0.025412861 0.006976289 -0.033260692 0.00059360056 0.0040715667 0.031184452 0.00869652 0.033867538
0.029477637 -0.03192576 -0.014733834 0.010089337 -0.018371211 -0.009653116 -0.0041245474 -0.026313486
-0.0032392403 -0.03281008 0.02467819 0.017769337 0.0025488168 -0.022644758 -0.011060233 0.004067019
-0.02716192 0.029002685 -0.021427253 0.01086007 -0.004444483 -0.01912619 -0.0109233195 -0.0027635582
-0.024916409 0.017170647 -0.027919436 -0.02813147 0.017667353 2.9328285e-05 -0.0027692618 0.012843588
0.019463861 0.014832213 0.008540283 0.012902652 -0.002496006 -0.030273547 -0.0048824865 -0.020555245
0.035081677 0.024155697 6.689924e-05 -0.025585216 -0.003554192 -0.006903471 -0.023427794 -0.026993727
-0.007853424 0.0106274625 0.003974431 -0.010354441 -0.012314236 0.01744304 0.008075504 0.017493086
9.49606e-05 -0.022284778 -0.013647367 0.007499066 0.0017243776 0.0236735 -0.025782999 0.02782575
-0.009329658 -0.0016664534 -0.032037 0.023059959 -0.011217974 0.0021460732 0.017143534 -0.0011005489
-0.016659437 0.0014440565 0.013995472 0.013499431 -0.030632643 -0.014145331 -0.025969438 0.01060388
0.008290397 0.008038859 0.0051327925 -0.01509646 0.035805486 -0.0045172772 -0.0014485973 -0.02716107
0.029288733 0.021022916 0.0048432993 0.029075356 -0.00661776 -0.024672981 0.032633428 -0.03366226
0.021073883 -0.0018000561 -0.0045370064 0.032872595 0.012848271 0.012325969 -0.0041993605 0.009986588
-0.01007482 -0.0069037015 -0.03466256 0.031467516 -0.033223204 0.014121524 -0.021549257 -0.033296376
-0.024329823 -0.0011685882 -0.021684175 0.026735798 0.019795654 0.024664178 0.0035755774 0.009883711
-0.008431475 -0.013062767 0.013279579 -0.00741088 -0.011689669 -0.007694151 0.0030528207 0.032587327
-0.027742028 0.02633563 -0.017883308 -0.0026435542 -0.025722265 0.01774498 -0.019966098 0.003471163
-0.027664362 0.01063291 0.015973477 0.015747523 -0.006634697 0.024512704 0.0021533968 -0.0021052992
0.00762578 -0.0011425756 -0.0153119825 -0.008812626 -0.033382334 0.029084163 0.013504428 0.016445093
-0.0027302715 0.013156231 0.0134539325 0.02606157 -0.029826518 0.022343745 0.025396045 0.007716716
-0.035812877 -0.01417504 0.0008011363 0.009265633 0.031313334 -9.251601e-05 0.035024352 -0.002159339
0.002387453 -0.023078304 0.005349508 -0.004434607 0.030970825 -0.020472182 0.00064930436 -0.016711287
0.0026839552 0.0064746356 0.036178052 -0.020533528 -0.026566625 -0.007938446 0.010334253 -0.028148947
-0.002606614 0.0044830823 0.021207497 -0.026144743 -0.0066620805 0.019088019 -0.00053510425 0.011903692
0.027898798 -0.02908344 0.009915284 0.0017275509 -0.0009314488 -0.032489233 0.003128602 0.035456177
0.007438009 -0.013424342 0.005070839 0.030616272 -0.010270649 -0.01141719 -0.02882147 0.022218654
0.032036174 0.020891286 -0.008463 0.024279134 -0.013914742 0.0018387991 -0.0044493563 -0.007300547
-0.012143444 0.0038922369 0.020443868 -0.016568936 0.016207278 -0.028952844 -0.025866503 -0.01625122
00000000: ad93 003d d4c9 e63c cfcd 883c 4a98 5fbc
00000010: 0058 f83c 1e05 c03c c92e 00bd 7cb4 c03c
00000020: 4e25 95bb 37e3 193c e856 933b 6e8b 4d3c
00000030: efb3 553c 4362 c23b 6da9 ebba 32df 06bd
00000040: 32eb f83b d662 fcbc cb70 aebb 4912 c1bc
00000050: 15a1 9b3c f88f 7fbc 8fa6 65bc 5215 4dbc
00000060: a22e d03c 5b99 e43b 5d3c 08bd dc9b 1b3a
00000070: c76a 853b 8976 ff3c d97b 0e3c b0b8 0a3d
00000080: 167b f13c 96c4 02bd 2e66 71bc bf4d 253c
00000090: 397f 96bc 1a28 1ebc 3627 87bb 618f d7bc
000000a0: 6f49 54bb dd63 06bd ea29 ca3c 0091 913c
000000b0: 0d0a 273b 8081 b9bc fb35 35bc a144 853b
000000c0: ad82 debc 0a97 ed3c 3588 afbc 6fee 313c
000000d0: 07a3 91bb 87ae 9cbc b9f7 32bc d01c 35bb
000000e0: 7f1d ccbc 75a9 8c3c 4db7 e4bc f873 e6bc
000000f0: 20bb 903c 0306 f637 817c 35bb ea6d 523c
00000100: ad72 9f3c cf02 733c 8bec 0b3c a565 533c
00000110: 0894 23bb 3b00 f8bc 44fd 9fbb 7963 a8bc
00000120: ceb1 0f3d 2be2 c53c 424c 8c38 1698 d1bc
00000130: 72ed 68bb 8336 e2bb a5eb bfbc f321 ddbc
00000140: a6ab 00bc cf1e 2e3c f23b 823b aca5 29bc
00000150: a6c1 49bc b5e4 8e3c 1e4f 043c a94d 8f3c
00000160: 9525 c738 918e b6bc 3599 5fbc baba f53b
00000170: 8304 e23a eeee c13c de36 d3bc d4f2 e33c
00000180: 6cdb 18bc e66c daba 3b39 03bd 3de8 bc3c
00000190: 98cb 37bc 22a5 0c3b 9970 8c3c 4b40 90ba
000001a0: 5f79 88bc 7f46 bd3a 444d 653c b82c 5d3c
000001b0: 4ff1 fabc d2c1 67bc dcbd d4bc e5bb 2d3c
000001c0: 72d4 073c 6bb5 033c fc30 a83b 2457 77bc
000001d0: c6a8 123d ab05 94bb dcde bdba e480 debc
000001e0: edee ef3c 4038 ac3c 8ab4 9e3b 712f ee3c
000001f0: cbd9 d8bb fe1e cabc a1aa 053d 70e1 09bd
00000200: 23a3 ac3c dcef ebba 2bab 94bb 6aa5 063d
00000210: 8e81 523c dcf2 493c ca9a 89bb c99e 233c
00000220: dc10 25bc 7238 e2bb 54fa 0dbd 15e4 003d
00000230: 0e15 08bd f75d 673c 1188 b0bc c861 08bd
00000240: 564f c7bc 502b 99ba 03a3 b1bc 0805 db3c
00000250: 7f2a a23c 880c ca3c 3c54 6a3b 4aef 213c
00000260: 2b24 0abc 3705 56bc 9792 593c f8d6 f2bb
00000270: 0786 3fbc 371f fcbb d511 483b 4a7a 053d
00000280: 4043 e3bc d2bd d73c 0480 92bc 7b3f 2dbb
00000290: 80b7 d2bc ec5d 913c f18f a3bc 747c 633b
000002a0: 5fa0 e2bc a835 2e3c cfda 823c f300 813c
000002b0: df67 d9bb dece c83c 0120 0d3b 0ff9 09bb
000002c0: aee1 f93b 7ac2 95ba 1cdf 7abc d562 10bc
000002d0: eabb 08bd e941 ee3c ad41 5d3c dcb7 863c
000002e0: 5bee 32bb 3b8d 573c e26d 5c3c 137f d53c
000002f0: be56 f4bc 3b0a b73c 5e0b d03c 81dc fc3b
00000300: 86b0 12bd 6d3e 68bc 5903 523a e2ce 173c
00000310: 6942 003d 2805 c2b8 b275 0f3d b283 0dbb
00000320: d176 1c3b b60e bdbc ed4a af3b 2e50 91bb
00000330: 87b6 fd3c 47b5 a7bc 1436 2a3a 1ce6 88bc
00000340: 4ce5 2f3b 2e29 d43b 702f 143d ee35 a8bc
00000350: 40a2 d9bc 4110 02bc 0051 293c 9f98 e6bc
00000360: bad3 2abb d2e6 923b 58bb ad3c 802d d6bc
00000370: 954d dabb 7a5e 9c3c 3d46 0cba b407 433c
00000380: 058c e43c 6540 eebc b773 223c fd6e e23a
00000390: 792c 74ba 6e13 05bd 3b09 4d3b 7f3a 113d
000003a0: 8bba f33b c5f1 5bbc 4829 a63b face fa3c
000003b0: 3946 28bc 2a0f 3bbc 011b ecbc e503 b63c
000003c0: 5d38 033d 3424 ab3c 65a8 0abc 09e5 c63c
000003d0: a8fa 63bc dc03 f13a e8cb 91bb 6d39 efbb
000003e0: 4cf5 46bc e614 7f3b e679 a73c 94bb 87bc
000003f0: 20c5 843c 842e edbc fde5 d3bc 4721 85bc

linear.bias f4 [256]
-0.023580259 -0.022231037 0.030102938 0.008895406 0.010754322 0.022145225 -0.0067683053 0.02418108
0.022862583 0.0043711257 0.034302145 0.0048095398 0.004361748 -0.0046295137 -0.022911161 0.015372931
-0.012197064 0.009417701 0.029850163 0.036051407 -0.027132554 -0.008912681 0.018611133 0.008236879
0.020252932 0.01772112 -0.0023033104 0.0028748375 0.01634519 -0.013206296 -0.0141502675 -0.009862413
-0.020937938 0.008821151 -0.009898094 0.029933184 0.026671281 0.016675098 -0.031713877 -0.021948349
0.020098638 0.011014879 -0.016764333 -0.014307121 -0.024788266 0.0164624 -0.020318354 -0.00065808377
0.01780292 -0.019546764 -0.009649535 -0.011431341 -0.0068323645 0.031736515 -0.029998481 -0.011998657
0.02700188 0.027506866 -0.015547478 0.03562907 0.022014365 -0.00022243976 0.032480415 0.007981678
0.026796082 -0.021684317 0.018183623 0.021466931 -0.027989246 0.031078776 -0.008823809 0.011396012
-0.025249742 -0.031412166 0.0019126353 0.020658633 -0.005164017 0.012696823 0.007884918 0.0107177375
0.004364488 -0.014701229 0.03527217 -0.015649816 0.0015996943 -0.0014662243 -0.015903259 0.004344602
-0.008777214 0.0053489986 0.018622523 -0.0197372 -0.009475135 0.00996833 -0.015056192 -0.016518988
-0.034141462 0.027267564 0.03207055 0.015468736 0.02635181 -0.026025744 -0.013258603 0.010555137
0.023213744 0.012120414 -0.033555914 -0.015648969 -0.030487828 -8.84409e-05 0.00043129938 -0.02532944
-0.030051263 0.031391107 0.0094468435 0.024319286 0.015916133 0.024443252 0.028450884 -0.0059406655
-0.030063389 -0.015068628 -0.0075747943 0.0310726 -0.029050905 0.033848062 0.008553037 -0.0040590707
0.012378471 -0.00489709 0.0041732565 -0.008954935 0.0076166918 0.015459514 0.01608626 0.0040985467
-0.0012226809 0.016109394 0.0012678907 -0.030106762 -0.03263396 -0.0007736461 0.024742406 0.033014003
-0.024776015 -0.023911292 0.0055510704 -0.012058682 0.018359039 0.028246826 -0.010092995 0.0066682114
0.029989462 -0.007365423 0.00071865023 -0.012912548 -0.014375835 -0.029952494 -0.0077173533 0.020544924
-0.0027548142 -0.017156716 0.000358525 -0.00850852 0.03398197 -0.0050945203 0.02100007 0.027264562
0.03193071 -0.03603658 -0.0009950362 0.010374634 -0.013270639 0.011930942 -0.013550105 0.032965638
-0.029349802 0.033098016 -0.0024042989 0.030420246 0.008998364 -0.0070778397 -0.013410058 0.035635483
0.02614024 0.004905276 0.0065249167 0.00031808543 0.001776993 0.027119773 -0.015218479 -0.030950068
0.013536709 -0.02856322 0.019060478 -0.008413755 -0.013179802 0.032560907 -0.02522419 -0.017992327
-0.00905838 0.01881881 0.02874297 0.033997186 -0.0025979695 -0.013117936 0.03529825 0.016901486
0.02610648 -0.012682904 0.02679715 0.025276132 -0.028708171 -0.035710514 0.019073214 -0.030685417
0.034031462 -0.016129568 -0.009088306 0.035824243 0.02208329 0.015505318 0.03268575 0.0010962399
0.02031058 0.0325276 0.005268012 0.010336242 0.02606463 0.021003142 0.008100454 -0.0360293
-0.0039621987 0.023867613 0.01960798 0.006236241 0.017569652 0.033331938 0.030667823 -0.015602611
-0.017550817 -0.0030851252 0.0084969355 0.021146549 -0.016918752 -0.021679793 -0.0017836218 -0.017187193
-0.0286407 0.0148922885 0.0051415972 0.024175396 0.030446136 0.026922587 -0.016724698 0.022721294
00000000: 632b c1bc dd1d b6bc 709a f63c 09be 113c
00000010: e532 303c e769 b53c a9c8 ddbb 6617 c63c
00000020: 504a bb3c a93b 8f3b 6880 0c3d 5899 9d3b
00000030: ffec 8e3b 2db3 97bb 30b0 bbbc bfde 7b3c
00000040: 32d6 47bc b34c 1a3c 5488 f43c a4aa 133d
00000050: 1745 debc 7e06 12bc 6076 983c f9f3 063c
00000060: 7ae9 a53c e22b 913c 23f3 16bb c567 3c3b
00000070: 59e6 853c 385f 58bc 86d6 67bc f595 21bc
00000080: 0a86 abbc 9786 103c 9e2b 22bc 7036 f53c
00000090: bb7d da3c 379a 883c 69e6 01bd 06cd b3bc
000000a0: e6a5 a43c c077 343c 5b55 89bc 6a68 6abc
000000b0: c310 cbbc 28dc 863c ad72 a6bc 4183 2cba
000000c0: 6ed7 913c 8920 a0bc 1519 1ebc 854a 3bbc
000000d0: 07e2 dfbb 26fe 013d 60bf f5bc 0496 44bc
000000e0: 0c33 dd3c 1456 e13c d9ba 7ebc caef 113d
000000f0: 7857 b43c b83e 69b9 2f0a 053d 95c5 023c
00000100: 7583 db3c 4fa3 b1bc d2f5 943c 6bdb af3c
00000110: b449 e5bc eb98 fe3c bd91 10bc 57b6 3a3c
00000120: 8cd8 cebc 0baa 00bd 64b1 fa3a 4b3c a93c
00000130: ea36 a9bb 5606 503c be2f 013c 7399 2f3c
00000140: fb03 8f3b 6cdd 70bc 8d79 103d 0b34 80bc
00000150: d5ac d13a 532e c0ba 8d47 82bc 2a5d 8e3b
00000160: 4ece 0fbc a746 af3b 438e 983c e9af a1bc
00000170: 993d 1bbc 3552 233c 3fae 76bc d452 87bc
00000180: ebd7 0bbd 3a60 df3c 695c 033d 9570 7d3c
00000190: c0df d73c f133 d5bc 9d3a 59bc 74ef 2c3c
000001a0: c02a be3c b394 463c ed71 09bd 4432 80bc
000001b0: 9cc1 f9bc 5979 b9b8 0620 e239 b07f cfbc
000001c0: 112e f6bc f693 003d efc6 1a3c 3d39 c73c
000001d0: 8d62 823c 373d c83c d411 e93c eaa9 c2bb
000001e0: 7f47 f6bc 68e2 76bc fb35 f8bb f78b fe3c
000001f0: 2afc edbc 44a4 0a3d 0a22 0c3c f401 85bb
00000200: 12cf 4a3c c577 a0bb d0bf 883b b8b7 12bc
00000210: 7195 f93b e749 7d3c 55c7 833c 1a4d 863b
00000220: 5d42 a0ba d9f7 833c 5a2f a63a 75a2 f6bc
00000230: 30ab 05bd 83ce 4aba 96b0 ca3c b139 073d
00000240: 12f7 cabc 9de1 c3bc c1e5 b53b c791 45bc
00000250: b265 963c e365 e73c 175d 25bc 0381 da3b
00000260: 76ac f53c a559 f1bb cd63 3c3a 278f 53bc
00000270: 9f88 6bbc ef5e f5bc dae1 fcbb d44d a83c
00000280: 1d8a 34bb 3e8c 8cbc 69f8 bb39 5267 0bbc
00000290: ae30 0b3d efef a6bb 5708 ac3c ee59 df3c
000002a0: c7c9 023d 189b 13bd e06b 82ba 5efa 293c
000002b0: 186d 59bc ff79 433c 4201 5ebc fa06 073d
000002c0: ff6e f0bc c991 073d 7191 1dbb e133 f93c
000002d0: e06d 133c 39ed e7bb dcb5 5bbc 83f6 113d
000002e0: 0e24 d63c 70bc a03b f8ce d53b b4c4 a639
000002f0: fee9 e83a 492a de3c ed56 79bc ff8a fdbc
00000300: 13c9 5d3c 6afd e9bc b824 9c3c d9d9 09bc
00000310: 19f0 57bc 965e 053d f6a2 cebc a564 93bc
00000320: 9969 14bc e829 9a3c 6176 eb3c a240 0b3d
00000330: b242 2abb 9dec 56bc e694 103d fc74 8a3c
00000340: 42dd d53c f4cb 4fbc b285 db3c e40f cf3c
00000350: 662d ebbc 3045 12bd 6e3f 9c3c fc5f fbbc
00000360: 9364 0b3d 2822 84bc 1ee7 14bc 71bc 123d
00000370: 04e8 b43c 040a 7e3c 7ee1 053d b5af 8f3a
00000380: 6062 a63c a93b 053d 4a9f ac3b 5759 293c
00000390: 7e85 d53c c80e ac3c c4b7 043c 7693 13bd
000003a0: 55d5 81bb 0386 c33c eaa0 a03c 6259 cc3b
000003b0: 3bee 8f3c 1287 083d 163b fb3c 18a2 7fbc
000003c0: bbc6 8fbc d02f 4abb bb36 0b3c 873b ad3c
000003d0: 3299 8abc d299 b1bc 6bc8 e9ba 28cc 8cbc
000003e0: e79f eabc c9fe 733c d87a a83b 7b0b c63c
000003f0: 2d6a f93c c28c dc3c 3c02 89bc 0222 ba3c
