src/TRAINED_MODEL_DIR/image_fragment_model_linear_fd_128_epoch_3.pth (torch, 396093 bytes, 2 tensors)

linear.weight f4 [128, 768]
00000000: b4bd 023d bdf7 8dbc cc64 703c abdb df3c
00000010: 802c 263c da6c c6bb 1db0 f23c cfad 8abc
00000020: 8fe5 08bd e8c4 8abc b111 a13c 2dae e3bb
00000030: 43bf cdbc 7d79 4cbc 6057 85bc c38c 083d
00000040: 60bd ea3c dfdd 043c dedc 22bc 5b7d f03b
00000050: 3131 653c ff89 0b3d e822 a8bc 55a1 5fbb
00000060: 3c92 f53c 1d99 cbbc 96f1 b73c 22bb c13c
00000070: 254c 07bd 95d1 c1bc 8620 003c a078 e9bc
00000080: e6ed 05bd ca5a 06bc aa85 8abc daa2 a73c
00000090: 5703 b63c 1a41 043d fae7 863c f5fb dcbc
000000a0: 2c1a 16bc 13d0 55bc 8bf9 063d 402f e5bc
000000b0: c9a7 163c e31e 1abd 3bcf ebbb ba80 ab3c
000000c0: 5ff5 f03b 5ac7 783c 47ec 12ba 9a20 a73b
000000d0: 2ece f0bc 0433 19bc b555 8d3c 804c dcbc
000000e0: 36e8 69bc 046f c3bc d2db 05bd 07b2 b3bb
000000f0: e530 c23c 5442 903c 0e10 c93c 5116 8fbc
00000100: aa76 babb efd8 b63c a159 84bc bb26 e037
00000110: 855f 3c3c fb98 8fbb 9bfc 7d3c c429 d73c
00000120: 921a 02bd 6187 42bc 9c00 c4bc 8455 0b3d
00000130: 82cc 873c ee44 dcbc 797e 9e3c b4d3 de3a
00000140: 81ce 0e3d 910e d8bc b4c8 c93c 0c05 b7bc
00000150: e174 12bd f05a efbc 8d79 80bc aa03 d6bc
00000160: 9b82 7a3c 1bad a5bc 9371 6f3c 648f 02bd
00000170: c1ad 72bc 5d73 f63c 10ac ea3c 36f1 12bd
00000180: d4e6 aeba 9fbe c83c 1bb1 62bb 5b79 c3bc
00000190: 2ed9 113c d794 763c 044f e3bb 70a5 0c3c
000001a0: 4aa8 67bc 5715 d73c 665d 513b 9761 63bc
000001b0: 1867 ec3c 6c81 513c ff77 043d 7358 18bc
000001c0: 7004 18bd f942 5cbc 352e 6a3c a0e7 a13c
000001d0: f154 c73c da86 adbc 78b5 c33c e8db 373c
000001e0: d024 99bc 819d ca3c a2b2 bbbb 9a96 e0ba
000001f0: 7582 05bd 4b52 4cbc 7090 e13c 529e b1bb
00000200: b8b1 c43c 84c9 aebc 2cb9 9c3a 3488 00bd
00000210: 1aaa e4bc 7a7b 903c 2b41 e5bc a074 5a3a
00000220: 1403 f73c ade0 adbc c957 ce3c a1c5 f63c
00000230: c770 8b39 f2b9 d83c c867 3fbb ddb4 123c
00000240: c4e5 3f3b 607b 0d3d 5fdf 033b 5f36 f6bc
00000250: 6f43 c9bc 2a8a 09bc df3e b23b 3a8e e339
00000260: 6464 97bc c145 3dbc 9dcf 083d 57a8 013c
00000270: 670a 933c ee07 1a3c 599e de3c bef7 b33c
00000280: d967 b5bc 2022 4abc e03c 1b3c feb4 9a3c
00000290: 43e4 11bd dd71 bb3c 46b8 dd3c 74f6 d2bc
000002a0: 36b8 8ebc f72a 87bc cfce a8bc e97d 04bd
000002b0: 40d2 023c 4b06 e9bb f445 11bc 0439 ba3c
000002c0: 5edf 30bc 9e1c 063a 4268 db3b e18c f0bc
000002d0: e9c5 6cbc df23 eb3c f6cf 893c 79d0 f73c
000002e0: 9f33 00bd 762c af3c 7282 e43c 4b5f 9c3b
000002f0: ff33 853c 7a7d 003c 05a5 86bc 7600 b53c
00000300: 9fb0 4b39 89aa 133d eb3e 8bbc 5643 423c
00000310: 2721 f7bb 8d40 9cba cea1 1abc fd65 4dbc
00000320: 17ab e6bc 85e0 a0bc 9989 02bb 69ed 063d
00000330: 7e84 513c e1f7 183b ac90 33bc 963d e83b
00000340: 440f 733b 6765 a13b ea6c f7bc 833b c2bc
00000350: 3185 093c 3862 673c 1db6 e03c 5898 dd3c
00000360: f9d6 d7bc e423 5f3b 04f6 f43c 29e3 573c
00000370: 1d42 9dbc 5cd6 a2bc 8855 3fbb 3e51 c0bc
00000380: 7f06 073c 2786 c53c e877 373c 3738 bebc
00000390: 9233 7239 c548 8c3c 1342 583b 07fe 6cbc
000003a0: 6ca4 6b3b 09c4 4d3a 357f d63c ce5d 10bc
000003b0: ef7e e2bb 70d2 0ebd 9166 dd3c 5174 a6bc
000003c0: c0ef 5ebb 4c9f 1c3b 6472 fbbc 81b6 cd3b
000003d0: cab8 d5bb 8fe2 0cbd e4e0 d33c 8082 61bc
000003e0: c616 c03b 962d a03b a7a3 173c d692 3cbb
000003f0: b5c9 62bc b147 dd3c 8a88 a3bc 4b81 763c
0.031919196 -0.017330045 0.014672469 0.027326426 0.010142446 -0.0060554566 0.029624993 -0.016928582
-0.03342205 -0.016939595 0.019661756 -0.0069482536 -0.025115615 -0.012480137 -0.016277015 0.033337366
0.028654754 0.008109539 -0.009940354 0.0073391623 0.013988779 0.03406715 -0.020524457 -0.003412326
0.029976957 -0.024853284 0.022454064 0.023648802 -0.0330316 -0.023659507 0.007820254 -0.028499901
-0.03269758 -0.008200357 -0.01690944 0.020463396 0.02221839 0.03228865 0.016468037 -0.026975611
-0.009161513 -0.013050097 0.032952826 -0.027976632 0.009195277 -0.037627112 -0.0071963347 0.020935405
0.0073534693 0.015184248 -0.0005604666 0.005100322 -0.02939519 -0.009350542 0.017252782 -0.026891947
-0.014276555 -0.023856647 -0.03268034 -0.005483869 0.023704955 0.017609753 0.024543788 -0.017466696
-0.0056904154 0.022320239 -0.01615602 2.6720916e-05 0.011497383 -0.0043822504 0.01550212 0.026265033
-0.03176362 -0.011873097 -0.023926072 0.0340171 0.01657701 -0.026888337 0.019347416 0.0017000348
0.034864906 -0.026374133 0.024631836 -0.022341274 -0.035755996 -0.029218167 -0.01568296 -0.026124794
0.015289928 -0.020224145 0.014614481 -0.03187503 -0.014811934 0.030084306 0.028646499 -0.035874568
-0.0013343939 0.024504958 -0.0034590426 -0.023861578 0.008901877 0.015050135 -0.0069369096 0.008584365
-0.014139244 0.026255293 0.003194654 -0.013878248 0.028857753 0.012787204 0.032341 -0.009298432
-0.037113607 -0.013443702 0.014293243 0.019763768 0.024332495 -0.021182466 0.023890242 0.011221863
-0.018694311 0.024733307 -0.005728082 -0.0017134727 -0.032595117 -0.012470792 0.027534693 -0.0054204846
0.024010524 -0.021336325 0.0011957041 -0.031379893 -0.027913142 0.017637003 -0.027985176 0.00083334185
0.030152835 -0.021225298 0.025188344 0.030123534 0.00026596172 0.026455853 -0.0029206146 0.008954254
0.0029281238 0.034541488 0.0020122153 -0.030055223 -0.024568288 -0.008394757 0.0054396237 0.0004340278
-0.018480487 -0.011552275 0.03340112 0.0079136705 0.017949296 0.009401305 0.027175115 0.021968719
-0.022144245 -0.012337238 0.009474963 0.018885132 -0.035618078 0.022881443 0.027065407 -0.025752284
-0.017421823 -0.01649998 -0.020606427 -0.03234664 0.007984698 -0.007111346 -0.008866776 0.022732265
-0.010795442 0.00051159586 0.006695778 -0.029364051 -0.014451482 0.028703628 0.016822796 0.030250775
-0.03129923 0.021383505 0.027894232 0.004772102 0.016260145 0.007842416 -0.01643611 0.022094946
0.00019425385 0.036051307 -0.016997775 0.011856874 -0.007541794 -0.0011921093 -0.009437991 -0.012536523
-0.028157754 -0.01963831 -0.001991844 0.032941256 0.012787936 0.0023341107 -0.010959785 0.0070874197
0.0037087956 0.004925418 -0.030203301 -0.023710018 0.008393572 0.014122538 0.027430588 0.027050182
-0.026347624 0.0034048492 0.029902466 0.013176718 -0.019196564 -0.019877605 -0.0029195268 -0.02347624
0.008241295 0.02411182 0.0111980215 -0.023220165 0.0002309813 0.017124543 0.0032998368 -0.014464862
0.0035956157 0.0007849341 0.026183704 -0.008811427 -0.0069121043 -0.034868658 0.027026447 -0.020319136
-0.0034017414 0.002389866 -0.030694194 0.0062778597 -0.0065222727 -0.03439575 0.025864072 -0.013764024
0.00586209 0.004888247 0.009255326 -0.0028774044 -0.013842036 0.027011724 -0.019962568 0.015045474

linear.bias f4 [128]
00000000: ead7 823b 9b50 e7bc ea7d 783c 69d4 b1bc
00000010: 3d7f 853b b035 dbbc f0e6 fcbc 4837 62bc
00000020: 8290 94bc cb33 c3bb 03f6 e23c 4f24 533c
00000030: 0e62 433c c8e0 8ebc 857e a23a f1c5 fc3c
00000040: 47ef 803c 16cb 053c 1458 00bd 3555 06bd
00000050: be84 513c 2b76 0b3c d397 bebc 3997 e5bc
00000060: 0be4 94bc 950c 563c dae8 d83c 1970 823c
00000070: 164f 553b d762 0a3d 95e0 28bc 7a86 ba3c
00000080: f441 8abc 0543 d8bb e68e 1eba 1b07 f83a
00000090: 0308 dbbc 2e84 343c c580 e839 bb93 c0bc
000000a0: 740f 8336 a0e0 8d3c a441 383c e8ba a13b
000000b0: 76de 183c f817 543c 3fb0 9abc 5130 cb3c
000000c0: 7f38 37bc 7da2 a53c 82e8 013d 25c1 aabc
000000d0: c2d4 db3c 16c5 cdbc 9616 13bc 0fe0 f0bc
000000e0: d7e5 cdbb 5175 10bd 4139 6d3c 049d a8ba
000000f0: 726d 32bc ad53 9f3c 1f33 09bd b7b6 09bd
00000100: 7f48 cf3c fc02 93bc 6ff6 adb8 8d61 cd39
00000110: adbd 2c3c f5a1 d8bc fc66 ccbc 847a c0bc
00000120: 815b 133d e97a 3bbb bc40 99bc 8521 f8bb
00000130: 1f7a 5abc d222 cb3c e6d3 903c a3ea 0d3d
00000140: 0cd7 fd3c ab8c 0d3d e61b 91bc 4cb0 3b3c
00000150: 67ba 8cb7 3314 b4bc b281 b13c 971e d73c
00000160: 7add 963c f905 10bd aeb7 82bc 39c2 df3c
00000170: d343 6b3c c043 4c3c d6a2 05bd 1b28 483c
00000180: 0568 053c bf11 cfbc aefd 063c 6528 62bb
00000190: 9b5d 0cbd 1874 3d3c 9f8e ecbc b998 ac3c
000001a0: ba9d b4bc 8380 e03b 34dd d23b 4e18 1d3c
000001b0: f486 d1bc 531c 093d 959e d7bc bf7f 89bb
000001c0: ce6d 7ebc fd8e 34bc 3bc5 f43b cdaa 913b
000001d0: d085 113d b9df e5bb f301 27b9 f836 5abb
000001e0: 723a 9fbb 556b e03c 0288 51bc e219 db3c
000001f0: b3e9 4abc c3c0 943c f9ba 9bbb 5f8d 573c
0.003993024 -0.028236678 0.015166739 -0.02170773 0.004074006 -0.026758999 -0.030871838 -0.013807125
-0.018135313 -0.005957102 0.027705198 0.012887075 0.0119252335 -0.017441168 0.0012397325 0.030856105
0.015739096 0.008166095 -0.031333998 -0.032796104 0.012787996 0.00851206 -0.023265755 -0.02802621
-0.018175146 0.013064523 0.02647822 0.015922593 0.003254836 0.033785667 -0.010307451 0.022769202
-0.016877152 -0.006599786 -0.0006048515 0.0018923016 -0.026737219 0.011017842 0.0004434643 -0.023507943
3.905903e-06 0.017319024 0.011246119 0.004935611 0.009330383 0.012945168 -0.018882869 0.024803312
-0.011182903 0.020219082 0.031715877 -0.020844052 0.02683485 -0.025118392 -0.008977553 -0.029403714
-0.0062835026 -0.03526813 0.014478982 -0.0012864177 -0.010890352 0.01944908 -0.03349602 -0.033621516
0.025303124 -0.017945759 -8.295185e-05 0.00039173328 0.010543269 -0.026444415 -0.02495145 -0.02349592
0.035975937 -0.0028607196 -0.018707626 -0.007572355 -0.01333478 0.024796877 0.017679166 0.034647595
0.030986331 0.03455798 -0.017713498 0.011455607 -1.67761e-05 -0.021982288 0.021668289 0.026259704
0.018416155 -0.035161946 -0.015956726 0.027314292 0.014359432 0.012467325 -0.032625996 0.012216593
0.008142476 -0.025277017 0.008239193 -0.003450894 -0.034268957 0.011563323 -0.0288766 0.021068918
-0.022047866 0.0068512573 0.006435061 0.009588314 -0.025577046 0.033474278 -0.026320735 -0.0041961367
-0.015529109 -0.011020419 0.0074698008 0.00444541 0.035528004 -0.007015195 -0.00015927087 -0.0033296924
-0.004859262 0.02739493 -0.012788774 0.02674574 -0.01238482 0.018158322 -0.0047525135 0.013156264
