src/TRAINED_MODEL_DIR/image_fragment_model_linear_fd_128_epoch_4.pth (torch, 396093 bytes, 2 tensors)

linear.weight f4 [128, 768]
00000000: 8ba8 033d 5ab0 8dbc 37d3 6a3c b199 e13c
00000010: 8b65 273c 034c cebb 4a79 f43c 8cb8 89bc
00000020: d385 09bd f167 89bc 7cab a13c a939 e9bb
00000030: 0b36 cdbc 4ff1 4cbc 8668 87bc f588 083d
00000040: 6df9 e93c cad2 ff3b 1890 22bc 9ac5 ee3b
00000050: 0018 613c 6a0c 0c3d 315d a7bc fb93 65bb
00000060: 44d0 f73c a732 c9bc 90ef b83c 79ee c43c
00000070: 1278 05bd b67b bfbc f78a 073c ed48 e5bc
00000080: f281 04bd a2ac fcbb b434 86bc 4d80 aa3c
00000090: 14dd b93c 8240 063d 8e4a 893c 58df d9bc
000000a0: 0ad0 0fbc 5f3c 53bc 1406 083d 1039 e3bc
000000b0: 3b2c 163c 0235 19bd 3269 e6bb b929 aa3c
000000c0: c7b7 f73b c149 793c fc74 5cba 0b4e ae3b
000000d0: 09fd efbc 37aa 1bbc fb17 8f3c 1b31 dbbc
000000e0: 7408 6bbc 6a82 c2bc 68b0 05bd 4b10 b8bb
000000f0: 35f8 c13c bd6b 8f3c d5f4 c63c 61c0 8fbc
00000100: 7480 bfbb 8b6f b43c a8ef 84bc 2901 dab8
00000110: a12d 383c 59cb 8ebb 9c06 7e3c 6f4d d63c
00000120: c244 01bd e9a7 3ebc cfd0 c2bc e3a3 0c3d
00000130: 120d 8b3c f5a6 d9bc 668d a13c 33a5 0d3b
00000140: aa63 103d cd8a d4bc 2fea cd3c d794 b3bc
00000150: fdd7 10bd 17a3 ebbc 1835 7bbc d8fe d3bc
00000160: ae5f 7f3c e752 a4bc 0ab9 703c 281a 02bd
00000170: b6bc 73bc 08e3 f63c 7f08 eb3c 80c2 13bd
00000180: ee35 91ba 7b23 c93c a879 70bb 5870 c1bc
00000190: 0ce8 133c 436b 753c 5386 dcbb e5b2 0e3c
000001a0: 56ff 67bc 2982 d73c 1c3b 503b 5479 65bc
000001b0: 5ca0 eb3c 5edc 4e3c 0671 033d a747 1abc
000001c0: e8bc 18bd 1262 60bc 183c 683c 5389 a03c
000001d0: 3c7d c53c 00cd adbc 0448 c33c cd5c 363c
000001e0: d4df 97bc a428 cc3c 025d b6bb f947 beba
000001f0: 5b17 04bd 6bd0 46bc e9dc e33c 4ceb a4bb
00000200: 3be3 c73c 5a5d acbc 2752 d13a 65c1 fdbc
00000210: 99fa e2bc 8ef0 923c 66e9 e2bc 5039 5a3a
00000220: 21b8 f73c 5b89 adbc b8cf cc3c 12ce f53c
00000230: 4eb7 5638 d949 d73c 2f43 49bb 695a 0d3c
00000240: 1c06 503b 01c2 0d3d 778e f43a 75f5 f3bc
00000250: 0a08 c8bc 3a90 09bc 233d b93b 82a8 123a
00000260: 7331 97bc 0ba1 3cbc 7ea7 083d 5bfb ff3b
00000270: e846 923c 8c66 173c 89fb dc3c 0f2d b33c
00000280: 7e9b b6bc a4f1 4cbc 8fc8 193c eead 993c
00000290: 0671 12bd 5721 bb3c da52 dd3c a846 d3bc
000002a0: 38c4 8dbc bbe7 85bc 8d5a a7bc f6b7 03bd
000002b0: 2168 073c 546f debb 71b8 0ebc ad8a bc3c
000002c0: ec23 2bbc 550e 213a 1357 e33b 4fef edbc
000002d0: bb4a 6dbc 35f4 eb3c 4220 8b3c 6ddb f53c
000002e0: f2ab 00bd 176c ae3c 7a4e e13c d0db 923b
000002f0: 3180 823c cc99 f53b 3514 89bc 6684 b13c
00000300: 40bf eb39 5700 143d 9f11 8cbc ffc0 463c
00000310: d314 f2bb 1a84 97ba 18e4 16bc 691d 4bbc
00000320: 2f18 e6bc 2933 a0bc baa1 02bb d4c8 063d
00000330: 1e1f 513c 1785 123b be4b 35bc 7151 e73b
00000340: 737a 6d3b 24ab 9e3b f69c f7bc 36c1 c2bc
00000350: 2ca3 083c 9dd7 663c 3758 e03c 257c dd3c
00000360: 8d84 d7bc 2d52 643b 200b f63c f203 593c
00000370: 58de 9bbc 06c7 a0bc 6351 3ebb 2cf0 bebc
00000380: 24ac 0b3c 1f10 c53c 7678 393c 2b1b bcbc
00000390: 2c66 6538 2442 8c3c d701 603b e0a1 72bc
000003a0: e0ab 5f3b 9dfa 313a 19ae d23c bbdc 15bc
000003b0: d05a edbb b08d 10bd 7981 da3c 5218 aabc
000003c0: 68c0 4fbb bd65 203b 5e53 fcbc 8b0e d53b
000003d0: 5e64 d2bb 32dc 0cbd 2c81 d53c decc 5fbc
000003e0: f9fb c13b bf32 a43b da2b 183c b427 3bbb
000003f0: 5aa6 61bc 6c2c dd3c 3486 a3bc 9c81 773c
0.032143157 -0.017296005 0.014332584 0.027539106 0.010217081 -0.0062956824 0.029842991 -0.016811632
-0.03357489 -0.016773196 0.01973509 -0.0071174693 -0.025050184 -0.012508704 -0.016529333 0.033333737
0.028561318 0.0078071104 -0.00992205 0.0072867395 0.013738632 0.034191526 -0.02043018 -0.003503083
0.030250676 -0.024560286 0.02257517 0.024039494 -0.03258521 -0.02337442 0.008272878 -0.027988875
-0.032350488 -0.007711009 -0.016382553 0.020813132 0.022688426 0.032776363 0.016759183 -0.026595756
-0.008777628 -0.012892812 0.03320892 -0.02773717 0.009165819 -0.037404068 -0.007031583 0.020771848
0.0075597498 0.015215338 -0.0008409766 0.005319362 -0.029295461 -0.009501032 0.01746749 -0.026756814
-0.014345277 -0.023743827 -0.032638937 -0.0056171766 0.023677925 0.017507428 0.024286667 -0.017547788
-0.00584417 0.022025844 -0.016227558 -0.00010395266 0.0112413475 -0.004357737 0.0155045055 0.02615997
-0.031559713 -0.011636713 -0.023781208 0.034335982 0.016974006 -0.02656887 0.019720744 0.002161336
0.035251297 -0.025945092 0.025136082 -0.021921558 -0.035362232 -0.02876429 -0.015332483 -0.025878355
0.015586777 -0.020059062 0.014692554 -0.031763226 -0.014876535 0.030137554 0.028690575 -0.03607416
-0.0011078694 0.024553051 -0.0036693607 -0.02361314 0.009027492 0.0149791865 -0.00672988 0.008709644
-0.014159998 0.026307182 0.0031773513 -0.014005978 0.028762989 0.012625782 0.03209021 -0.009416497
-0.03728953 -0.013695257 0.014174484 0.019596731 0.024107568 -0.021215916 0.02383805 0.011130524
-0.018539347 0.024921723 -0.0055652866 -0.0014517299 -0.032248836 -0.012134652 0.0278153 -0.0050329324
0.024400344 -0.021040607 0.0015969918 -0.030976007 -0.027707385 0.017936971 -0.027699184 0.000832458
0.030239167 -0.02118366 0.025001392 0.030005489 5.119229e-05 0.02628033 -0.003071021 0.0086275125
0.0031741923 0.034608845 0.001865818 -0.029780129 -0.024417896 -0.008396203 0.00565304 0.00055945676
-0.018456196 -0.011513005 0.033362858 0.0078119463 0.017856076 0.009240758 0.02697541 0.021872072
-0.022290941 -0.0125087835 0.009386196 0.018759694 -0.03575232 0.022843046 0.027017046 -0.025790527
-0.017305478 -0.01634585 -0.02042892 -0.03215786 0.008264572 -0.0067881737 -0.008710966 0.023015345
-0.010445576 0.0006143798 0.0069378703 -0.029044775 -0.014483149 0.02880297 0.016983155 0.030011857
-0.03141398 0.021291776 0.02750324 0.00448177 0.015930267 0.0074951407 -0.016733268 0.021669578
0.00044965185 0.036133137 -0.017098246 0.012130975 -0.0073877363 -0.0011559755 -0.009209655 -0.012397149
-0.028087704 -0.019555645 -0.0019932822 0.03290637 0.012763767 0.002235716 -0.011065422 0.007059269
0.0036236315 0.004842179 -0.030226212 -0.02377377 0.008339684 0.014089492 0.027385814 0.027036736
-0.026308322 0.003483902 0.030034602 0.01324557 -0.01902692 -0.019626152 -0.002904021 -0.023307882
0.008524928 0.024055539 0.011320224 -0.022962173 5.469301e-05 0.017121382 0.0034180784 -0.014809102
0.0034129545 0.00067893584 0.025717782 -0.0091468645 -0.0072434917 -0.035291374 0.026673065 -0.02076355
-0.0031700376 0.0024474703 -0.030801471 0.006501978 -0.006420656 -0.034389682 0.02606257 -0.013659684
0.00591993 0.005010932 0.009287799 -0.00285576 -0.013772571 0.026998721 -0.019961454 0.015106585

linear.bias f4 [128]
00000000: ead7 823b 9b50 e7bc ea7d 783c 69d4 b1bc
00000010: 3d7f 853b b035 dbbc f0e6 fcbc 4837 62bc
00000020: 8290 94bc cb33 c3bb 03f6 e23c 4f24 533c
00000030: 0e62 433c c8e0 8ebc 857e a23a f1c5 fc3c
00000040: 47ef 803c 16cb 053c 1458 00bd 3555 06bd
00000050: be84 513c 2b76 0b3c d397 bebc 3997 e5bc
00000060: 0be4 94bc 950c 563c dae8 d83c 1970 823c
00000070: 164f 553b d762 0a3d 95e0 28bc 7a86 ba3c
00000080: f441 8abc 0543 d8bb e68e 1eba 1b07 f83a
00000090: 0308 dbbc 2e84 343c c580 e839 bb93 c0bc
000000a0: 5b10 8336 a0e0 8d3c a441 383c e8ba a13b
000000b0: 76de 183c f817 543c 3fb0 9abc 5130 cb3c
000000c0: 7f38 37bc 7da2 a53c 82e8 013d 25c1 aabc
000000d0: c2d4 db3c 16c5 cdbc 9616 13bc 0fe0 f0bc
000000e0: d7e5 cdbb 5175 10bd 4139 6d3c 049d a8ba
000000f0: 726d 32bc ad53 9f3c 1f33 09bd b7b6 09bd
00000100: 7f48 cf3c fc02 93bc 71f6 adb8 8d61 cd39
00000110: adbd 2c3c f5a1 d8bc fc66 ccbc 847a c0bc
00000120: 815b 133d e97a 3bbb bc40 99bc 8521 f8bb
00000130: 1f7a 5abc d222 cb3c e6d3 903c a3ea 0d3d
00000140: 0cd7 fd3c ab8c 0d3d e61b 91bc 4cb0 3b3c
00000150: 56ba 8cb7 3314 b4bc b281 b13c 971e d73c
00000160: 7add 963c f905 10bd aeb7 82bc 39c2 df3c
00000170: d343 6b3c c043 4c3c d6a2 05bd 1b28 483c
00000180: 0568 053c bf11 cfbc aefd 063c 6528 62bb
00000190: 9b5d 0cbd 1874 3d3c 9f8e ecbc b998 ac3c
000001a0: ba9d b4bc 8380 e03b 34dd d23b 4e18 1d3c
000001b0: f486 d1bc 531c 093d 959e d7bc bf7f 89bb
000001c0: ce6d 7ebc fd8e 34bc 3bc5 f43b cdaa 913b
000001d0: d085 113d b9df e5bb f201 27b9 f836 5abb
000001e0: 723a 9fbb 556b e03c 0288 51bc e219 db3c
000001f0: b3e9 4abc c3c0 943c f9ba 9bbb 5f8d 573c
0.003993024 -0.028236678 0.015166739 -0.02170773 0.004074006 -0.026758999 -0.030871838 -0.013807125
-0.018135313 -0.005957102 0.027705198 0.012887075 0.0119252335 -0.017441168 0.0012397325 0.030856105
0.015739096 0.008166095 -0.031333998 -0.032796104 0.012787996 0.00851206 -0.023265755 -0.02802621
-0.018175146 0.013064523 0.02647822 0.015922593 0.003254836 0.033785667 -0.010307451 0.022769202
-0.016877152 -0.006599786 -0.0006048515 0.0018923016 -0.026737219 0.011017842 0.0004434643 -0.023507943
3.9060083e-06 0.017319024 0.011246119 0.004935611 0.009330383 0.012945168 -0.018882869 0.024803312
-0.011182903 0.020219082 0.031715877 -0.020844052 0.02683485 -0.025118392 -0.008977553 -0.029403714
-0.0062835026 -0.03526813 0.014478982 -0.0012864177 -0.010890352 0.01944908 -0.03349602 -0.033621516
0.025303124 -0.017945759 -8.295186e-05 0.00039173328 0.010543269 -0.026444415 -0.02495145 -0.02349592
0.035975937 -0.0028607196 -0.018707626 -0.007572355 -0.01333478 0.024796877 0.017679166 0.034647595
0.030986331 0.03455798 -0.017713498 0.011455607 -1.677607e-05 -0.021982288 0.021668289 0.026259704
0.018416155 -0.035161946 -0.015956726 0.027314292 0.014359432 0.012467325 -0.032625996 0.012216593
0.008142476 -0.025277017 0.008239193 -0.003450894 -0.034268957 0.011563323 -0.0288766 0.021068918
-0.022047866 0.0068512573 0.006435061 0.009588314 -0.025577046 0.033474278 -0.026320735 -0.0041961367
-0.015529109 -0.011020419 0.0074698008 0.00444541 0.035528004 -0.007015195 -0.00015927086 -0.0033296924
-0.004859262 0.02739493 -0.012788774 0.02674574 -0.01238482 0.018158322 -0.0047525135 0.013156264
