src/TRAINED_MODEL_DIR/image_fragment_model_linear_fd_64_epoch_2.pth (torch, 199221 bytes, 2 tensors)

linear.weight f4 [64, 768]
00000000: 7727 b8bc 0c90 073d aa36 9bbc 14f8 a7bc
00000010: 9aed d8bc accd 95bc 9f86 de3b cabb 243c
00000020: 0a1e a13c 459d d7bb 1fd5 f2bc cb0a 30bc
00000030: 171e 9e3b d4e1 4fbc 22d6 f2bc 3083 523c
00000040: 1bae 653c 81ac 0b3c f466 0bbd 727e 813c
00000050: a6a4 5bbc b092 f4bc 7e74 46bc ce63 9d3c
00000060: 6fd0 07bd ca0b adbc 8a0f dbbc 4a63 90bc
00000070: 5b0c 54bc c8a2 703b 67c7 013d 4f4b d7bc
00000080: 43c9 43bc f2e4 d63c 22c4 cc3c 0102 cebb
00000090: 3364 0cbd e5c2 163d 8bdc 16bc dd8c 873c
000000a0: a8b6 ec3c 7110 bfbc 56ad ffbc 5c3d 1bbc
000000b0: cb16 e03c 7a73 b83c 64eb d0bc 57b4 a13c
000000c0: 4d4f b53c e082 acbc 7b4a 73bc a5a8 10bd
000000d0: 1510 4cbc ad39 dbbc f9e4 63bc a694 01bc
000000e0: ee08 c53c 575f 6dbc b5c6 43bc b2c7 aebc
000000f0: 52ee 62bc 6e70 a4bc 23c0 3fbc 8cd0 f83c
00000100: fa21 183c 80ec 29bc bc95 113d 3c31 0d3d
00000110: c425 13bb eea2 033b 8f8a 123d 8060 2b3b
00000120: e7c1 213b dac5 153d 1a2b 45bc e04e d7bc
00000130: f87d 09bd 9cab d3bc 8e5b c93c 230c e63a
00000140: 6685 cd3c 4404 04bd 0f38 21bc e523 55bc
00000150: 87f9 8b3c a0e8 39bb aaef 173c 8293 0e3d
00000160: c2d4 e33b 24dd 8dbc 9bc1 14bc 8039 133d
00000170: ab4c 30bc 80bb f43c 29f9 ae3c 6be5 6a3c
00000180: 79f6 94bc 8620 cc3c a4af d2bc fa20 ff3c
00000190: 67da 90bc 4aee 0e3d 5df3 043d 16c2 c3bc
000001a0: 23ca b03b 43ad 093d 6fd1 063d ec74 c0bb
000001b0: 0f8b d7bc 367f 89bc 7c9c cabb 10e6 36bc
000001c0: 4d0b d9bc bca7 6fbc 038b ad3c 60d0 61bc
000001d0: 2c9c 2f3c f08a d5bc e85d 0c3d 5e1e cf3c
000001e0: 30e5 c13c 7efd 913c 13a0 393c c7ed e93c
000001f0: 3885 193d 6666 093d b239 ef3c 1f82 87bc
00000200: 504a 8c3c 168e e3bc 77d8 7fbb 3ded 9a3b
00000210: fcda c73c 728a 3ebb 3fcd a23c 9af8 b5bc
00000220: 4643 303c a154 bbbc 340d 20bc 7379 8dbc
00000230: bbb4 4a3c f4ab a5bc d595 893c e1a3 f7bc
00000240: a5a3 13bb dd8a 0cbc 6fec d73c 8524 2f3c
00000250: 0b08 aebc bcf2 f43c a8fc 053a 327d c23c
00000260: 6891 df3c cb6c 1bbc ac4f e2bb f61c 3e3c
00000270: 8655 743c 3959 e73c 7fb6 103b 022a f8bc
00000280: 4eae 983c 5749 02bc 81d0 0a3d fcac bd3c
00000290: 5489 64bc c4ce 09bd d36a f3b9 ad24 23bc
000002a0: e804 a63c 46ac 0abc 916c b9bc 5247 07bd
000002b0: c957 03bd 29fd 05bd 7ae1 543c 25a4 233c
000002c0: ffc0 9ebc 88b8 9b3c eff0 a9bc 509c 24bc
000002d0: 205f 89bb 4e22 4d3b 7ddf 99bc b912 77bc
000002e0: 7530 b53c afb2 62bc 63c0 f4bc a7a0 00bd
000002f0: f743 053d 2956 cdbc c2b0 073d 8fff babc
00000300: e96b 01bd 5c8e d83c 649e a23b 80c6 92bc
00000310: 7168 83bc 2303 57bc fdbc a2bb 09a4 a53c
00000320: 4775 aeb8 e474 9fbc 6555 2ebc aebf a3bc
00000330: 4e2c 10bd 87d1 a93c d417 c7bb 4b18 f239
00000340: 28bf 98bc f3d5 4d3c dfb2 a0bc 1a9e 06bd
00000350: 8090 75bc d8d5 b7bc 153d 993c e1c5 babc
00000360: cd88 a3bc b986 083d a12a 07bd 9383 ec3c
00000370: 7855 3d3b 6c37 c6ba 80ec 973b 54f7 ef3c
00000380: e93e 993c 7210 f03c 87da 79ba 8a50 b9bc
00000390: 1ed2 20bb 7cb1 59bc 85aa 4a3c 68a5 6dbc
000003a0: b152 13bc 9a24 f0bc 56eb 073c 511b 06bc
000003b0: 3adf 3cbc 9e3d 003b 5a1d 66bc 7889 f1bc
000003c0: 5771 263c 6e72 9f3c fc8d 8ebc 1ef4 d7bc
000003d0: cf5b 1d3c 5cd1 c43c c880 aebc ba6f 0d3d
000003e0: 7c2f 4f3c f33b aebc 1878 acbc 8124 cb3c
000003f0: 3098 e63c 473a 0ebc 1844 9b3c f9f1 c23b
-0.022479756 0.03309636 -0.018946964 -0.020504035 -0.026480485 -0.018286549 0.0067909504 0.010054538
0.019667644 -0.0065800273 -0.02964264 -0.010744761 0.0048253643 -0.012688119 -0.029643122 0.01284866
0.014018561 0.008525015 -0.03403373 0.015807364 -0.013405954 -0.029855102 -0.012112735 0.01921263
-0.033157762 -0.021123786 -0.026740808 -0.01762547 -0.012942399 0.003671812 0.031684306 -0.026281027
-0.01194984 0.026232217 0.024995867 -0.00628686 -0.034275245 0.03680696 -0.009207855 0.016546661
0.028895691 -0.02332327 -0.031210583 -0.009475078 0.027354619 0.022516001 -0.025502868 0.019739313
0.02213254 -0.0210585 -0.0148493005 -0.035317082 -0.012455006 -0.0267609 -0.013909572 -0.007908976
0.02405211 -0.014488063 -0.011949231 -0.021335457 -0.013850765 -0.020073142 -0.011703524 0.03037288
0.009285444 -0.010371327 0.03554319 0.03447078 -0.002245293 0.0020086127 0.03577667 0.0026150048
0.0024682225 0.03656564 -0.012034202 -0.026282728 -0.0335674 -0.025838666 0.02457979 0.0017551224
0.025088023 -0.03223063 -0.009840026 -0.013009046 0.017086757 -0.0028367415 0.009273449 0.034808643
0.006952853 -0.017317362 -0.009079362 0.03594351 -0.010760467 0.029874563 0.021359043 0.014336924
-0.018183934 0.024917852 -0.025718518 0.031143654 -0.017682267 0.03489522 0.03245865 -0.023896258
0.0053951903 0.0336125 0.032914575 -0.005873313 -0.026311425 -0.016784292 -0.006183205 -0.01116325
-0.026494646 -0.014627393 0.02118445 -0.013782591 0.010718387 -0.026067227 0.034269243 0.025283035
0.023668855 0.01782107 0.011329669 0.028555764 0.037480563 0.03354492 0.029202316 -0.016541539
0.017125279 -0.027777713 -0.0039038935 0.004727988 0.024396412 -0.002907422 0.01987326 -0.022213269
0.010758227 -0.022867503 -0.009768773 -0.017269826 0.012372191 -0.020223595 0.016795078 -0.03022951
-0.002252796 -0.008578029 0.026357858 0.010689859 -0.02124407 0.029900901 0.0005111196 0.023741338
0.027291015 -0.0094863875 -0.0069064703 0.0116035845 0.0149129685 0.028240787 0.0022081432 -0.030293468
0.018637802 -0.007952056 0.03389025 0.023153774 -0.013948757 -0.033644453 -0.00046428162 -0.009957475
0.020266011 -0.008463925 -0.022634776 -0.033027 -0.03206614 -0.032712135 0.012993211 0.009987866
-0.019379137 0.01900889 -0.020744769 -0.010047033 -0.004192248 0.0031300965 -0.018783325 -0.015080147
0.022117833 -0.013836547 -0.029876893 -0.03140321 0.03253552 -0.025065498 0.033127554 -0.022826938
-0.03159705 0.02643507 0.0049627293 -0.017916918 -0.016041012 -0.013123306 -0.004966377 0.02021982
-8.318811e-05 -0.019464917 -0.010640477 -0.019988861 -0.035198502 0.020729793 -0.0060758386 0.00046175937
-0.018645838 0.0125632165 -0.019616542 -0.03286562 -0.014988065 -0.022440836 0.018705884 -0.022799434
-0.019962693 0.033331607 -0.03299964 0.028871333 0.0028890055 -0.0015122718 0.0046363473 0.02929274
0.018706756 0.029304717 -0.00095311593 -0.022621412 -0.0024539302 -0.0132869445 0.012369757 -0.014504768
-0.008991883 -0.029314328 0.008295855 -0.008185224 -0.011527831 0.0019567977 -0.014045084 -0.029484496
0.010158858 0.019463744 -0.017401688 -0.026361521 0.009604408 0.024025612 -0.021301642 0.03453038
0.0126455985 -0.02126882 -0.021053359 0.02479768 0.02814874 -0.008680887 0.018953368 0.0059492555

linear.bias f4 [64]
00000000: e8ef 0b3d 57c7 273c 7cc6 503c a8df 9ebc
00000010: e482 743c c608 1d3c 8a06 e33c 98c8 f3bc
00000020: 9417 883c e5a1 8dbc e185 fb3c e96f f3bc
00000030: 5413 dcbc d51b c0bc 7e4d 803c 44b3 46bc
00000040: 5e0a a5bc 8df1 e93b 1c4b 16bc a71c cdbc
00000050: 7611 d33c 2749 593c e01a 57bc 75e5 84bc
00000060: 0f71 d53c 5d5a 3bbc 91c5 04bc 1c4a 9b3c
00000070: c7cc ad3b da90 bdbc d99c 70bc 49f4 283c
00000080: 7086 a1bc fe84 ea3c c041 df3c 700b d53c
00000090: ac5c bb3a fcbc 823c d896 f53c 228c 893c
000000a0: d80d a0bc 5eb0 eb3c a524 e53c 3016 b8bc
000000b0: 07a3 d4bc d045 873c d5bc 00bd e901 173c
000000c0: 8df5 9d3c cc06 93bb a863 8a3b 1d2a 913c
000000d0: e861 563c 1050 0bbc e270 d8ba e081 013d
000000e0: 198c 053d 0a84 ef3a f216 133d 7ca2 7a3c
000000f0: 04fd d73b 74df e4bb ac91 e53b 1ea9 fcbc
0.03416434 0.010240397 0.012742635 -0.019393757 0.014923785 0.009584611 0.027713079 -0.029758736
0.016612805 -0.017289111 0.030703487 -0.029716449 -0.026864685 -0.023450771 0.015661951 -0.012127701
-0.020146545 0.007139391 -0.009173181 -0.025038077 0.025765162 0.01326207 -0.013128966 -0.016222695
0.026054887 -0.0114351185 -0.008103744 0.018956237 0.0053039524 -0.02314036 -0.014685833 0.010312148
-0.019717425 0.028627869 0.027253032 0.02600643 0.0014294586 0.015959255 0.029979154 0.016790453
-0.019537851 0.028770622 0.027971575 -0.022471517 -0.025956644 0.016512781 -0.031430084 0.009216764
0.019282127 -0.0044868942 0.0042233057 0.017720276 0.013084866 -0.008502975 -0.0016513134 0.031618
0.03260431 0.0018273604 0.035910554 0.015297528 0.006591441 -0.0069846455 0.007005891 -0.03084236
