src/TRAINED_MODEL_DIR/image_fragment_model_linear_fd_128_epoch_1.pth (torch, 396093 bytes, 2 tensors)

linear.weight f4 [128, 768]
00000000: a960 013d e56e 8dbc 5933 7f3c e0b4 dc3c
00000010: 1dac 243c 9587 b1bb 1d29 ef3c eb67 8cbc
00000020: be1d 07bd 2de1 8cbc 2eaf a03c 83c0 d1bb
00000030: 0441 cdbc 97e7 47bc 80f5 7cbc 8c98 093d
00000040: 638b ee3c 8324 153c f486 20bc 9b7a fa3b
00000050: a676 723c 3798 0a3d c387 a9bc 14a6 4bbb
00000060: 1472 ef3c 2746 d2bc 34db b43c 392e b83c
00000070: 4ac1 0cbd 4671 c9bc 0caa d23b 5a68 f6bc
00000080: 1bc8 0abd d872 1ebc d1d3 97bc 87b5 9d3c
00000090: d2fb aa3c 4e83 fc3c dc0c 7d3c 176b e5bc
000000a0: 4582 28bc cc29 60bc 0d88 043d ba84 eabc
000000b0: f450 153c f8b0 1bbd cf57 f7bb 1932 ae3c
000000c0: e3b2 e53b 1d79 793c 5f2c 5b39 bc7d 983b
000000d0: 553a f2bc e5ef 11bc 18ab 893c 0c63 debc
000000e0: 7c6a 65bc 926e c4bc 7c9c 05bd 4e48 a2bb
000000f0: 5eca c43c bb75 943c 6aca d03c 575e 8bbc
00000100: 3d6d a5bb 6a66 bf3c 086b 81bc 928d 0c3a
00000110: b3bd 4a3c 5115 90bb bab1 7e3c 5f2f da3c
00000120: eea5 04bd e10d 4ebc 4576 c7bc e325 073d
00000130: b187 7b3c 6462 e4bc 988f 943c 8baa 8039
00000140: 7cb9 093d 3e2f e3bc 07cc bc3c c732 c2bc
00000150: 3460 17bd 50da fabc 83f1 89bc 10ad dbbc
00000160: 541c 6c3c 307c aabc 3eab 6d3c 88a5 03bd
00000170: 92f0 70bc 0252 f73c dff7 ea3c d4be 10bd
00000180: 9f27 e9ba 8772 c83c 6c93 3bbb 3207 c8bc
00000190: b4a3 0d3c c7eb 7a3c 83f4 f1bb 12dd 083c
000001a0: 237f 64bc 9763 d73c a480 603b 7ddd 59bc
000001b0: 7478 f03c 87b6 5c3c 5983 083d 0e73 0fbc
000001c0: 5d1f 15bd ef34 4cbc 0fea 713c c1e0 a63c
000001d0: 8131 ce3c 0671 acbc 0e48 c53c a008 3e3c
000001e0: 0520 9dbc 0306 c63c aa57 c9bb b017 28bb
000001f0: b7d9 09bd 5825 5cbc 9eeb d93c 0448 d9bb
00000200: 292d bb3c 96be b6bc e5d4 89b8 fe91 05bd
00000210: ff02 eabc ede1 883c 216f ecbc 28d7 643a
00000220: 4728 f53c 30eb aebc f0dd d33c 4765 fa3c
00000230: a9e7 6c3a 9918 df3c 67c0 15bb c4e6 223c
00000240: 8bde 1a3b 4de3 0c3d b79c 1e3b 2bd4 fbbc
00000250: 864d ccbc da68 08bc 3b40 a13b e2c9 2539
00000260: 5bdb 96bc e602 3dbc 13cc 093d fae1 093c
00000270: bab4 963c 8f9a 243c fd95 e53c 51cb b73c
00000280: 8c55 b0bc ce33 3dbc 18b3 213c ebe0 9e3c
00000290: be46 0fbd fce0 bc3c bf88 df3c 957b d0bc
000002a0: 2d69 91bc 117f 8abc f4cd abbc 7fe2 06bd
000002b0: 0960 eb3b 2200 02bc c8da 19bc 5b51 b33c
000002c0: 323c 40bc e6be 1539 a178 c33b c5a5 f7bc
000002d0: b375 6bbc dae6 e83c 449d 863c 0b0a fe3c
000002e0: 7900 fdbc bf2b b23c c603 ef3c 4da3 bc3b
000002f0: 43da 8d3c 0352 153c b292 7bbc bfe9 bf3c
00000300: d755 fdb9 e79a 123d 5152 89bc 2ac0 353c
00000310: a2ec 02bc 0b02 a6ba 2aff 24bc ab95 53bc
00000320: dc6f e7bc f664 a2bc 38cb fcba 0b0a 083d
00000330: 5476 543c 0751 333b 578e 2abc 4124 f03b
00000340: b233 873b aa09 b33b 53a9 f5bc b263 bfbc
00000350: 6ccf 103c 3d9b 6a3c 5fc6 e23c cafe df3c
00000360: a64f d8bc d14c 563b deaa f33c ee2a 553c
00000370: 8c87 a0bc 6800 a7bc 2324 42bb f2b3 c3bc
00000380: 42cd f93b a1dc c63c 6ad7 323c 85bc c2bc
00000390: a678 503a d941 8d3c 6e55 4f3b a2c2 5abc
000003a0: 0954 8c3b 8aae aa3a c9f7 e23c dca9 fabb
000003b0: 7230 bdbb 7ab1 08bd d5cb e73c baa2 9abc
000003c0: 488b 86bb 77a9 0a3b 34df f9bc a32e b63b
000003d0: 3274 e2bb 1319 0dbd cfab ce3c ef64 67bc
000003e0: 2f55 bc3b b3bc 933b 9ede 153c 468f 38bb
000003f0: 8646 65bc 7016 de3c 51d0 a1bc aab9 753c
0.031586323 -0.017264793 0.015576207 0.026941717 0.010050801 -0.005417774 0.029194409 -0.017139396
-0.03298735 -0.017197216 0.019614782 -0.006401123 -0.025055416 -0.012201211 -0.015439391 0.033592746
0.0291192 0.009102943 -0.0097978 0.0076440102 0.014798796 0.03383657 -0.020694619 -0.0031074332
0.029229201 -0.025668217 0.02207718 0.022482978 -0.034364022 -0.024590146 0.0064289626 -0.030079056
-0.03388224 -0.009670936 -0.01853362 0.019251598 0.02087203 0.03082433 0.01544496 -0.028005166
-0.010284965 -0.01368184 0.03235631 -0.028627742 0.009113539 -0.038010567 -0.0075483094 0.021264123
0.0070098503 0.01522663 0.00020901997 0.0046536606 -0.02956883 -0.008907293 0.016805217 -0.027146839
-0.014002439 -0.023978505 -0.03261994 -0.004952467 0.024022277 0.018122545 0.025487144 -0.017012758
-0.0050484226 0.023364265 -0.015798107 0.0005361672 0.012374329 -0.0043970724 0.015545303 0.026633916
-0.032384805 -0.012576551 -0.024348387 0.032995116 0.015352176 -0.027878948 0.018134877 0.00024541127
0.033624157 -0.027732488 0.023046507 -0.023705853 -0.03695698 -0.030621678 -0.016838795 -0.026815921
0.014411051 -0.02081117 0.014506159 -0.032140285 -0.014705794 0.030190472 0.028682647 -0.035338238
-0.0017788297 0.024468673 -0.0028621806 -0.024417493 0.008644987 0.015315003 -0.0073838844 0.0083534885
-0.013946327 0.026292605 0.0034256363 -0.013297436 0.029354312 0.013471252 0.033328388 -0.0087554585
-0.036406863 -0.012463792 0.014765277 0.020370843 0.02517009 -0.021049988 0.02408221 0.011598736
-0.019180307 0.024172788 -0.0061444836 -0.0025648884 -0.033654895 -0.013436638 0.026601609 -0.0066308994
0.022848682 -0.022307675 -6.572324e-05 -0.032609932 -0.028565882 0.016709292 -0.028861584 0.00087295705
0.029926432 -0.02135238 0.025862664 0.03056587 0.00090372056 0.027233409 -0.0022850276 0.009942714
0.002363118 0.03439646 0.0024202296 -0.030740818 -0.02493931 -0.00832578 0.004920987 0.00015810833
-0.018415144 -0.011536336 0.033641886 0.008415693 0.018396724 0.010046615 0.028025622 0.022435816
-0.021525167 -0.011547996 0.009869359 0.019394359 -0.034979574 0.0230565 0.027286885 -0.025449554
-0.017750347 -0.016906293 -0.02097223 -0.032930847 0.007183079 -0.007934602 -0.00939054 0.02188938
-0.011733102 0.00014280863 0.005965308 -0.030230412 -0.014371323 0.028430391 0.016432412 0.031010648
-0.030884014 0.021749375 0.029176604 0.0057567717 0.01731599 0.009113791 -0.015354799 0.023426889
-0.00048319876 0.035792258 -0.016762884 0.011093179 -0.007990988 -0.0012665404 -0.0100706015 -0.012914102
-0.02825158 -0.019823533 -0.0019286638 0.033212703 0.012967665 0.0027361528 -0.010409913 0.0073285406
0.0041260356 0.0054637985 -0.029987967 -0.023362968 0.008838516 0.014319238 0.027682481 0.027343173
-0.026405167 0.0032699595 0.029744562 0.0130107235 -0.019595884 -0.020385936 -0.002962359 -0.023889516
0.0076233456 0.024275126 0.0109156165 -0.023771534 0.00079525483 0.017243313 0.0031636613 -0.013352068
0.0042824787 0.0013021987 0.027706044 -0.0076496433 -0.0057735974 -0.03337238 0.028295437 -0.018876422
-0.004105959 0.0021158138 -0.03050194 0.0055597587 -0.006910824 -0.03444774 0.02522841 -0.014123186
0.0057474594 0.0045085787 0.009147314 -0.002816157 -0.013993865 0.027110308 -0.019752653 0.014997879

linear.bias f4 [128]
00000000: ead7 823b 9b50 e7bc ea7d 783c 69d4 b1bc
00000010: 3d7f 853b b035 dbbc f0e6 fcbc 4837 62bc
00000020: 8290 94bc cb33 c3bb 03f6 e23c 4f24 533c
00000030: 0e62 433c c8e0 8ebc 857e a23a f1c5 fc3c
00000040: 47ef 803c 16cb 053c 1458 00bd 3555 06bd
00000050: be84 513c 2b76 0b3c d397 bebc 3997 e5bc
00000060: 0be4 94bc 950c 563c dae8 d83c 1970 823c
00000070: 164f 553b d762 0a3d 95e0 28bc 7a86 ba3c
00000080: f441 8abc 0543 d8bb e68e 1eba 1b07 f83a
00000090: 0308 dbbc 2e84 343c c580 e839 bb93 c0bc
000000a0: cf0e 8336 a0e0 8d3c a441 383c e8ba a13b
000000b0: 76de 183c f817 543c 3fb0 9abc 5130 cb3c
000000c0: 7f38 37bc 7da2 a53c 82e8 013d 25c1 aabc
000000d0: c2d4 db3c 16c5 cdbc 9616 13bc 0fe0 f0bc
000000e0: d7e5 cdbb 5175 10bd 4139 6d3c 049d a8ba
000000f0: 726d 32bc ad53 9f3c 1f33 09bd b7b6 09bd
00000100: 7f48 cf3c fc02 93bc 77f6 adb8 8e61 cd39
00000110: adbd 2c3c f5a1 d8bc fc66 ccbc 847a c0bc
00000120: 815b 133d e97a 3bbb bc40 99bc 8521 f8bb
00000130: 1f7a 5abc d222 cb3c e6d3 903c a3ea 0d3d
00000140: 0cd7 fd3c ab8c 0d3d e61b 91bc 4cb0 3b3c
00000150: 90ba 8cb7 3314 b4bc b281 b13c 971e d73c
00000160: 7add 963c f905 10bd aeb7 82bc 39c2 df3c
00000170: d343 6b3c c043 4c3c d6a2 05bd 1b28 483c
00000180: 0568 053c bf11 cfbc aefd 063c 6528 62bb
00000190: 9b5d 0cbd 1874 3d3c 9f8e ecbc b998 ac3c
000001a0: ba9d b4bc 8380 e03b 34dd d23b 4e18 1d3c
000001b0: f486 d1bc 531c 093d 959e d7bc bf7f 89bb
000001c0: ce6d 7ebc fd8e 34bc 3bc5 f43b cdaa 913b
000001d0: d085 113d b9df e5bb f201 27b9 f836 5abb
000001e0: 723a 9fbb 556b e03c 0288 51bc e219 db3c
000001f0: b3e9 4abc c3c0 943c f9ba 9bbb 5f8d 573c
0.003993024 -0.028236678 0.015166739 -0.02170773 0.004074006 -0.026758999 -0.030871838 -0.013807125
-0.018135313 -0.005957102 0.027705198 0.012887075 0.0119252335 -0.017441168 0.0012397325 0.030856105
0.015739096 0.008166095 -0.031333998 -0.032796104 0.012787996 0.00851206 -0.023265755 -0.02802621
-0.018175146 0.013064523 0.02647822 0.015922593 0.003254836 0.033785667 -0.010307451 0.022769202
-0.016877152 -0.006599786 -0.0006048515 0.0018923016 -0.026737219 0.011017842 0.0004434643 -0.023507943
3.905828e-06 0.017319024 0.011246119 0.004935611 0.009330383 0.012945168 -0.018882869 0.024803312
-0.011182903 0.020219082 0.031715877 -0.020844052 0.02683485 -0.025118392 -0.008977553 -0.029403714
-0.0062835026 -0.03526813 0.014478982 -0.0012864177 -0.010890352 0.01944908 -0.03349602 -0.033621516
0.025303124 -0.017945759 -8.2951905e-05 0.0003917333 0.010543269 -0.026444415 -0.02495145 -0.02349592
0.035975937 -0.0028607196 -0.018707626 -0.007572355 -0.01333478 0.024796877 0.017679166 0.034647595
0.030986331 0.03455798 -0.017713498 0.011455607 -1.6776175e-05 -0.021982288 0.021668289 0.026259704
0.018416155 -0.035161946 -0.015956726 0.027314292 0.014359432 0.012467325 -0.032625996 0.012216593
0.008142476 -0.025277017 0.008239193 -0.003450894 -0.034268957 0.011563323 -0.0288766 0.021068918
-0.022047866 0.0068512573 0.006435061 0.009588314 -0.025577046 0.033474278 -0.026320735 -0.0041961367
-0.015529109 -0.011020419 0.0074698008 0.00444541 0.035528004 -0.007015195 -0.00015927086 -0.0033296924
-0.004859262 0.02739493 -0.012788774 0.02674574 -0.01238482 0.018158322 -0.0047525135 0.013156264
