src/TRAINED_MODEL_DIR/image_fragment_model_conv_fd_64_epoch_4.pth (torch, 432285 bytes, 4 tensors)

conv1.weight f4 [64, 3, 5, 5]
000000 b8 6c b7 3d 7f e5 b2 bd 2b f5 e9 3d 64 49 c2 3d
       0.08956283 -0.08735179 0.11423715 0.094866544
000010 46 42 15 3d 3c e7 a3 bd cc 6b 31 ba 01 4e 86 bd
       0.036440156 -0.08003089 -0.0006768077 -0.06557847
000020 2a 1e c7 bd b6 ce 70 3d 43 54 eb bc d7 9f 8a bc
       -0.0972255 0.058790885 -0.028726703 -0.01692192
000030 58 7c e0 3d a0 e4 c2 3d b7 7d 89 3d b2 46 d0 bd
       0.10961217 0.09516263 0.06713431 -0.10169734
000040 75 6c d0 bd f3 44 92 bd 5a 15 e3 3d 06 6e 1f 3d
       -0.101769365 -0.07142057 0.11088057 0.038923286
000050 3a 93 4a bd 55 b8 d1 bc 51 f8 ac bd fc 7b 4d bd
       -0.049456812 -0.025600592 -0.084458 -0.05016707
000060 c5 7f 4b bd 01 fd 8c 3d 49 a6 ac b9 15 be 89 3c
       -0.049682397 0.06884194 -0.0003293029 0.016814271
000070 3d 4c b4 3d b0 da bc 3d 05 1d b2 3d 82 c7 9d bc
       0.08803604 0.09221399 0.08696941 -0.019260172
000080 ee ed 86 3b 01 2c 89 bd b6 3d 3d 3c 92 2c 6b 3d
       0.004117719 -0.06697846 0.011550358 0.057415552
000090 14 d7 a6 bd c2 09 90 bb 5b ff 7a bd d0 6c 45 bd
       -0.08146492 -0.0043956945 -0.061278682 -0.048199475
0000a0 01 63 00 3d 29 27 d4 3d 40 ec 84 3d aa 12 37 bd
       0.031344417 0.10359032 0.064903736 -0.044695534
0000b0 a2 01 bf 3c 8f 30 14 bd db 2b 9c 3d 92 0d 4e bd
       0.023316208 -0.03617912 0.07625552 -0.05030591
0000c0 63 77 7a 3d 0d f2 ac 3d 97 c7 1a 3d 09 23 b1 bd
       0.061149012 0.08444605 0.037788 -0.086492606
0000d0 f0 44 43 3c c0 e7 a9 3c 13 c1 5e 3d 81 f8 5d 3d
       0.011918291 0.02074039 0.05438335 0.05419207
0000e0 14 1f d0 bd 6f dc 09 3d f3 16 79 bd b3 f9 c4 3d
       -0.10162178 0.033657487 -0.0608129 0.09617939
0000f0 b1 32 7c bd 3a ca 0d bd 8f d0 24 3d 4e 1f bd bc
       -0.06157178 -0.034616686 0.04023796 -0.023086216
000100 dc 03 33 3b 17 5e 12 3d 1d 62 0a bc 85 dd 65 bd
       0.0027315533 0.035734262 -0.008446244 -0.05611946
000110 cd f8 41 bd bc 6b 83 3d 06 dd 0e bc 6b f8 83 bb
       -0.047356416 0.06417033 -0.008719688 -0.0040274165
000120 25 04 dc bd ce 96 16 bd a3 8c 20 3c ee fc 45 3d
       -0.10742978 -0.036764912 0.009799155 0.048336916
000130 6f b3 90 3d c7 93 07 3d a8 b6 3b bd 4d 1d a7 bd
       0.07065474 0.033099916 -0.04582849 -0.081598856
000140 32 fc 82 3d 5b 86 0b bd 9c dd b9 3d 6d 34 3f 3d
       0.06395759 -0.03406368 0.09075472 0.046680856
000150 47 a3 ba bd 4b c5 a4 bd 37 6d e8 bd 3f 99 ce 3d
       -0.09113174 -0.08045443 -0.11348956 0.10087823
000160 db 88 c2 bc 08 bb cf bd 2c 69 9a 3d 68 b7 af bd
       -0.023746898 -0.10143095 0.07539591 -0.08579904
000170 48 49 e5 3d 01 8d de 3d 8d 47 79 bc 8d dc e6 bd
       0.11195618 0.10866738 -0.015214813 -0.112725355
000180 ab 17 ad bd 83 65 8f bd 1e 5f 9f 3d 81 1f 30 3d
       -0.0845178 -0.07001784 0.07781814 0.042998794
000190 cf d6 9f 3c d7 62 ec bd da 9a b4 3a 57 76 7e 3b
       0.019511608 -0.1154229 0.001377906 0.003882786
0001a0 7e 48 d7 3d cb f7 91 bd 05 ad a4 bd 43 57 8d bd
       0.10511874 -0.07127341 -0.08040813 -0.069014095
0001b0 27 b4 34 bd 78 bd 60 3d 11 f3 93 bc f7 f0 e9 3d
       -0.04411712 0.05486819 -0.018060239 0.114229135
0001c0 6c d3 b6 3d 35 3d 88 bd 16 55 5b 3c 45 5a f8 3c
       0.08927044 -0.06652299 0.013386985 0.030316481
0001d0 b7 9d 51 bd d2 e7 f5 3b 28 15 5b bc c4 b6 57 bd
       -0.0511758 0.007504442 -0.013371743 -0.052664533
0001e0 01 39 5f bc 01 46 88 bc 4b e8 aa bd 18 ba 00 bd
       -0.013624431 -0.016634943 -0.083450876 -0.031427473
0001f0 e7 7e 8e 3c 69 9b 9b 3d e0 ac c8 3d 4f f1 1a 3d
       0.017394496 0.075980015 0.09798598 0.037827786
000200 51 df 7a 3b a4 5a 8c 3d f1 c6 db 3d 7a 29 e3 bd
       0.003828008 0.06853226 0.107313044 -0.110918954
000210 e8 3f de 3b 81 d7 3e bc 46 dd d7 bd 35 58 b6 bd
       0.0067825206 -0.01164806 -0.105402514 -0.08903543
000220 1a d7 eb bd 48 87 8b bb ba 87 8e bd 98 bb a7 3c
       -0.11515637 -0.00425807 -0.069594815 0.020475194
000230 13 6f 2a bd 2a e7 af bd 90 9e 46 bd 27 f2 63 bd
       -0.041609835 -0.08589013 -0.04849106 -0.055650856
000240 81 9e 77 3d a4 1a d7 bd 34 6d 9b bd 1f 6d 52 3d
       0.060453895 -0.10503128 -0.07589188 0.051373597
000250 e6 74 77 3d fa c1 bc bd 09 7d 05 3d 75 57 30 3d
       0.060414217 -0.092166856 0.032589946 0.043052156
000260 45 cb 94 3c f5 f1 db 3d 2f 1c e2 3c be 50 d8 bd
       0.018163333 0.10739509 0.02760133 -0.10562275
000270 e7 e1 82 bd 4e d9 42 bd f9 a2 15 3c db 19 35 bd
       -0.06390744 -0.04757052 0.009133094 -0.04421411
000280 ed 38 ae 3d c5 8e 11 3d 4d a4 5a 3d 99 6a ed 3c
       0.085069515 0.035536546 0.053379346 0.028981494
000290 65 a7 ab bd 1e 81 3f bb 23 89 ee 3d b6 84 70 bd
       -0.08381537 -0.0029221247 0.116472505 -0.058720313
0002a0 b7 94 1a bd 88 c8 ae 3d 87 13 cd 3b 12 c5 48 3d
       -0.03773948 0.08534342 0.0062584314 0.049016066
0002b0 78 71 bc ba 33 3a af 3d 7a ff 6a 3d 55 07 1a bc
       -0.0014377078 0.085560225 0.057372548 -0.009401162
0002c0 51 cc c8 bc 4d 57 e1 bd 75 a3 c6 3d 04 22 ad bd
       -0.024511488 -0.110029794 0.09699146 -0.084537536
0002d0 72 af fa 3c 25 d7 62 bd af 1a 17 3d 64 19 4f bd
       0.030601237 -0.05538096 0.03689068 -0.050561324
0002e0 52 30 bf 3d ee 96 8b 3d 5f 50 dc bd 60 2d 62 3c
       0.09335388 0.06815897 -0.10757517 0.013804764
0002f0 b1 26 ea 3d b8 45 48 3d d3 e6 aa 3d 36 10 56 bc
       0.11433161 0.048894614 0.083448075 -0.013065388
000300 b5 4d b8 3d 16 db 3e bd 62 0d c5 3d 1a c0 a0 3d
       0.089991964 -0.046595655 0.09621693 0.078491405
000310 b1 ef f5 3c fa c4 52 3d 3d 9d 90 3d b0 38 8d bd
       0.03002152 0.051457383 0.07061241 -0.06895578
000320 f9 0c 2a bd fe 49 d7 3d 07 d3 b1 3d f8 55 87 3c
       -0.041516278 0.1051216 0.086828284 0.016520485
000330 10 d9 ae bc 81 51 b4 bc 48 2e 31 3d d5 43 c2 bd
       -0.021343738 -0.02201152 0.043257028 -0.09485594
000340 24 e1 c1 bd 14 8c da bd e9 3b bb 3d 78 18 2e bd
       -0.0946677 -0.10671249 0.09142286 -0.042503804
000350 b2 fc e9 3d 98 5d 02 bd d4 e0 96 3c b5 9b ac 3d
       0.11425151 -0.03182754 0.018417753 0.08428136
000360 24 ca 95 3a 57 67 43 bd 35 24 1b bd 3f ca e2 3d
       0.001142804 -0.047705974 -0.037876327 0.11073732
000370 60 49 40 3d 49 d5 8c bd 50 d9 97 bc c2 ae d1 3d
       0.046944976 -0.068766184 -0.01853624 0.102384105
000380 dc 3b 8f bd 8c 6e 16 bd 62 81 ae 3c a5 48 9b 3c
       -0.06993839 -0.03672652 0.021301929 0.018955538
000390 a0 7b 31 bc 8c 86 31 3d 46 a0 80 bc ca 89 35 3b
       -0.010832697 0.043341205 -0.015701424 0.0027700537
0003a0 3a 35 c2 bc 20 f8 eb 3a 68 b3 9c 3d 1d 0d f6 3c
       -0.023707021 0.0018003024 0.076514065 0.03003555
0003b0 bc bb a2 bd 01 4d 91 bc 4d 3f df 3c b2 e4 ad bd
       -0.07945964 -0.017736914 0.027251864 -0.08490886
0003c0 7b 4a 63 3c da d8 b5 3d cd 8e 9b bd b5 ab 8c 3d
       0.013872738 0.08879252 -0.075955965 0.06868688
0003d0 0c c7 d3 3d 6b 3d 8b 3d 5f 5c c8 3d 9b 87 24 bd
       0.103406996 0.06798824 0.097832434 -0.040168386
0003e0 54 d3 45 3d b5 5b fa bb fa bd b6 bb 61 cf 40 3d
       0.04829724 -0.007640327 -0.005576846 0.047072772
0003f0 bb b3 b2 bd 7f 5c 18 3c c5 eb a8 bd 26 1d a1 bd
       -0.08725687 0.009299397 -0.082480945 -0.07866888

conv1.bias f4 [64]
000000 fa 28 d2 bc 14 41 aa bd a8 cd a4 3d ec d4 33 3d
       -0.025654305 -0.08313194 0.08047038 0.04390423
000010 39 3c 9c 39 3c 54 3a 3d 21 9e 01 bd 20 ce 96 3d
       0.00029799508 0.04549049 -0.031644944 0.07363534
000020 a9 dc 93 bd 1d 5e b6 3d c5 1b 03 bd 8b 4d 1b 3d
       -0.07219822 0.089046694 -0.032008905 0.037915748
000030 4a 9d 1a 3c 98 cf ea 3d a5 93 87 bb 44 f5 7e 3a
       0.009436915 0.114653766 -0.0041374736 0.00097258785
000040 e6 fa df 3d c8 81 67 3d 7e 66 50 bd 95 32 27 bd
       0.10936527 0.056520253 -0.050878994 -0.040819723
000050 54 41 bd 3b 96 ce d6 3d dc 0f 98 3d 60 9e af 3c
       0.00577561 0.10488622 0.074249 0.021437824
000060 2e 0b 77 3d 56 9a 1e bd cd 48 87 3d ac 63 b1 3a
       0.060313396 -0.038721405 0.066056825 0.0013533733
000070 64 eb a9 bd 9e b9 b9 bd 5e d4 bb 3d 79 06 99 3d
       -0.0829685 -0.09068607 0.09171365 0.07471938
000080 cc f9 27 3d 6e 21 9e bd b7 11 18 bc 8a 55 e0 bd
       0.04100971 -0.0772122 -0.009281567 -0.10953815
000090 b3 9b 4d 3d 12 ad 98 bb c2 3e bb 3c 77 96 5e bd
       0.050197314 -0.0046593035 0.022857074 -0.054342713
0000a0 d7 d8 6a bc 2f 59 08 3e 3c bb 19 bd 3d af b8 3d
       -0.014333925 0.13315271 -0.037532076 0.09017799
0000b0 a4 98 1b bd 23 1b f0 3d d1 a2 8f 3d df 88 c1 bd
       -0.037987366 0.11723926 0.07013477 -0.09449934
0000c0 60 ea 9f bd a6 6e 9c bd 74 b1 c8 3c 67 3c d6 3c
       -0.07808375 -0.07638292 0.024498679 0.026151849
0000d0 24 70 ca bd 69 20 e1 3d a5 af a9 3c 3a 01 c3 3d
       -0.098846704 0.1099251 0.020713637 0.09521718
0000e0 2d 57 02 bc 9f 1c 04 bd 29 c0 e5 3d fd 34 25 bd
       -0.007955355 -0.032253858 0.11218292 -0.040333737
0000f0 eb 57 cd 3d 58 4e 05 bd 77 22 3f bd 4d 83 ac 3c
       0.10026535 -0.032545418 -0.046663728 0.021058703

conv2.weight f4 [64, 64, 5, 5]
000000 7d ac b4 bc 96 31 b6 3c f3 a9 f4 3b a2 f8 35 3c
       -0.022054905 0.022240441 0.0074665486 0.011106642
000010 2b 8e a9 bc ec 21 b3 3b d8 b0 84 3c f1 eb c8 3c
       -0.020697674 0.0054666903 0.016197607 0.024526568
000020 e9 90 7f 3c 6b 1f cb 3c 49 93 1c 3c a9 54 7b bc
       0.015598514 0.024795255 0.0095566 -0.015340009
000030 c7 a4 23 bc 50 02 5e 3c 48 fa 70 3c 78 0f c9 bb
       -0.009988016 0.013550356 0.014708109 -0.006135877
000040 34 60 20 bc 1d ee be bc aa 85 92 bc 84 69 1a 3b
       -0.009788562 -0.0233069 -0.017886002 0.0023561427
000050 43 4a c6 bb b5 aa ab 3c 26 71 a3 bb 98 06 41 bc
       -0.006051333 0.020955423 -0.0049878536 -0.011781357
000060 31 80 0d 3b 98 86 89 3c 05 93 da ba 82 88 bb ba
       0.00215913 0.016787812 -0.0016675895 -0.001430765
000070 8c 89 74 3c 9b 8d 12 3b 44 b3 2e 3c fa 74 0e 3c
       0.014925372 0.0022362235 0.010662857 0.008694882
000080 f6 9d 8b 3c 0b 4e 9f 3c aa 89 ac bc 63 93 da 3a
       0.017043095 0.019446393 -0.021061737 0.0016676005
000090 16 b4 b5 3c c8 85 db bb 66 6d a9 bc 34 a4 9c bc
       0.022180598 -0.0066992976 -0.020682048 -0.019121267
0000a0 e6 ce 18 3c 61 be a8 3b fd eb 23 3b ce f7 be 3b
       0.009326672 0.005149648 0.0025012486 0.0058278805
0000b0 38 67 55 3c 0f 55 c4 bc 3e 14 9e 3b 4b 0c 45 bc
       0.013025098 -0.02396634 0.0048241904 -0.012026857
0000c0 57 23 c9 bb 6f 02 c4 3c 25 92 62 bb 2f ff 52 bc
       -0.006138246 0.023926942 -0.0034571972 -0.012878223
0000d0 8a f9 e8 3b c3 2b b5 bc f4 34 fd 3b 8a 56 9e bc
       0.0071098255 -0.022115594 0.00772726 -0.019328374
0000e0 75 07 a1 bc e1 98 a3 39 f3 67 69 bc 45 8e be 3c
       -0.019656876 0.00031203686 -0.014245975 0.023261199
0000f0 a5 6a 46 3c 20 bf 19 3c ee 60 c6 bc f8 62 8a 3c
       0.012110387 0.009383947 -0.024216142 0.016892895
000100 29 20 d5 bb d9 85 ad 3c 58 73 d5 bc 5b 7f f5 3a
       -0.006504078 0.021181988 -0.026055977 0.0018729971
000110 37 e6 39 3c 22 13 a0 3c b3 d0 13 bc 0d a9 20 3a
       0.011346391 0.019540373 -0.009021926 0.0006128706
000120 92 c2 e6 bb cf a7 d8 bc e2 38 6d bc 73 14 86 bc
       -0.0070422376 -0.026447205 -0.014478894 -0.016367173
000130 a1 55 87 bc de 23 28 3c e9 ad 24 3c 8c ec 64 bc
       -0.016520323 0.010262458 0.010051229 -0.013972413
000140 10 19 a8 bc f4 37 c0 3c be 53 7d bc 86 0a 74 3b
       -0.020519763 0.02346418 -0.01546186 0.0037237718
000150 90 b5 5f 3c c0 6a b7 3c 89 51 9b bb 8c a9 4a ba
       0.013654128 0.02238977 -0.0047399444 -0.0007730953
000160 5d 16 ac 3c 41 b3 9d bc 48 7d 10 3c 69 c2 bb 3c
       0.021006757 -0.019250514 0.008818932 0.02291985
000170 b2 f3 2b bc f1 d7 c6 3c e1 a5 81 bb 9a f7 b1 bc
       -0.010495113 0.02427289 -0.003956542 -0.021724511
000180 52 4c 1a bb 73 52 bd bc 40 87 89 3b 85 a6 29 3c
       -0.0023544026 -0.023110604 0.0041970313 0.010354643
000190 44 a0 33 3b 15 2c 95 bc 0c 1b 9e 3c 46 0e 7c bc
       0.0027408758 -0.018209497 0.019300006 -0.015384262
0001a0 fb ac 13 3c 09 90 c4 bc 5b 56 1d 3c 99 32 62 3c
       0.00901341 -0.023994463 0.009603108 0.013806009
0001b0 05 66 ff bb 01 97 d2 3c 63 2b 50 3c ff 5d ea 3b
       -0.007794144 0.02570677 0.012705657 0.0071523185
0001c0 b9 3c 35 3c 7e 41 4d 3c 89 79 8a bc 42 75 21 bc
       0.011061841 0.012527822 -0.016903656 -0.009854617
0001d0 5e d6 88 3a a8 9c 84 bb 54 12 42 3b ed 42 21 3c
       0.0010439863 -0.004046995 0.0029612975 0.0098426165
0001e0 9f 62 e3 bb 24 db 88 3c fc fa bc bc a7 7d a7 bb
       -0.006939247 0.016706057 -0.023068897 -0.0051114145
0001f0 93 2a 64 3c 66 f7 a6 3c 08 0a b9 3b 63 ac e7 bb
       0.013926166 0.02038164 0.005646948 -0.0070701106
000200 18 96 aa bc 4c 61 83 3c fb 6d 10 3c c2 d3 d1 bb
       -0.020823523 0.016037606 0.008815284 -0.0064034173
000210 5a 8c 06 3c af e7 6a 3c 5c d6 74 3c 32 29 25 3c
       0.008212173 0.014337464 0.014943685 0.0100806225
000220 c1 22 65 bb ea 16 cd bc 87 ae 85 3c 86 2a 97 bb
       -0.0034963342 -0.02503534 0.016318573 -0.0046132235
000230 b2 d4 0f bc 4b b4 ba 3c 45 6c cd bc af 5b 7f bb
       -0.008778738 0.022791049 -0.025076041 -0.003896456
000240 8c 3a 96 3c b5 fd df 3b 12 1e f7 3b 25 67 e6 3b
       0.018338464 0.006835664 0.0075414265 0.0070313388
000250 a1 46 8f bc 2d 82 3a bc c7 56 4d 3c 68 30 4d bb
       -0.017489733 -0.011383575 0.012532896 -0.003130937
000260 37 91 69 bb dd 72 77 bc be 99 f2 bb 16 b5 75 3c
       -0.0035639533 -0.015103069 -0.0074035814 0.0149967875
000270 49 0f a6 bb 16 b6 66 3c c9 56 d1 3c 40 70 ad bc
       -0.00506774 0.014081499 0.025554078 -0.021171689
000280 85 43 d5 b9 7a 4d 7c bc 28 1f b1 b9 56 59 b6 3c
       -0.00040676832 -0.015399331 -0.00033783284 0.022259396
000290 18 03 94 bc 26 8f 5e 3c 63 3e c0 bc 34 cb 3d bc
       -0.018067881 0.013583934 -0.023467248 -0.011584092
0002a0 7a aa 1e 3b 04 dd 76 3c d3 80 9a 3c ad 91 e7 3b
       0.0024210499 0.015067343 0.018860256 0.0070669265
0002b0 0c d3 5f bc 72 05 46 3c 07 00 8b bc 89 b2 c1 bc
       -0.013661157 0.012086259 -0.016967786 -0.023644703
0002c0 d3 18 83 bc 89 b6 6c bc 44 26 8d b9 d1 a1 b1 bc
       -0.016003048 -0.014447817 -0.00026922126 -0.021683605
0002d0 2a 95 da bb 75 f2 bf 3c c8 eb bb 3c c7 0f ae 3c
       -0.006670614 0.023431042 0.022939578 0.021247758
0002e0 85 47 6a bc 55 ad 9f 3c 46 61 80 3c 8a d2 cb 3b
       -0.014299278 0.01949183 0.015671384 0.0062201666
0002f0 40 64 9f 3c e1 bd 27 3c 1e 66 a9 bc d4 ed 3d bc
       0.019456983 0.010238142 -0.020678576 -0.011592347
000300 68 35 86 3c ce 0b 90 bc a4 f0 ed 3b 0b d5 3e bc
       0.016382888 -0.017583754 0.0072613526 -0.011647473
000310 15 30 8b 3c 5b 64 9b bb 00 aa 04 3c c3 a5 5f bc
       0.0169907 -0.004742188 0.008097172 -0.0136503605
000320 9c 2a 92 bc bd e9 ac bc 7f 66 b8 bc 5a 05 88 3c
       -0.017842583 -0.021107549 -0.022509811 0.016604114
000330 23 59 0f bc 1c 3d 8d bc 41 15 95 3c e1 15 95 bc
       -0.008749279 -0.017241053 0.018198611 -0.01819891
000340 05 37 d4 3c 55 27 87 3c 1c 17 a6 3c f4 6b 6b bc
       0.025905142 0.016498247 0.020274691 -0.014369
000350 50 99 e6 3b e4 32 9e bb ba 87 ad 3c 39 d5 6d 3c
       0.0070373192 -0.004827844 0.021182884 0.014516168
000360 d8 44 89 bc 24 3d ff 3b 4c 07 c3 3b 86 b4 dc 3b
       -0.01675646 0.007789271 0.0059517976 0.0067353873
000370 59 14 d1 3b 15 ff 7a 3b b4 18 b4 3c c9 3c 57 3c
       0.0063805995 0.0038299013 0.021984436 0.013137051
000380 9c 58 8d 3c 99 04 4c bc 22 f9 99 bc 99 eb 5e 3c
       0.017254166 -0.012452268 -0.018795554 0.013605976
000390 e5 7f 5d 3c b3 79 b8 3c 71 f1 73 3b 68 1e f1 3b
       0.013519262 0.022518968 0.0037222768 0.007358361
0003a0 fc ca 1a bc ec 7a d6 3c 9b b3 b4 3c 79 50 10 bc
       -0.009447809 0.02618166 0.022058299 -0.008808249
0003b0 61 01 a1 bc ed 41 13 3c 4d 21 a4 3b 37 69 7b 3c
       -0.019653978 0.008987886 0.0050088526 0.015344909
0003c0 7c f7 9a bc 47 09 b2 3c 4a 9c a6 bc 8d c0 d4 3c
       -0.018916838 0.02173294 -0.020338196 0.025970722
0003d0 9b 8f b1 3c 53 36 8d 3c c9 d4 bf 3c 8a 4a ba 3c
       0.021674922 0.017237818 0.023416894 0.022740621
0003e0 69 cc b3 bc f0 0e 91 3a 9a da 9d 3c ff cd cb bc
       -0.021948056 0.0011067074 0.019269276 -0.0248785
0003f0 da e7 c7 bc be 85 8f bc 86 73 a8 bb 80 4b a1 3b
       -0.024402548 -0.017519828 -0.0051407246 0.0049223304

conv2.bias f4 [64]
000000 c7 30 a0 3b 80 5f b7 bb da d6 2c bc 07 0a 97 bc
       0.004888627 -0.0055961013 -0.0105492715 -0.018437399
000010 d5 5a a3 3c 88 31 95 3c b2 4a bf bc e7 f3 ad 3c
       0.019940773 0.018212095 -0.023351047 0.021234466
000020 92 07 ad 3c ea c6 9b bc f2 f1 c4 bc 3f c1 9c bc
       0.021121774 -0.019015748 -0.02404115 -0.019135116
000030 8d 98 b7 bc f8 75 b6 3c 8d c0 71 bb e7 86 4b bc
       -0.022411609 0.022273049 -0.003688845 -0.0124223
000040 33 70 32 ba da a4 ae 3b 6a b3 3a bc 9a b7 dc bb
       -0.000680688 0.0053297104 -0.011395315 -0.006735754
000050 93 3d b0 3b 67 ba 54 3b 23 88 bb 3c 7a 38 27 bc
       0.005378434 0.0032459737 0.022892063 -0.010206336
000060 dd dc 6a bc 33 b4 97 bb e0 fd 46 bc 25 21 ae bc
       -0.0143348845 -0.0046296357 -0.012145489 -0.021256039
000070 4b f6 b4 3c c3 0b a7 bc 1b 52 8e bc 7d 82 56 bc
       0.022090098 -0.02039135 -0.017373135 -0.013092634
000080 6a 2f 97 3c cd c3 69 3c 0a 42 9d 3c cd bc a6 3c
       0.018455226 0.014267874 0.019196529 0.0203537
000090 f7 bb 3a bc 53 d1 b2 3c ed 41 56 3c 40 90 fd 3b
       -0.011397353 0.02182833 0.013077241 0.007738143
0000a0 03 e9 3f 3c 8d 17 9b 3c 63 e8 9f bc 82 ce a3 3c
       0.011713269 0.018932128 -0.01951999 0.019995932
0000b0 b3 62 ba ba 5a 4a 18 bb 3a a8 84 3b e3 f6 90 3c
       -0.0014220088 -0.0023237676 0.0040483745 0.01769585
0000c0 27 cb 84 3b a0 0e 47 bc b3 bb ed 3a 8a 36 8a bc
       0.004052538 -0.012149483 0.0018137604 -0.01687171
0000d0 7d b7 30 3c 13 a5 23 bc 70 40 b1 3c 00 b7 6b bb
       0.0107859345 -0.009988087 0.021637172 -0.003596723
0000e0 de ba 38 b8 67 42 93 bb c3 bf b5 bc c0 38 26 bb
       -4.4043052e-05 -0.0044939998 -0.022186166 -0.0025363415
0000f0 b7 0f 5a bc 33 ac 87 3c 9a 25 5c 3a 73 8d 2d bb
       -0.013309411 0.016561603 0.0008397937 -0.0026482015
