src/TRAINED_MODEL_DIR/image_fragment_model_conv_fd_32_epoch_3.pth (torch, 115229 bytes, 4 tensors)

conv1.weight f4 [32, 3, 5, 5]
0	0xbd42e19e	-0.047578447
1	0xbd8b41b6	-0.06799643
2	0xbd0cb095	-0.03434809
3	0xbd963498	-0.0733425
4	0xbd551f14	-0.05203159
5	0xbdc17caf	-0.0944761
6	0xbced8438	-0.02899371
7	0x3c9de572	0.019274447
8	0x3d8ba921	0.06819368
9	0xbd07c0f7	-0.03314301
10	0x3d265fad	0.040618587
11	0x3d95bf49	0.073118754
12	0x3d6db823	0.058036935
13	0xbd615c58	-0.055019706
14	0x3db19db2	0.08672656
15	0x3d618a8c	0.05506377
16	0xbcaeb753	-0.02132765
17	0xbca5c76e	-0.020236697
18	0xbc412f3f	-0.0117910495
19	0xbd53d2fd	-0.051714886
20	0xbc9ffb10	-0.019528896
21	0xbdd6e70f	-0.1049329
22	0xbd944ed4	-0.07241598
23	0xbd87eaea	-0.06636603
24	0xbd78d42e	-0.060749225
25	0x3d01d88d	0.03170066
26	0x3bd92985	0.006627264
27	0xbc42bfd0	-0.011886552
28	0x3db54361	0.08850742
29	0xbdb5aa82	-0.088704124
30	0xbda5f96a	-0.081042126
31	0xbd19cc54	-0.037548378
32	0x3d2d3bb0	0.04229325
33	0xbdd51d0b	-0.1040593
34	0x3ce0b452	0.027429733
35	0x3d5210e6	0.051285647
36	0x3d0fe241	0.035127882
37	0xbd31a77f	-0.043372627
38	0x3c295ad9	0.010336601
39	0xbbb5e195	-0.005550573
40	0x3c91cc5e	0.017797645
41	0x3d881b4e	0.06645833
42	0xbd3c7e20	-0.04601872
43	0x3d6240ce	0.055237584
44	0xbdbab43d	-0.09116409
45	0x3b135d38	0.0022485983
46	0xbd99970a	-0.074995115
47	0xbd002dd1	-0.031293694
48	0x3d4f9836	0.05068227
49	0xbdea8daf	-0.11452805
50	0xbd8df2b7	-0.0693106
51	0xbdad600e	-0.084655866
52	0xbcc4360d	-0.023951555
53	0x3d38db01	0.045130733
54	0xbb07e69f	-0.0020736826
55	0xbdcab9db	-0.0989873
56	0x3d4a77e5	0.049430747
57	0xbbad3358	-0.0052856617
58	0xbdc88480	-0.09790897
59	0x3d956472	0.07294549
60	0xbd9f3cf1	-0.077752955
61	0xbde24e2d	-0.11050067
62	0x3d05c692	0.032660075
63	0x3dbd216e	0.09234892
64	0xbd810977	-0.063006334
65	0x3ad93e6f	0.0016574393
66	0xbd479fcc	-0.04873638
67	0xbccc6145	-0.024948725
68	0xbd98816c	-0.0744656
69	0x3d547f84	0.05187942
70	0xbd02641d	-0.031833757
71	0xbd0aa0f8	-0.033844918
72	0x3d04fccd	0.032467652
73	0xbc704b66	-0.014666414
74	0x3ddd99f8	0.10820383
75	0xbd47098a	-0.04859308
76	0x3a9f55d3	0.0012156315
77	0x3dbb8586	0.09156327
78	0xbd8b66cb	-0.068067156
79	0xbd35159d	-0.044210065
80	0xbd8698e6	-0.06572132
81	0x3db8374b	0.08994921
82	0x3dd48fda	0.10379
83	0xbce3d8c1	-0.027813317
84	0x3d6b294e	0.057412438
85	0x3d94473c	0.072401494
86	0xbd883115	-0.06649987
87	0xbdd3532b	-0.103185974
88	0xbc9e72bf	-0.019341825
89	0xbdd0c5dc	-0.10193989
90	0xbdbddf24	-0.09271076
91	0x3d84d1fc	0.06485364
92	0xbd3960c8	-0.045258313
93	0xbd9f7ad0	-0.077870965
94	0xbda33831	-0.07969702
95	0x3d36dcc8	0.044644147
96	0xbdd4aea1	-0.1038487
97	0xbdd1f1a1	-0.10251165
98	0x3d98c5b2	0.074595824
99	0xbdd75ff9	-0.10516352
100	0x3dc00906	0.09376721
101	0xbd43fdf2	-0.047849603
102	0xbd8e42a1	-0.06946302
103	0xbdb43539	-0.08799214
104	0xbcc8afce	-0.024497893
105	0x3a9ff798	0.0012204526
106	0xbd8006b9	-0.06251282
107	0xbd8e36c2	-0.06944038
108	0xbd7e716c	-0.062119886
109	0xbcd2aef2	-0.025718186
110	0xbd4d3840	-0.050102472
111	0xbdcab9d5	-0.09898726
112	0x3dc70e12	0.097194806
113	0xbdd11cd8	-0.1021058
114	0xbd8de44f	-0.06928312
115	0x3d96f380	0.07370663
116	0xbbdd3133	-0.00675025
117	0xbdb824aa	-0.08991368
118	0x3d4f0452	0.05054123
119	0xbdae1e30	-0.085018516
120	0xbdb91d53	-0.09038796
121	0x3c206bd2	0.009791331
122	0x3c34d902	0.011038067
123	0x3ca7c621	0.020480217
124	0xbd12d5ed	-0.035848547
125	0x3dc17edb	0.09448024
126	0xbd5a4b2b	-0.053294342
127	0x3dea2087	0.11431985
128	0xbd9d442d	-0.07679019
129	0xbdb58467	-0.08863144
130	0xbddde54f	-0.10834753
131	0x3dd20d48	0.102564394
132	0xbd0ceb1a	-0.034403898
133	0x3d9b327b	0.07577988
134	0xbda88fda	-0.082305625
135	0x3d494dae	0.049146347
136	0xbd3b36e9	-0.045706663
137	0x3d7ae80b	0.06125645
138	0xbce0b561	-0.027430238
139	0x3dc424ff	0.09577369
140	0xbd4c468d	-0.04987197
141	0xbd0ac3cb	-0.03387813
142	0x3d01f1aa	0.03172461
143	0xbda201f6	-0.0791053
144	0xbdd83718	-0.10557383
145	0x3c8e05a3	0.017336672
146	0xbdc9e592	-0.0985824
147	0xbdc190ea	-0.09451468
148	0xbd5689f0	-0.05237764
149	0x3db4365a	0.08799429
150	0x3db09550	0.08622229
151	0xbba72420	-0.005100742
152	0x3dea7553	0.11448159
153	0x3d901147	0.070345454
154	0x3bc7cce2	0.006097422
155	0xbd8aee4f	-0.06783735
156	0x3dab29ad	0.083575584
157	0x3d353ab6	0.044245444
158	0xbdc324d4	-0.09528509
159	0xbd9fa24d	-0.07794628
160	0xbddba59a	-0.10724945
161	0x3dad9f17	0.084776096
162	0x3c6bd110	0.014393106
163	0x3db344c7	0.087533526
164	0x3ce4a5db	0.027911117
165	0x3d2c68bf	0.04209208
166	0xbce981c6	-0.028504264
167	0xbc5881ac	-0.01321451
168	0xbddd6499	-0.10810203
169	0xbc8b5574	-0.01700852
170	0xbc196545	-0.009362523
171	0x3cfad404	0.030618675
172	0xbde781c2	-0.11304046
173	0x3dd8d318	0.10587138
174	0xbdc6d5a4	-0.097087175
175	0xbde51f18	-0.11187571
176	0xbd98652a	-0.074411705
177	0xbd2e1bc6	-0.042506956
178	0xbce5622e	-0.028000917
179	0x3d4f2362	0.050570853
180	0x3d14d0e6	0.036332034
181	0x3da9e4e2	0.08295609
182	0x3d915779	0.07096762
183	0xbd686893	-0.056740355
184	0xbd7800e5	-0.060547728
185	0xbc608e91	-0.0137058655
186	0xbd4a2398	-0.04935035
187	0xbdd6b226	-0.10483198
188	0x3bb79b03	0.0056031956
189	0x3ba65a45	0.005076679
190	0x3c3e76c3	0.011624995
191	0xbd943159	-0.07235975
192	0x3d5f3cb4	0.05450125
193	0xbde411a0	-0.11136174
194	0xbd18f249	-0.037340436
195	0x3dad4e7f	0.084622376
196	0xbcdfe677	-0.027331574
197	0xbd87d609	-0.06632621
198	0x3dc0bdfe	0.09411238
199	0xbd930e3f	-0.071804516
200	0xbcc15d19	-0.023603963
201	0xbd5030ba	-0.05082772
202	0xbdd1d23b	-0.102451764
203	0xbd5ee093	-0.05441339
204	0xbdc924a1	-0.098214395
205	0x3dd6f5be	0.1049609
206	0xbd74d1c6	-0.059770368
207	0x3da68e71	0.08132637
208	0xbd6fe5c5	-0.058568735
209	0x3de76670	0.11298835
210	0x3d6bd6c7	0.057577875
211	0xbd2f930c	-0.042864844
212	0x3dd39db2	0.10332812
213	0x3b98f065	0.004667329
214	0x3c5b1567	0.013371802
215	0xbd271fdc	-0.040801868
216	0x3da598bb	0.08085772
217	0x3d9bbc59	0.07604284
218	0x3d93d51f	0.07218384
219	0xbb1522f3	-0.0022756427
220	0x3d9d9995	0.07695309
221	0x3da01d8d	0.07818136
222	0xbdd2efa2	-0.102996126
223	0xbda142f1	-0.07874096
224	0xbd98a54a	-0.074534014
225	0xbda7e389	-0.08197696
226	0x3de9fdb6	0.11425345
227	0x3d0fd387	0.035113838
228	0x3db61cc9	0.08892209
229	0xbd874df1	-0.06606663
230	0x3d451e38	0.048124522
231	0x3d5a3f3d	0.053282965
232	0x3d0f97d0	0.03505689
233	0x3da44e0f	0.08022701
234	0x3d318860	0.043342948
235	0x3d0d4af8	0.034495324
236	0xbb99b94b	-0.004691278
237	0xbcc267af	-0.02373108
238	0xbc229bb1	-0.009924815
239	0xbd8a90bc	-0.06765887
240	0xbcba5363	-0.02274484
241	0x3dc31995	0.09526364
242	0x3d9b6138	0.075869024
243	0x3d106c3f	0.03525948
244	0x3da49239	0.08035702
245	0xbdd9149c	-0.10599634
246	0xbd6c5306	-0.057696365
247	0xbd905af1	-0.07048596
248	0x3ba3fcea	0.005004515
249	0x3cfddd39	0.030989276
250	0xbd55030b	-0.052004855
251	0xbc76e1fd	-0.015068528
252	0xbd956de1	-0.07296348
253	0xbd30974f	-0.04311305
254	0xbc205268	-0.009785272
255	0x3dd9303d	0.10604904

conv1.bias f4 [32]
0	0xbdc98bc6	-0.09841113
1	0x3ce7eb4d	0.028310442
2	0xbd727e96	-0.059202753
3	0xbd85d5f9	-0.06534953
4	0xbd374be4	-0.04475011
5	0x3c9efb2a	0.019406874
6	0xbd5f2f6b	-0.05448858
7	0xbb5931cd	-0.0033141256
8	0x3cc4653e	0.023974057
9	0x3d8204da	0.063485816
10	0x3df899d6	0.12138717
11	0xbdaad9a1	-0.08342291
12	0x3d066c36	0.03281804
13	0xbd9b1ead	-0.0757421
14	0xbd994465	-0.07483748
15	0xbcbfc870	-0.023411006
16	0x3d99053f	0.07471704
17	0xbdddf48a	-0.10837658
18	0x3c21cd5c	0.009875622
19	0x3d21a4ea	0.039463915
20	0xbde6efb1	-0.11276186
21	0x3d3f86c6	0.04675939
22	0xbcea0241	-0.028565528
23	0xbd171b9d	-0.03689157
24	0x3b580a8e	0.0032965275
25	0xbd6cc7f8	-0.057807893
26	0xbd7ea619	-0.06217012
27	0xbdc91401	-0.098182686
28	0x3d446fc6	0.047958158
29	0x3bf0bbb7	0.007346596
30	0xbd5773d8	-0.05260071
31	0xbd919c15	-0.071098484

conv2.weight f4 [32, 32, 5, 5]
0	0xbd08b202	-0.033372886
1	0xbc6aebaa	-0.014338413
2	0xbc1f2aed	-0.009714824
3	0xbc31d796	-0.010854622
4	0x3cd6a3fd	0.026201243
5	0x3bef5fd2	0.007305124
6	0xbc5917f6	-0.013250342
7	0xbbafd63e	-0.005366116
8	0x3c2f2f74	0.010692466
9	0x3d062f5a	0.03276
10	0xbc05607e	-0.008140681
11	0xbca060ce	-0.01957741
12	0xbd00b4e1	-0.0314225
13	0xbcb4743e	-0.022028085
14	0x3c173e6e	0.009231193
15	0x3cff1550	0.031138092
16	0x3b631cde	0.0034654657
17	0x3c2919a1	0.010321052
18	0x3c8a252e	0.016863432
19	0xbc80cb47	-0.01572193
20	0x3c1ea320	0.009682447
21	0x3b95d539	0.0045725373
22	0xbd0760f2	-0.03305144
23	0x3cc7a875	0.024372319
24	0xbccec833	-0.025241947
25	0x39ef0789	0.00045591246
26	0x3bf137dd	0.0073613958
27	0x3b5b1ca8	0.0033433829
28	0xbb75401f	-0.0037422252
29	0x3cfde1b7	0.030991418
30	0x3c85e059	0.016342329
31	0x3b816bc8	0.003949616
32	0xbcc36fc9	-0.023857014
33	0xbbb171e3	-0.0054151877
34	0x3c341c7c	0.010993119
35	0xbb2d590e	-0.0026450786
36	0xbc607134	-0.013698865
37	0x3cbd3694	0.023097314
38	0x3cb6e5e9	0.022326427
39	0xbc06047d	-0.008179781
40	0xbbad69d4	-0.0052921567
41	0x3c46770d	0.012113345
42	0x3cf05010	0.029335052
43	0xbd0b2ab3	-0.033976268
44	0x3a77c98b	0.00094523345
45	0x3cc4a36f	0.024003712
46	0xbc311d96	-0.0108102765
47	0xbcd947d4	-0.026523508
48	0xbceccc5f	-0.028906045
49	0xbb33e411	-0.002744917
50	0xbbe1ff78	-0.0068969093
51	0x3ceaace7	0.0286469
52	0x3c664d59	0.014056527
53	0x3a5512ef	0.00081281265
54	0xbc0a42ed	-0.008438808
55	0x3c7a36a9	0.015271821
56	0xbc98c641	-0.018649222
57	0xbbf5e62d	-0.0075042457
58	0xbd04b18f	-0.032395896
59	0xbcdc3d8b	-0.026884815
60	0x3bb21d9d	0.005435659
61	0x3c79e0bb	0.015251334
62	0x3d02cb75	0.031932313
63	0xbb4728b9	-0.0030389263
64	0x3bbd57ca	0.0057782875
65	0x3bd31afe	0.0064424267
66	0xbcdee834	-0.027210332
67	0x3c909878	0.017650828
68	0xbca8d9d5	-0.020611683
69	0xbccc03d5	-0.024904171
70	0xbd088741	-0.033332113
71	0xbba90450	-0.005157985
72	0xbd0184d8	-0.03162083
73	0x3bf43a3e	0.007453232
74	0x3c1c3764	0.0095346905
75	0xbcc5dfbd	-0.024154538
76	0xbc58bf21	-0.013229162
77	0x3c5f39de	0.013624636
78	0xbca0583a	-0.01957332
79	0xbcf42493	-0.029802596
80	0xbb3bbb2e	-0.0028645503
81	0xbcff2620	-0.03114611
82	0xbc452edb	-0.012035097
83	0x3cf71b31	0.030164333
84	0x3cdf28c8	0.027241126
85	0xbc0cac74	-0.008586038
86	0x3af1173f	0.0018393769
87	0x3c175bb3	0.009238171
88	0x3c96164f	0.018321184
89	0xbca1da35	-0.01975737
90	0x3c172b42	0.009226622
91	0xbd1258ef	-0.035729345
92	0x3cbece8a	0.023291845
93	0xbbe63c5e	-0.0070262393
94	0x3c889b6b	0.016675672
95	0xbc9f623b	-0.01945602
96	0xbc8288e5	-0.015934417
97	0xbc8ce934	-0.017201044
98	0xbb80f72c	-0.003935715
99	0x3ceb5a99	0.028729724
100	0x3b8cb272	0.0042937333
101	0xbc044ed0	-0.008075431
102	0x3cb7af51	0.022422465
103	0xbcbd44bd	-0.023104066
104	0xbcc60402	-0.024171833
105	0x3badbabe	0.0053018024
106	0x3c52783d	0.01284605
107	0xbc8acd82	-0.016943697
108	0x3b3f3968	0.0029178504
109	0xbb942bff	-0.0045218463
110	0xbc92ceef	-0.01792094
111	0x3be0e2cc	0.006862974
112	0xbc83ec28	-0.016103819
113	0x3ce415b1	0.027842375
114	0xbc8ed420	-0.017435133
115	0x3cc88e75	0.024481991
116	0xbb3fede1	-0.0029286074
117	0x3afedfa7	0.0019445316
118	0xbc975e31	-0.018477531
119	0x3c21b532	0.0098698605
120	0xbc46181f	-0.012090712
121	0xbd05ab71	-0.032634202
122	0x3bd98d0f	0.00663913
123	0xbc6e908e	-0.014560832
124	0x3c44d736	0.012014201
125	0xbd3e2fa7	-0.046432164
126	0x3bec89c0	0.0072185695
127	0x3c2e9868	0.010656454
128	0x3c7c9aa0	0.015417725
129	0x3c2c74b8	0.010525875
130	0xbd05abef	-0.03263467
131	0x39954088	0.00028467574
132	0x3d04f486	0.03245976
133	0xbc4cc468	-0.012497999
134	0xbc1eed10	-0.009700075
135	0x3b909bc8	0.004413102
136	0xbd193a32	-0.037409015
137	0x3c99906c	0.018745624
138	0x3cac0195	0.020996848
139	0x3bf111e8	0.007356871
140	0xbca67ceb	-0.020323237
141	0xbcd32a5f	-0.02577704
142	0x3b2c1e08	0.0026263017
143	0x3cec4ba9	0.028844671
144	0xbc1643a6	-0.009171402
145	0xbcbf0853	-0.023319399
146	0xbce6a801	-0.028156282
147	0x3bec1d10	0.007205613
148	0x3b37a851	0.0028023908
149	0x3d2ecc5e	0.04267537
150	0xbb6f667f	-0.0036529598
151	0xbac94986	-0.0015356995
152	0xbcb31f84	-0.021865614
153	0x3cb5578a	0.022136468
154	0xbd0de4b6	-0.034641944
155	0x3c2133e0	0.009839028
156	0xbcf6d99c	-0.030133061
157	0x3cc7d71b	0.024394562
158	0x3c631f88	0.013862498
159	0xbaffd6cd	-0.0019518972
160	0x3d037c45	0.032100935
161	0xbccda24c	-0.025101803
162	0xba94e5a5	-0.0011359943
163	0xbcee6580	-0.029101133
164	0x3d01f65a	0.03172908
165	0xbc07584c	-0.008260798
166	0x3ccf6ab1	0.02531943
167	0xbcd8a0f0	-0.026443928
168	0xbca14aec	-0.019689046
169	0x3c9cb742	0.019130353
170	0xbcb52bc7	-0.022115601
171	0xbb8eb3ae	-0.0043549156
172	0x3c59329e	0.013256697
173	0x3c148e80	0.009067178
174	0x3ba0f37a	0.004911837
175	0xbcd9df0a	-0.026595611
176	0xbcdc04dc	-0.026857786
177	0xbb86fab3	-0.004119241
178	0xbb5f5eaf	-0.0034083535
179	0x3b62178c	0.0034498898
180	0xbb84b431	-0.004049801
181	0x3c17e178	0.0092700645
182	0xbc1b3705	-0.009473567
183	0x3ce55923	0.027996605
184	0x3d012cdf	0.031536933
185	0xbcb1ec6c	-0.02171918
186	0xbced5eb6	-0.028975826
187	0xbd255f42	-0.040374048
188	0xbcfd7bfa	-0.030942906
189	0x3c9cdbe4	0.01914782
190	0xbd26a039	-0.040680144
191	0xbce9d804	-0.028545387
192	0x3cee649c	0.029100709
193	0x3cc673c1	0.024225118
194	0x3d049a61	0.03237379
195	0xbd2d024d	-0.042238522
196	0xbd25d230	-0.040483654
197	0xbcdef9df	-0.027218757
198	0xbac34dd2	-0.0014900512
199	0x3bb1361c	0.0054080617
200	0xbcfe69d1	-0.031056317
201	0x3b9305cf	0.0044867764
202	0x3c21cdf9	0.009875768
203	0x3b3cd75e	0.0028814892
204	0xbcca44fc	-0.024691097
205	0x3c79c240	0.015244067
206	0xbd001567	-0.03127041
207	0xbd109778	-0.0353007
208	0xbc394dbd	-0.011310038
209	0x3c2ce8cb	0.010553549
210	0xbcbfe44c	-0.02342429
211	0xbd47e167	-0.048798945
212	0xbce56689	-0.028002994
213	0xbd0226f3	-0.031775426
214	0x3c34cfd1	0.011035875
215	0xbc6d0259	-0.014465892
216	0x3c4330e1	0.011913509
217	0xbc3b5642	-0.01143414
218	0x3cecc364	0.028901763
219	0x3c0bffd2	0.008544879
220	0xbb9bc15d	-0.0047532753
221	0xbd1bf103	-0.038071644
222	0xbce7e58e	-0.028307702
223	0xbcf83717	-0.030299706
224	0xbc8601f2	-0.01635835
225	0x3c936002	0.017990116
226	0xbc6f9b45	-0.0146244215
227	0xbc63ae7d	-0.013896582
228	0xbb3d4260	-0.0028878674
229	0xbc0758c8	-0.008260913
230	0x3bbc561d	0.00574757
231	0xbd088724	-0.033332005
232	0xbcee226f	-0.029069154
233	0xbbda3c4e	-0.006660021
234	0x3cbe0515	0.023195783
235	0xbcfbdc91	-0.030744823
236	0x3d026ccc	0.031842038
237	0x3d09ecfd	0.033673275
238	0x3d09ad54	0.033612564
239	0x3a4b0ee3	0.0007746054
240	0x3c97e719	0.018542813
241	0xbbe38da9	-0.0069443774
242	0x3cc35316	0.02384333
243	0x3cad150c	0.0211282
244	0x3bc4b53c	0.00600305
245	0xbc0e3c3e	-0.008681355
246	0xbc966402	-0.018358234
247	0xbc9fb38e	-0.019494798
248	0xbc1c0939	-0.009523683
249	0x3cd12d8b	0.025534412
250	0x3cd1c3a0	0.025605977
251	0x3c0a0c02	0.008425714
252	0xbc9a55b6	-0.018839698
253	0x3ce269f0	0.027638406
254	0xbcab59cd	-0.020916844
255	0xbbb3246b	-0.005466988

conv2.bias f4 [32]
0	0xbc4da9ac	-0.01255266
1	0x3b8859de	0.0041611036
2	0x3cbd9b03	0.023145204
3	0xbd05b7fe	-0.03264617
4	0xbc392145	-0.011299436
5	0xbd06561e	-0.03279697
6	0xbca4961a	-0.020091105
7	0x3ce6dddf	0.028181968
8	0xbc97454e	-0.018465664
9	0x3bb2d081	0.0054569845
10	0x3b951bf6	0.0045504523
11	0x3d057263	0.03257979
12	0x3b3eede9	0.0029133505
13	0x3ca85565	0.020548532
14	0x3c8ea6c3	0.017413503
15	0x3b495ae2	0.0030724336
16	0x3c965bdb	0.018354347
17	0xbd0fc504	-0.035099998
18	0x3c813f67	0.015777303
19	0xbc1d74ad	-0.009610337
20	0x3a714c01	0.0009204746
21	0x3cbf923c	0.02338516
22	0xbc9f1a4f	-0.019421725
23	0x3d047584	0.032338634
24	0xbc1dd17c	-0.0096324645
25	0x3ca64d02	0.020300392
26	0xbd0d397d	-0.034478653
27	0x3ca4db7e	0.020124193
28	0x3d0555ba	0.03255246
29	0x3d0e1043	0.034683477
30	0xbbad917f	-0.0052968855
31	0x3c6145d9	0.013749563
