src/TRAINED_MODEL_DIR/image_fragment_model_conv_fd_32_epoch_4.pth (torch, 115229 bytes, 4 tensors)

conv1.weight f4 [32, 3, 5, 5]
-0.047578447 -0.06799643 -0.03434809 -0.0733425 -0.05203159 -0.0944761 -0.02899371 0.019274447
0.06819368 -0.03314301 0.040618587 0.073118754 0.058036935 -0.055019706 0.08672656 0.05506377
-0.02132765 -0.020236697 -0.0117910495 -0.051714886 -0.019528896 -0.1049329 -0.07241598 -0.06636603
-0.060749225 0.03170066 0.006627264 -0.011886552 0.08850742 -0.088704124 -0.081042126 -0.037548378
0.04229325 -0.1040593 0.027429733 0.051285647 0.035127882 -0.043372627 0.010336601 -0.005550573
0.017797645 0.06645833 -0.04601872 0.055237584 -0.09116409 0.0022485983 -0.074995115 -0.031293694
0.05068227 -0.11452805 -0.0693106 -0.084655866 -0.023951555 0.045130733 -0.0020736807 -0.0989873
0.049430747 -0.005285661 -0.09790897 0.07294549 -0.077752955 -0.11050067 0.032660075 0.09234892
-0.063006334 0.0016574393 -0.04873638 -0.024948725 -0.0744656 0.05187942 -0.031833757 -0.033844918
0.032467652 -0.014666413 0.10820383 -0.04859007 0.0012172541 0.09156395 -0.06806701 -0.044209827
-0.06571886 0.08994999 0.1037901 -0.027813094 0.057412554 0.07240357 -0.06649981 -0.103185974
-0.01934187 -0.10193989 -0.09270878 0.06485364 -0.04525833 -0.077870965 -0.07969702 0.044647064
-0.10384868 -0.10251165 0.074595824 -0.10516352 0.09376635 -0.047851034 -0.06946426 -0.08799255
-0.024499478 0.0012194994 -0.062513545 -0.06944078 -0.06212106 -0.025719432 -0.05010337 -0.0989874
0.09719472 -0.102105826 -0.06928317 0.07370653 -0.006751323 -0.08991372 0.050540194 -0.08501857
-0.09038798 0.009790267 0.011036983 0.020479094 -0.035849847 0.09448033 -0.05329501 0.11431941
-0.07679035 -0.08863161 -0.10834763 0.102564156 -0.034404885 0.07577978 -0.08230574 0.049146023
-0.04570731 0.06125571 -0.027430987 0.09577364 -0.04987226 -0.0338787 0.031724036 -0.07910533
-0.10557387 0.017336655 -0.09858243 -0.09451473 -0.05237821 0.087994225 0.08621803 -0.005108372
0.114472404 0.07033875 0.0060935826 -0.06784108 0.08356755 0.04423618 -0.095290765 -0.07794905
-0.107251555 0.08476987 0.014385844 0.087529145 0.027909203 0.04209159 -0.028507987 -0.013219201
-0.108104676 -0.017009402 -0.009360863 0.030618165 -0.113042325 0.105869666 -0.09708751 -0.111868724
-0.07440883 -0.042506546 -0.027999818 0.050573014 0.03634003 0.082959086 0.07096801 -0.056738477
-0.060544882 -0.013696216 -0.049345657 -0.104830064 0.005605839 0.0050800843 0.0116361 -0.07235305
0.05450474 -0.11135822 -0.037336566 0.08463502 -0.027322471 -0.06632081 0.09411629 -0.071800575
-0.023594426 -0.05082254 -0.10244946 -0.05441164 -0.09821218 0.10497178 -0.05976465 0.081328735
-0.058566578 0.11299075 0.05759052 -0.042857587 0.10333151 0.0046701212 0.013374879 -0.040787518
0.0808666 0.076047465 0.072187364 -0.0022720427 0.07696919 0.07819303 -0.102989666 -0.0787367
-0.07453001 -0.08179278 0.114550315 0.03547121 0.08928536 -0.065749995 0.04835574 0.053649306
0.035507035 0.08070312 0.043785796 0.034704912 -0.0043248893 -0.023256434 -0.009401977 -0.06715236
-0.022626633 0.095556624 0.07629256 0.035753112 0.08085493 -0.10601696 -0.05753022 -0.070173115
0.00540671 0.03141552 -0.051823523 -0.0148093505 -0.072669886 -0.042827748 -0.009548367 0.10626509
00000000: 9ee1 42bd b641 8bbd 95b0 0cbd 9834 96bd
00000010: 141f 55bd af7c c1bd 3884 edbc 72e5 9d3c
00000020: 21a9 8b3d f7c0 07bd ad5f 263d 49bf 953d
00000030: 23b8 6d3d 585c 61bd b29d b13d 8c8a 613d
00000040: 53b7 aebc 6ec7 a5bc 3f2f 41bc fdd2 53bd
00000050: 10fb 9fbc 0fe7 d6bd d44e 94bd eaea 87bd
00000060: 2ed4 78bd 8dd8 013d 8529 d93b d0bf 42bc
00000070: 6143 b53d 82aa b5bd 6af9 a5bd 54cc 19bd
00000080: b03b 2d3d 0b1d d5bd 52b4 e03c e610 523d
00000090: 41e2 0f3d 7fa7 31bd d95a 293c 95e1 b5bb
000000a0: 5ecc 913c 4e1b 883d 207e 3cbd ce40 623d
000000b0: 3db4 babd 385d 133b 0a97 99bd d12d 00bd
000000c0: 3698 4f3d af8d eabd b7f2 8dbd 0e60 adbd
000000d0: 0d36 c4bc 01db 383d 97e6 07bb dbb9 cabd
000000e0: e577 4a3d 5733 adbb 8084 c8bd 7264 953d
000000f0: f13c 9fbd 2d4e e2bd 92c6 053d 6e21 bd3d
00000100: 7709 81bd 6f3e d93a cc9f 47bd 4561 ccbc
00000110: 6c81 98bd 847f 543d 1d64 02bd f8a0 0abd
00000120: cdfc 043d 654b 70bc f899 dd3d 6206 47bd
00000130: 458c 9f3a e185 bb3d b766 8bbd 5d15 35bd
00000140: 9c97 86bd b337 b83d e78f d43d 49d8 e3bc
00000150: 6d29 6b3d 5348 943d 0d31 88bd 2b53 d3bd
00000160: d772 9ebc dcc5 d0bd 1ade bdbd fcd1 843d
00000170: cc60 39bd d07a 9fbd 3138 a3bd d7df 363d
00000180: 9eae d4bd a1f1 d1bd b2c5 983d f95f d7bd
00000190: 9208 c03d 72ff 43bd 4743 8ebd 7035 b4bd
000001a0: 21b3 c8bc 9cd7 9f3a 1a07 80bd f836 8ebd
000001b0: a772 7ebd 8fb1 d2bc 3139 4dbd e8b9 cabd
000001c0: 060e c73d dc1c d1bd 56e4 8dbd 73f3 963d
000001d0: 343a ddbb af24 b8bd 3c03 4f3d 371e aebd
000001e0: 551d b9bd 5b67 203c 76d4 343c c6c3 a73c
000001f0: 4ad7 12bd e77e c13d de4b 5abd 4b20 ea3d
00000200: 4244 9dbd 7d84 b5bd 5de5 ddbd 280d d23d
00000210: 23ec 0cbd 6e32 9b3d e98f a8bd 574d 493d
00000220: 9737 3bbd 44e7 7a3d f3b6 e0bc f824 c43d
00000230: db46 4cbd 64c4 0abd 10f1 013d fa01 a2bd
00000240: 1d37 d8bd 9a05 8e3c 96e5 c9bd f090 c1bd
00000250: 898a 56bd 5136 b43d 1493 b03d 2164 a7bb
00000260: 8270 ea3d c30d 903d adac c73b 44f0 8abd
00000270: 7725 ab3d ff30 353d ce27 c3bd c0a3 9fbd
00000280: b4a6 dbbd d39b ad3d 9ab2 6b3c 7b42 b33d
00000290: d7a1 e43c 3b68 2c3d 9589 e9bc 5995 58bc
000002a0: fc65 ddbd 4d57 8bbc 4e5e 19bc f2d2 fa3c
000002b0: bc82 e7bd 32d2 d83d d1d5 c6bd 6e1b e5bd
000002c0: a863 98bd 581b 2ebd e05f e5bc a625 4f3d
000002d0: 49d9 143d 74e6 a93d ad57 913d 9b66 68bd
000002e0: e9fd 77bd 1866 60bc ac1e 4abd 25b1 d6bd
000002f0: 30b1 b73b d676 a63b 57a5 3e3c d62d 94bd
00000300: 5d40 5f3d c70f e4bd 3aee 18bd 2055 ad3d
00000310: 60d3 dfbc 34d3 87bd 0bc0 c03d 2e0c 93bd
00000320: 1949 c1bc 4c2b 50bd 06d1 d1bd bdde 5ebd
00000330: 7823 c9bd 72fb d63d c7cb 74bd ae8f a63d
00000340: 82e3 6fbd b267 e73d 09e4 6b3d 708b 2fbd
00000350: 799f d33d d107 993b 4f22 5b3c d010 27bd
00000360: 639d a53d c6be 9b3d f8d6 933d 8de6 14bb
00000370: 06a2 9d3d ab23 a03d 3fec d2bd b540 a1bd
00000380: 31a3 98bd f982 a7bd 5b99 ea3d 424a 113d
00000390: 3edb b63d efa7 86bd ab10 463d 60bf 5b3d
000003a0: d36f 113d ad47 a53d bc58 333d bd26 0e3d
000003b0: cdb7 8dbb 4784 bebc c00a 1abc 2d87 89bd
000003c0: 7d5b b9bc 31b3 c33d 463f 9c3d db71 123d
000003d0: 4597 a53d 6c1f d9bd cfa4 6bbd ecb6 8fbd
000003e0: c52a b13b 8fad 003d e744 54bd eba2 72bc
000003f0: f3d3 94bd 266c 2fbd c170 1cbc 83a1 d93d

conv1.bias f4 [32]
-0.09841113 0.028287755 -0.059219923 -0.06633698 -0.043545574 0.019409163 -0.05452583 -0.0029264311
0.02385463 0.06474933 0.13106304 -0.082605906 0.035425 -0.073523566 -0.06973463 -0.02189114
0.07861912 -0.10838347 0.015677242 0.04239073 -0.11279083 0.046534546 -0.028549783 -0.035444435
0.012429708 -0.0575176 -0.062198434 -0.1000825 0.04687117 0.0066785347 -0.052618455 -0.06975497
00000000: c68b c9bd b9bb e73c 9790 72bd afdb 87bd
00000010: d85c 32bd f7ff 9e3c 7a56 5fbd 5ec9 3fbb
00000020: c96a c33c 4c9b 843d 6435 063e 492d a9bd
00000030: ce19 113d 8693 96bd 08d1 8ebd 0c55 b3bc
00000040: 1003 a13d 27f8 ddbd 8f6d 803c e7a1 2d3d
00000050: e1fe e6bd 029b 3e3d 3ce1 e9bc 2f2e 11bd
00000060: f9a5 4b3c 9397 6bbd c9c3 7ebd 0ef8 ccbd
00000070: fcfb 3f3d 9cd7 da3b 7386 57bd b2db 8ebd

conv2.weight f4 [32, 32, 5, 5]
-0.033372886 -0.014338413 -0.009714824 -0.010854622 0.026201243 0.007305124 -0.013250342 -0.005366116
0.010692466 0.03276 -0.008140681 -0.01957741 -0.0314225 -0.022028085 0.009231193 0.031138092
0.0034654657 0.010321052 0.016863432 -0.01572193 0.009682447 0.0045725373 -0.03305144 0.024372319
-0.025241947 0.000473428 0.0073775393 0.0033581946 -0.0037286005 0.03100409 0.016359713 0.003965606
-0.023842357 -0.0054017236 0.0110056335 -0.0026278733 -0.013683031 0.023111833 0.022339772 -0.0081673525
-0.0052751363 0.012129043 0.029349467 -0.033962965 0.000957643 0.02402055 -0.010794708 -0.026509134
-0.02889273 -0.0027324546 -0.0068953345 0.028650042 0.014061365 0.0008191407 -0.008431546 0.015273435
-0.018646004 -0.007499318 -0.032389466 -0.026877496 0.0054373043 0.015254564 0.031937208 -0.0030325858
0.0057854736 0.006444097 -0.027207173 0.017655587 -0.020605577 -0.024897289 -0.03333049 -0.0051549296
-0.031616326 0.007458952 0.009541128 -0.024601277 -0.013445533 0.01358181 -0.01951664 -0.029724805
-0.0032672458 -0.03131642 -0.012032405 0.030262647 0.02735363 -0.008982507 0.0016748953 0.009245662
0.018422272 -0.019645294 0.008796443 -0.03593035 0.023261772 -0.0069623813 0.016751977 -0.019958058
-0.01621262 -0.017309917 -0.00394831 0.028735133 0.004160801 -0.00816554 0.022370769 -0.023122499
-0.024164148 0.0051653124 0.012752964 -0.01699752 0.0028984365 -0.004513953 -0.018062642 0.0067643914
-0.016163142 0.027817696 -0.017432148 0.024335675 -0.0030328608 0.00187859 -0.018509682 0.009864437
-0.012241523 -0.032744415 0.0065658363 -0.0146017885 0.011998373 -0.047737993 0.006405304 0.01022876
0.015231343 0.010420195 -0.033863075 -0.00045689533 0.032093517 -0.012636782 -0.0097741615 0.003189835
-0.038156655 0.018361459 0.020828763 0.0072441734 -0.021615159 -0.026609022 0.0021452974 0.028572086
-0.009390308 -0.02474547 -0.029141529 0.006558763 0.0023599577 0.04229192 -0.0036529498 -0.0015358934
-0.021865929 0.02213603 -0.034642357 0.009836754 -0.03013521 0.024392722 0.013861118 -0.0019527316
0.0320969 -0.025105322 -0.0011387481 -0.029102916 0.031728387 -0.008265947 0.025315095 -0.026447095
-0.019690858 0.019130006 -0.022121146 -0.004359435 0.0132535985 0.009065716 0.004912096 -0.02746342
-0.027476825 -0.0044941837 -0.0035761283 0.0034246214 -0.00481992 0.008753971 -0.009745761 0.027924987
0.031595506 -0.022409173 -0.029411914 -0.040571593 -0.030950313 0.019256515 -0.041313488 -0.02892962
0.028945837 0.024247723 0.032498457 -0.042845517 -0.040849958 -0.02736704 -0.0014734108 0.0055152583
-0.032254573 0.0037509527 0.00957787 0.002938868 -0.024410289 0.014098899 -0.03195265 -0.035547514
-0.01120836 0.010867576 -0.02456315 -0.049483735 -0.028262485 -0.0316974 0.011315505 -0.015644277
0.011171725 -0.011767528 0.028891392 0.008726516 -0.006012923 -0.038919047 -0.028769022 -0.030454813
-0.016329411 0.01804807 -0.01457099 -0.013847899 -0.002843822 -0.008221023 0.0058050784 -0.03327914
-0.029021114 -0.0066166813 0.02323492 -0.030688016 0.03189428 0.03372068 0.033655267 0.00081312
0.018598791 -0.0068929032 0.023890069 0.021170376 0.006041175 -0.008626304 -0.018307496 -0.019448565
-0.009481835 0.025572404 0.025565729 0.008333586 -0.018988678 0.027437396 -0.021156888 -0.0054607205
00000000: 02b2 08bd aaeb 6abc ed2a 1fbc 96d7 31bc
00000010: fda3 d63c d25f ef3b f617 59bc 3ed6 afbb
00000020: 742f 2f3c 5a2f 063d 7e60 05bc ce60 a0bc
00000030: e1b4 00bd 3e74 b4bc 6e3e 173c 5015 ff3c
00000040: de1c 633b a119 293c 2e25 8a3c 47cb 80bc
00000050: 20a3 1e3c 39d5 953b f260 07bd 75a8 c73c
00000060: 33c8 cebc 6e36 f839 49bf f13b 2815 5c3b
00000070: 895b 74bb 4afc fd3c ce04 863c eaf1 813b
00000080: 0c51 c3bc f100 b1bb f950 343c 6638 2cbb
00000090: cb2e 60bc 0755 bd3c e601 b73c 5cd0 05bc
000000a0: 0ddb acbb e5b8 463c 4b6e f03c c01c 0bbd
000000b0: 550a 7b3a bfc6 c43c 49dc 30bc af29 d9bc
000000c0: 72b0 ecbc fb12 33bb 42f2 e1bb 7eb3 ea3c
000000d0: a461 663c 9abb 563a 7824 0abc 6e3d 7a3c
000000e0: 81bf 98bc d7bc f5bb d1aa 04bd 322e dcbc
000000f0: 6a2b b23b 47ee 793c 97d0 023d 59be 46bb
00000100: 1294 bd3b 0129 d33b 94e1 debc 73a2 903c
00000110: 07cd a8bc 66f5 cbbc 8d85 08bd afea a8bb
00000120: 1f80 01bd 396a f43b 6452 1c3c 9e88 c9bc
00000130: a74a 5cbc 3d86 5e3c 5ce1 9fbc 6f81 f3bc
00000140: 4a1f 56bb a545 00bd 9023 45bc 5fe9 f73c
00000150: b814 e03c 5d2b 13bc 2988 db3a 1e7b 173c
00000160: 4eea 963c 2bef a0bc f51e 103c b42b 13bd
00000170: 798f be3c b024 e4bb 713b 893c 157f a3bc
00000180: 54d0 84bc 87cd 8dbc d360 81bb f165 eb3c
00000190: 5457 883b c2c8 05bc e742 b73c 656b bdbc
000001a0: e4f3 c5bc c841 a93b cff1 503c 623e 8bbc
000001b0: b2f3 3d3b c8e9 93bb 1bf8 93bc d4a7 dd3b
000001c0: 9168 84bc f0e1 e33c ddcd 8ebc 9c5b c73c
000001d0: f6c2 46bb 053b f63a 9ea1 97bc 739e 213c
000001e0: ab90 48bc 021f 06bd 3a26 d73b 573c 6fbc
000001f0: d394 443c ea88 43bd 96e3 d13b 8796 273c
00000200: e28c 793c 77b9 2a3c 02b4 0abd 748b efb9
00000210: 7e74 033d 810a 4fbc ce23 20bc 8d0c 513b
00000220: 274a 1cbd c56a 963c 15a1 aa3c 8860 ed3b
00000230: 4612 b1bc 2afb d9bc 1e98 0c3b 0210 ea3c
00000240: ced9 19bc 03b7 cabc 37ba eebc e4ea d63b
00000250: 85a9 1a3b 4b3a 2d3d 5466 6fbb 0850 c9ba
00000260: 2d20 b3bc 9f56 b53c 25e5 0dbd 562a 213c
00000270: 1ede f6bc 3fd3 c73c be19 633c cdf2 ffba
00000280: 0a78 033d ada9 cdbc 0c42 95ba 3d69 eebc
00000290: a0f5 013d e56d 07bc 9a61 cf3c 94a7 d8bc
000002a0: b94e a1bc 88b6 9c3c 6837 b5bc 97d9 8ebb
000002b0: 9f25 593c 5e88 143c a6f5 a03b f7fa e0bc
000002c0: 1417 e1bc f243 93bb 7a5d 6abb 9d6f 603b
000002d0: 6bf0 9dbb d16c 0f3c afac 1fbc f1c2 e43c
000002e0: 4a6a 013d 7193 b7bc 41f1 f0bc 662e 26bd
000002f0: 838b fdbc d7bf 9d3c 5538 29bd cffd ecbc
00000300: d21f ed3c 29a3 c63c 1a1d 053d c87e 2fbd
00000310: 4952 27bd d830 e0bc 761f c1ba 57b9 b43b
00000320: 5f1d 04bd 8bd2 753b 80ec 1c3c 069a 403b
00000330: 16f8 c7bc 12ff 663c c8e0 02bd 459a 11bd
00000340: 45a3 37bc eb0d 323c a938 c9bc 75af 4abd
00000350: ba86 e7bc 22d5 01bd ab64 393c 6d28 80bc
00000360: 9c09 373c 97cc 40bc a4ad ec3c a9f9 0e3c
00000370: 0e08 c5bb 9469 1fbd 03ad ebbc 5f7c f9bc
00000380: 42c5 85bc 8cd9 933c 29bb 6ebc 4ce2 62bc
00000390: 6a5f 3abb 78b1 06bc 8738 be3b b54f 08bd
000003a0: b0bd edbc bfd0 d8bb 2957 be3c 6f65 fbbc
000003b0: 94a3 023d b21e 0a3d 1bda 093d 8f27 553a
000003c0: 7e5c 983c dddd e1bb 1bb5 c33c 7f6d ad3c
000003d0: 0df5 c53b 5755 0dbc 9af9 95bc 9952 9fbc
000003e0: b359 1bbc 387d d13c 386f d13c 9889 083c
000003f0: 258e 9bbc 64c4 e03c 3651 adbc d8ef b2bb

conv2.bias f4 [32]
-0.01255266 0.0041611036 0.023145204 -0.03264617 -0.011299436 -0.03279697 -0.020091105 0.028181968
-0.018465664 0.0054569845 0.0045504523 0.03257979 0.0029133505 0.020548532 0.017413503 0.0030724336
0.018354347 -0.035099998 0.015777303 -0.009610337 0.0009204746 0.02338516 -0.019421725 0.032338634
-0.0096324645 0.020300392 -0.034478653 0.020124193 0.03255246 0.034683477 -0.0052968855 0.013749563
00000000: aca9 4dbc de59 883b 039b bd3c feb7 05bd
00000010: 4521 39bc 1e56 06bd 1a96 a4bc dfdd e63c
00000020: 4e45 97bc 81d0 b23b f61b 953b 6372 053d
00000030: e9ed 3e3b 6555 a83c c3a6 8e3c e25a 493b
00000040: db5b 963c 04c5 0fbd 673f 813c ad74 1dbc
00000050: 014c 713a 3c92 bf3c 4f1a 9fbc 8475 043d
00000060: 7cd1 1dbc 024d a63c 7d39 0dbd 7edb a43c
00000070: ba55 053d 4310 0e3d 7f91 adbb d945 613c
