src/TRAINED_MODEL_DIR/image_fragment_model_linear_fd_128_epoch_2.pth (torch, 396093 bytes, 2 tensors)

linear.weight f4 [128, 768]
00000000: 68d6 013d 5807 8ebc 094e 773c 73f5 dd3c
00000010: 6c04 253c 337f bcbb a4ab f03c 46ad 8bbc
00000020: bb0a 08bd 3838 8cbc 3a97 a03c 2c9f dbbb
00000030: 3a23 cebc 7441 4bbc 9761 82bc dfb0 083d
00000040: 27fc eb3c 3fd2 0b3c 6ffa 22bc 226c f33b
00000050: 9def 6a3c 50e7 0a3d 65ff a8bc 344d 56bb
00000060: 559c f23c 34a0 cebc 8bcf b63c 106a bd3c
00000070: 5eab 09bd 19cb c4bc f40c ec3b 8202 efbc
00000080: 95d1 07bd f810 11bc 3538 90bc 70c9 a33c
00000090: e800 b13c ffa7 013d 06b2 833c 3cf9 e0bc
000000a0: 8b3c 1ebc f985 59bc 9fad 053d cfaf e7bc
000000b0: c5bf 163c 221f 1bbd c811 f2bb 9ff3 ac3c
000000c0: d0e7 e93b 1b94 783c f385 53b9 21ec 9e3b
000000d0: 05a7 f1bc 8dbe 15bc 8b49 8b3c a577 ddbc
000000e0: 59d4 67bc c964 c4bc 4cec 05bd 9254 acbb
000000f0: 00b5 c23c 50a8 913c 2f45 cc3c 9916 8ebc
00000100: bc0d b3bb 9965 ba3c f299 83bc 9d06 5839
00000110: ee6f 423c 984c 91bb 3ee0 7d3c f382 d83c
00000120: 0e51 03bd 60b0 47bc 8b56 c5bc 5676 093d
00000130: 6076 833c c985 dfbc 441f 9a3c 655e 8d3a
00000140: 2dc6 0c3d 69f4 dcbc 583e c43c f17b bbbc
00000150: 55aa 14bd 7c4d f4bc 4d36 84bc 73c3 d8bc
00000160: e41a 743c 9575 a7bc fdbf 6d3c 9824 03bd
00000170: 5b79 71bc 7329 f63c 9369 ea3c 64eb 11bd
00000180: b4b6 cfba 7569 c83c 6944 50bb 69dd c5bc
00000190: 9c9c 0f3c bcab 783c 4260 ebbb fa7e 0a3c
000001a0: f84a 66bc b6b1 d63c 0013 553b d387 5fbc
000001b0: 838e ed3c e07a 553c 171a 063d a4b3 15bc
000001c0: 2bfc 16bd 7cce 55bc ba81 6c3c a7b4 a33c
000001d0: a722 ca3c 416c adbc 442b c43c c770 3a3c
000001e0: 5c19 9bbc f083 c83c cc5a c1bb fd9a 09bb
000001f0: 5e68 07bd ede1 52bc 8824 de3c b5c9 c2bb
00000200: c0c5 c03c 4659 b2bc 2eae 2a3a 4d98 02bd
00000210: 062d e7bc 6d25 8d3c c624 e8bc 39cd 533a
00000220: 8609 f63c 512e aebc 9838 d03c 1208 f83c
00000230: f99c 103a 3dc8 da3c f010 31bb a3be 193c
00000240: 79f0 2c3b 3a2b 0d3d 973b 113b 02f7 f8bc
00000250: e0b3 cabc 39cb 08bc 3682 a93b 1078 9939
00000260: 3125 97bc 830d 3ebc 3918 093d 3bf7 043c
00000270: a314 943c 4bd3 1d3c 5b63 e13c 8d0b b53c
00000280: dea4 b3bc d620 45bc b3fe 1c3c 8921 9c3c
00000290: 50e2 10bd 63a5 bb3c a636 de3c b60e d2bc
000002a0: 2832 90bc 26d0 88bc 5c2f aabc 4fa5 05bd
000002b0: 0daf f93b c0c2 f4bb 7766 15bc 991c b73c
000002c0: c279 37bc 14d0 aa39 148f d03b db93 f3bc
000002d0: 0fcc 6cbc 54fd e93c 1375 883c 6615 fa3c
000002e0: b637 ffbc a174 b03c 017c e83c a9b9 a83b
000002f0: 70e3 883c b407 083c e155 83bc 9ba3 b93c
00000300: 93f2 04b9 0337 133d bb1a 8abc ee74 3c3c
00000310: 0f89 fdbb 9a4a 9dba c38e 1fbc ea34 50bc
00000320: 49eb e6bc 0bd8 a1bc bb07 02bb 0163 073d
00000330: d3f1 513c 3b21 223b e503 30bc 539c e93b
00000340: 1dd8 7b3b 85ea a73b e22c f7bc e163 c1bc
00000350: e51a 0c3c 69d5 673c 9e3f e13c 2260 de3c
00000360: 7470 d8bc 2fe6 583b e730 f43c 3efe 553c
00000370: d3f6 9ebc cfd4 a4bc a334 43bb 0f10 c2bc
00000380: 5f4d 023c 0bc3 c53c ace3 343c 5156 c0bc
00000390: e7b1 de39 9e5d 8c3c 6304 533b f026 66bc
000003a0: 40bc 7b3b 3528 813a ab42 db3c 3c1f 09bc
000003b0: e417 d3bb 198e 0cbd e351 e13c 5383 a1bc
000003c0: 7d6b 73bb df33 163b 4955 fabc 7c6b c33b
000003d0: 0ca5 dabb ecd0 0cbd 3190 d13c 57e6 63bc
000003e0: 283d bf3b 3926 9a3b c8d2 163c 9e59 3abb
000003f0: ae74 64bc 5577 dd3c 98e0 a2bc 534e 753c
0.031698614 -0.017337486 0.015094289 0.027094578 0.010071855 -0.005752468 0.02937872 -0.017050397
-0.03321336 -0.017116651 0.01960336 -0.0067023244 -0.025163282 -0.012405742 -0.015915675 0.033371802
0.028806759 0.008534013 -0.009947403 0.007428662 0.014339355 0.033912003 -0.020629594 -0.0032699825
0.02961556 -0.025222875 0.022315761 0.023121864 -0.033610694 -0.024022626 0.0072036926 -0.029176
-0.033158857 -0.008854143 -0.017604927 0.019993514 0.021606877 0.031654354 0.0160761 -0.027462594
-0.009657989 -0.0132765705 0.03263628 -0.028282074 0.009200995 -0.037871487 -0.0073873736 0.021112261
0.00713823 0.01517203 -0.00020172428 0.004849926 -0.029498586 -0.009139669 0.017002841 -0.02703459
-0.014149749 -0.02397384 -0.032696053 -0.005259105 0.023767948 0.017780453 0.024935333 -0.01734476
-0.0054642837 0.022753524 -0.016064618 0.00020601829 0.011867506 -0.0044341795 0.015495358 0.026429629
-0.03205972 -0.012188047 -0.024089118 0.03356012 0.016047657 -0.027285473 0.018813737 0.0010785578
0.034368683 -0.026972013 0.023955509 -0.022886248 -0.036295254 -0.029822104 -0.016139174 -0.026460385
0.014898989 -0.02044181 0.014511106 -0.03201732 -0.014738406 0.030049061 0.028614795 -0.035624877
-0.0015847296 0.024464348 -0.0031779057 -0.024153428 0.008765366 0.015177663 -0.0071831057 0.008453125
-0.01405596 0.026207786 0.0032512546 -0.013643223 0.028998619 0.013029784 0.032739725 -0.009137068
-0.03686158 -0.013049718 0.014435226 0.019983603 0.024674727 -0.021169784 0.023946412 0.011379427
-0.01893299 0.024476975 -0.0059007164 -0.0020996921 -0.033058517 -0.012871248 0.027117029 -0.0059444555
0.023531795 -0.021771085 0.000651094 -0.031883527 -0.028219711 0.01722976 -0.028337847 0.0008079592
0.030033838 -0.02126232 0.025417611 0.030277286 0.0005516555 0.02670681 -0.0027018152 0.00938383
0.002638845 0.034465052 0.0022160762 -0.03039122 -0.024743974 -0.008349233 0.005172993 0.00029271888
-0.018450351 -0.011599901 0.033470366 0.008115585 0.018076247 0.009632896 0.027513197 0.022100234
-0.0219292 -0.0120317545 0.009582209 0.01905896 -0.03537208 0.022906011 0.027125668 -0.02564178
-0.017602041 -0.016700815 -0.020774536 -0.032628354 0.0076197446 -0.007469505 -0.009118668 0.022352504
-0.011198463 0.00032579957 0.0063647125 -0.029733589 -0.014452948 0.02856318 0.016657388 0.030527782
-0.031154495 0.021539988 0.028379442 0.0051490855 0.016710013 0.008302618 -0.016032161 0.022661021
-0.00012678867 0.035941135 -0.01685845 0.011502488 -0.007737286 -0.0012000382 -0.009738627 -0.012707928
-0.028188365 -0.019756338 -0.0019841033 0.0330534 0.012814003 0.0024739045 -0.010743116 0.007129231
0.0038428374 0.0051243925 -0.030172769 -0.023607196 0.008551334 0.014150002 0.027496155 0.02714545
-0.02642081 0.0033096184 0.029808475 0.013061104 -0.019404804 -0.020121006 -0.0029786013 -0.023689298
0.007953017 0.024140855 0.011040609 -0.023478659 0.00042475687 0.017134484 0.003219866 -0.014047369
0.0038411766 0.0009853902 0.026765188 -0.008369263 -0.006442057 -0.034315202 0.027504867 -0.01971594
-0.0037142925 0.0022919101 -0.030558245 0.005963741 -0.006672507 -0.03437893 0.025581451 -0.013909898
0.005836148 0.0047042635 0.009205528 -0.0028434764 -0.013943834 0.027034441 -0.019882485 0.014972287

linear.bias f4 [128]
00000000: ead7 823b 9b50 e7bc ea7d 783c 69d4 b1bc
00000010: 3d7f 853b b035 dbbc f0e6 fcbc 4837 62bc
00000020: 8290 94bc cb33 c3bb 03f6 e23c 4f24 533c
00000030: 0e62 433c c8e0 8ebc 857e a23a f1c5 fc3c
00000040: 47ef 803c 16cb 053c 1458 00bd 3555 06bd
00000050: be84 513c 2b76 0b3c d397 bebc 3997 e5bc
00000060: 0be4 94bc 950c 563c dae8 d83c 1970 823c
00000070: 164f 553b d762 0a3d 95e0 28bc 7a86 ba3c
00000080: f441 8abc 0543 d8bb e68e 1eba 1b07 f83a
00000090: 0308 dbbc 2e84 343c c580 e839 bb93 c0bc
000000a0: f90e 8336 a0e0 8d3c a441 383c e8ba a13b
000000b0: 76de 183c f817 543c 3fb0 9abc 5130 cb3c
000000c0: 7f38 37bc 7da2 a53c 82e8 013d 25c1 aabc
000000d0: c2d4 db3c 16c5 cdbc 9616 13bc 0fe0 f0bc
000000e0: d7e5 cdbb 5175 10bd 4139 6d3c 049d a8ba
000000f0: 726d 32bc ad53 9f3c 1f33 09bd b7b6 09bd
00000100: 7f48 cf3c fc02 93bc 72f6 adb8 8d61 cd39
00000110: adbd 2c3c f5a1 d8bc fc66 ccbc 847a c0bc
00000120: 815b 133d e97a 3bbb bc40 99bc 8521 f8bb
00000130: 1f7a 5abc d222 cb3c e6d3 903c a3ea 0d3d
00000140: 0cd7 fd3c ab8c 0d3d e61b 91bc 4cb0 3b3c
00000150: 6eba 8cb7 3314 b4bc b281 b13c 971e d73c
00000160: 7add 963c f905 10bd aeb7 82bc 39c2 df3c
00000170: d343 6b3c c043 4c3c d6a2 05bd 1b28 483c
00000180: 0568 053c bf11 cfbc aefd 063c 6528 62bb
00000190: 9b5d 0cbd 1874 3d3c 9f8e ecbc b998 ac3c
000001a0: ba9d b4bc 8380 e03b 34dd d23b 4e18 1d3c
000001b0: f486 d1bc 531c 093d 959e d7bc bf7f 89bb
000001c0: ce6d 7ebc fd8e 34bc 3bc5 f43b cdaa 913b
000001d0: d085 113d b9df e5bb f401 27b9 f836 5abb
000001e0: 723a 9fbb 556b e03c 0288 51bc e219 db3c
000001f0: b3e9 4abc c3c0 943c f9ba 9bbb 5f8d 573c
0.003993024 -0.028236678 0.015166739 -0.02170773 0.004074006 -0.026758999 -0.030871838 -0.013807125
-0.018135313 -0.005957102 0.027705198 0.012887075 0.0119252335 -0.017441168 0.0012397325 0.030856105
0.015739096 0.008166095 -0.031333998 -0.032796104 0.012787996 0.00851206 -0.023265755 -0.02802621
-0.018175146 0.013064523 0.02647822 0.015922593 0.003254836 0.033785667 -0.010307451 0.022769202
-0.016877152 -0.006599786 -0.0006048515 0.0018923016 -0.026737219 0.011017842 0.0004434643 -0.023507943
3.9058473e-06 0.017319024 0.011246119 0.004935611 0.009330383 0.012945168 -0.018882869 0.024803312
-0.011182903 0.020219082 0.031715877 -0.020844052 0.02683485 -0.025118392 -0.008977553 -0.029403714
-0.0062835026 -0.03526813 0.014478982 -0.0012864177 -0.010890352 0.01944908 -0.03349602 -0.033621516
0.025303124 -0.017945759 -8.295187e-05 0.00039173328 0.010543269 -0.026444415 -0.02495145 -0.02349592
0.035975937 -0.0028607196 -0.018707626 -0.007572355 -0.01333478 0.024796877 0.017679166 0.034647595
0.030986331 0.03455798 -0.017713498 0.011455607 -1.6776114e-05 -0.021982288 0.021668289 0.026259704
0.018416155 -0.035161946 -0.015956726 0.027314292 0.014359432 0.012467325 -0.032625996 0.012216593
0.008142476 -0.025277017 0.008239193 -0.003450894 -0.034268957 0.011563323 -0.0288766 0.021068918
-0.022047866 0.0068512573 0.006435061 0.009588314 -0.025577046 0.033474278 -0.026320735 -0.0041961367
-0.015529109 -0.011020419 0.0074698008 0.00444541 0.035528004 -0.007015195 -0.00015927089 -0.0033296924
-0.004859262 0.02739493 -0.012788774 0.02674574 -0.01238482 0.018158322 -0.0047525135 0.013156264
