src/TRAINED_MODEL_DIR/image_fragment_model_linear_fd_32_epoch_4.pth (torch, 100789 bytes, 2 tensors)

linear.weight f4 [32, 768]
00000000: 7f14 b03c c136 8b3a 7b22 3cbc afb6 31bb
00000010: 00bb ce3a c796 f53c 5480 43bb a7c6 d5bc
00000020: f851 a23c 1d5e fc3b 77b3 cbbc 576f a6bc
00000030: 7300 46bc 682a 7439 3f37 ab3c d534 fbbb
00000040: 4a6a c43c 6b2b 593c e1c9 5dbc 6b0a 443c
00000050: 7e1e dbbc 89be 57bc 0973 cabc be1b ebbc
00000060: e3a5 a5bc ebf3 053d 83c0 07bd 2ce9 e03b
00000070: 7e7f eabc 92ac a13c fc11 07bd 5989 a13c
00000080: 296c 71bb aaa4 903c 70e2 dc3c d068 2dbc
00000090: e19e 3fbb 06f6 d2bb e329 9bbc 498a f1bb
000000a0: 32b7 4cbc 59d9 1dbd 5176 0cbd 545d febc
000000b0: bab5 933b 5b99 60bc bb6f ec3c 9f8b 0ebd
000000c0: 3ab5 493c bc3d ccbb 5da5 d0bc 27ae c43a
000000d0: d3ab ab3c ab33 103c da12 ae3c b70e d03b
000000e0: eefb 96ba d23c bf3b cf4d 9e3c c195 17bc
000000f0: bc21 4ebb fb6d 4b3c db64 d6bc 5a75 c8bb
00000100: 4e77 f33c 3df1 bbbc c17f 0ebd 0499 a13c
00000110: 64f2 0fbd a614 fbbb 55e2 c93c 47ff bfba
00000120: a768 efbc 84b9 65bc d144 d6bc 06e0 d8ba
00000130: 4636 b33a bef3 fe3c 2f7e 763b e507 253d
00000140: e24f 0fbd 82d1 e03a 603b 893a 8e63 e8bc
00000150: ed72 073c f3d6 d9bc 22b5 6f3b 701f 4a3b
00000160: 3eb0 743c fbea db3c 3d97 08bd 3b5d cc3c
00000170: 14c6 e63c 723d c53c 8e6a 4d3c a36e 8bbc
00000180: 117a a7bc 6c08 d6bc b419 85bc c225 cabb
00000190: 9c64 9a3c 18d5 1cbd 6422 55bc 6174 e43c
000001a0: 15ec fe3a f8f6 733b ba55 273c 6693 553c
000001b0: 8027 44bc e433 c13c 9b6e 063d a78a 033c
000001c0: b6aa 3ebc dfb1 16bd 57ef e2bc 3390 f1bb
000001d0: d099 0cbd 0044 05bd ff61 98bc 2907 b7bc
000001e0: 6ce1 093d a415 f8bc 5d66 9fbc 553a e73c
000001f0: 27d4 38bc 7cbb 2a3c e3ab f33c bb77 e23a
00000200: 798f d4bc 758f 223c bce0 b33b bfcd 973c
00000210: 311f 0b3d 1b30 66bb b7e7 883c 7451 9f3a
00000220: a825 053d c93c b8bc b30b eabc 1eb9 413c
00000230: b63c 1d3b 5143 29bc 877c b0bc 8517 463b
00000240: 1f5d fcb8 62db 1f3d 31ae 993b 272d 62bc
00000250: e5a3 8f3c 991a af3c 3c7d b43c 2952 77bc
00000260: 03e7 2639 7f2f f3b9 b852 65bc 7ecc f63b
00000270: 37c4 0e3d ba63 c239 02e2 d3bc f007 a1ba
00000280: 46aa 443c 9afb a5bc 6d80 883c cc95 f53a
00000290: a00a 2bbc 53ce 13bd 3f5f 6a3c a509 e2bc
000002a0: a69e 0f3d 83bf 8f3c c10c d43c 6308 48bb
000002b0: 1bb8 2bbc 09a4 7d3c 9966 42bc e9ec f3bc
000002c0: 4e67 b73c 1d74 ea3c d40a a8bc c285 d33c
000002d0: 7fec f03b 18b1 b63c 9bbf 103c 4b49 133c
000002e0: 6234 5e3c a472 a63c 4944 1dbc 40ff e83c
000002f0: ffd3 86bc 0cd5 f73c 15ec 173d 0d44 963c
00000300: f70c 2cba 6bf7 2a3c 2ed5 9cbc e25b 8d3c
00000310: aaa0 77bc e626 013c e820 e9bb 9a77 993c
00000320: 0dc8 c1bc f369 453c d2b6 013d c950 0abd
00000330: e5d8 313c 4562 e1bc 220d c3bc 16fd fabc
00000340: 2ca3 f53b cd8d ce3b d11f d33c 5456 213c
00000350: 7f26 45bc ade4 9ebb a0b8 453c becd a638
00000360: 75b8 583c 7c75 013d 2ea0 70bc 0964 26bc
00000370: be76 e73c 2027 cbbc 9b09 e3bc 68a7 fa3c
00000380: 888d 7abc 20b9 01bd b4f5 183d f5e4 b73b
00000390: ba70 113d 7407 32bc 2966 8ebb 07c9 76bc
000003a0: 1d8a cb3b 8716 ed3c 43ce b539 2063 d53c
000003b0: c4a5 26bc e59e 0d3d a2d5 203b 8ac8 953c
000003c0: c14f 1a3c e903 413a 0bbf 5dbc 3db3 71bc
000003d0: 37b2 9a3c e5c2 63bc 56e4 833c 9bfc 87bc
000003e0: aff1 13bb 6e59 01bb e1a9 95bc 0774 bfbc
000003f0: 85eb f03c 8dcb 64bc 2893 52bb 4fa3 f1bc
0.021494148 0.0010621176 -0.01148283 -0.0027116945 0.0015772283 0.029979123 -0.0029831128 -0.026095701
0.019814476 0.007701649 -0.024865849 -0.020316763 -0.012085068 0.00023285451 0.020900367 -0.00766621
0.023976464 0.013254981 -0.013536901 0.011965374 -0.026747938 -0.013167986 -0.024713056 -0.028699752
-0.020220703 0.03270332 -0.033142578 0.0068637338 -0.028625246 0.019735608 -0.032976136 0.019718813
-0.003683815 0.017656643 0.026963443 -0.010584071 -0.0029238986 -0.0064380197 -0.018940872 -0.007371221
-0.012494849 -0.038537357 -0.034292523 -0.031050362 0.0045077475 -0.013708438 0.028861871 -0.03480112
0.012311274 -0.0062329452 -0.025469476 0.0015005515 0.020955956 0.008801381 0.021249224 0.0063494104
-0.0011519173 0.005836108 0.019324211 -0.009252013 -0.0031453213 0.012416358 -0.026171139 -0.006117505
0.029719975 -0.02294218 -0.034789804 0.019726284 -0.03514327 -0.0076623736 0.024644056 -0.0014648222
-0.029224707 -0.014021281 -0.026155861 -0.0016546256 0.0013672791 0.031122085 0.0037611832 0.040290732
-0.03498829 0.0017152282 0.0010469966 -0.028367784 0.008267147 -0.026591754 0.003657647 0.0030841492
0.014934598 0.026845446 -0.033347357 0.0249468 0.028170623 0.024077151 0.012537612 -0.01702053
-0.020443948 -0.026127063 -0.016247608 -0.006169052 0.018846802 -0.03828916 -0.013008688 0.027887525
0.001944902 0.0037226062 0.01021331 0.013035631 -0.011972308 0.023584314 0.032820325 0.008028663
-0.01163738 -0.036790725 -0.027702017 -0.007371926 -0.034326375 -0.032535553 -0.018601416 -0.022342281
0.033662245 -0.030283757 -0.01945799 0.028226057 -0.01128105 0.010420676 0.029745048 0.0017278114
-0.02594732 0.009921898 0.005489437 0.018530725 0.033965293 -0.0035123888 0.016712053 0.0012155012
0.032506615 -0.022489922 -0.028570032 0.0118239205 0.0023992485 -0.010330991 -0.021543754 0.003022642
-0.000120336415 0.03902758 0.0046899547 -0.0138047105 0.017534206 0.021374987 0.022032373 -0.015095272
0.00015917052 -0.0004638396 -0.0139967725 0.0075317016 0.034855094 0.00037076866 -0.025864605 -0.0012285691
0.012003487 -0.020261575 0.0166628 0.001873666 -0.010439545 -0.036085438 0.014304935 -0.02759249
0.03506341 0.017547375 0.025884988 -0.0030522577 -0.010480906 0.015481004 -0.0118652815 -0.029776054
0.022388127 0.02861982 -0.020512976 0.025820617 0.0073524113 0.022301242 0.008834745 0.008989642
0.013562294 0.020318337 -0.0095988 0.028442025 -0.01645851 0.030252956 0.03709038 0.018342996
-0.0006563211 0.010434966 -0.01914462 0.017255727 -0.015113989 0.007882809 -0.0071145184 0.018733788
-0.023654962 0.012049186 0.03166849 -0.03376845 0.010854934 -0.027512679 -0.023809973 -0.030638259
0.0074962582 0.006303525 0.025772007 0.009847242 -0.012033104 -0.0048490376 0.012067944 7.953819e-05
0.013227572 0.031606182 -0.014686627 -0.010155686 0.028254863 -0.02479893 -0.027714541 0.030597404
-0.015292533 -0.03167069 0.037343696 0.0056120106 0.035507895 -0.010866035 -0.0043456745 -0.015062577
0.0062115327 0.028941406 0.00034676687 0.026048243 -0.010171358 0.03457536 0.0024541398 0.018284101
0.009418429 0.00073629484 -0.013534318 -0.014752206 0.018883808 -0.013901447 0.01610009 -0.016599944
-0.0022574475 -0.0019737142 -0.018269481 -0.023370756 0.02940918 -0.013964546 -0.003213117 -0.029496817

linear.bias f4 [32]
00000000: 8712 b9bc 0748 b3ba 8fe6 06bd 6413 133b
00000010: 514d f8bc dd9e 82bc 5251 50bc 7cc4 9ebc
00000020: ec0e bfbc 709a 063d 3a88 a1bc 1451 d03c
00000030: 4cf2 70bb f647 713c 23f3 4b3c 9ff5 c23c
00000040: 4a3b 0e3d 9c95 05bb e20e 0a3d 7724 7d3b
00000050: 9223 6ebb 4769 7ebc 6264 7a3c 6125 75bc
00000060: 8f2a 133b 2425 d6ba 725a 4bbc 4d19 523c
00000070: 74f7 853c a121 09bd ea88 da3c 242a 0fbc
-0.022591842 -0.0013678082 -0.03293472 0.0022441978 -0.030310305 -0.015944893 -0.012714701 -0.0193808
-0.023322545 0.032862127 -0.019718278 0.025429286 -0.0036765514 0.0147266295 0.012448105 0.023798762
0.03472451 -0.0020383364 0.0337056 0.003862647 -0.003633712 -0.01552803 0.015282722 -0.014962525
0.0022455787 -0.0016337973 -0.012411701 0.012823415 0.016353346 -0.033479337 0.026676614 -0.008738074
