src/TRAINED_MODEL_DIR/image_fragment_model_conv_fd_32_epoch_1.pth (torch, 115229 bytes, 4 tensors)

conv1.weight f4 [32, 3, 5, 5]
-0.047578447 -0.06799643 -0.03434809 -0.0733425 -0.05203159 -0.0944761 -0.02899371 0.019274447
0.06819368 -0.03314301 0.040618587 0.073118754 0.058036935 -0.055019706 0.08672656 0.05506377
-0.02132765 -0.020236697 -0.0117910495 -0.051714886 -0.019528896 -0.1049329 -0.07241598 -0.06636603
-0.060749225 0.03170066 0.006627264 -0.011886552 0.08850742 -0.088704124 -0.081042126 -0.037548378
0.04229325 -0.1040593 0.027429733 0.051285647 0.035127882 -0.043372627 0.0103366 -0.005550573
0.017797645 0.06645833 -0.04601872 0.055237584 -0.09116409 0.0022485985 -0.074995115 -0.031293694
0.05068227 -0.11452805 -0.0693106 -0.084655866 -0.023951555 0.045130733 -0.0020736845 -0.0989873
0.049430747 -0.0052856617 -0.09790897 0.07294549 -0.077752955 -0.11050067 0.032660075 0.09234892
-0.063006334 0.0016574406 -0.04873638 -0.024948725 -0.0744656 0.05187942 -0.031833757 -0.033844918
0.032467652 -0.014666414 0.10820383 -0.04859799 0.0012133492 0.09156231 -0.06806757 -0.044211045
-0.06572695 0.08994715 0.103789404 -0.027814485 0.057411402 0.07239538 -0.06650071 -0.10318599
-0.019342445 -0.10193989 -0.09271723 0.06485331 -0.0452587 -0.077870965 -0.07969702 0.044635158
-0.10385078 -0.10251177 0.074595325 -0.10516622 0.09377001 -0.047845807 -0.069460355 -0.087991774
-0.024495432 0.0012218072 -0.06251206 -0.069440134 -0.06211898 -0.02571657 -0.050102007 -0.09898722
0.09719483 -0.1021058 -0.06928311 0.07370665 -0.0067490567 -0.08991367 0.05054183 -0.08501851
-0.09038928 0.009792228 0.01103916 0.020481085 -0.035848122 0.09448192 -0.053291496 0.11432155
-0.07679003 -0.08863135 -0.10834721 0.10256491 -0.034402426 0.0757799 -0.082305595 0.049146567
-0.04570588 0.061257225 -0.027429283 0.095773704 -0.04987203 -0.033877645 0.031725083 -0.0791053
-0.10557382 0.01733499 -0.0985824 -0.09451468 -0.052377343 0.08799431 0.08626362 -0.005058328
0.11451924 0.070366226 0.0061062365 -0.067793734 0.08362173 0.044282805 -0.09527032 -0.07794276
-0.10720743 0.08481844 0.014423002 0.087543175 0.027911503 0.04213346 -0.028468188 -0.013194471
-0.108098105 -0.017011339 -0.009324125 0.030646995 -0.11302943 0.105872884 -0.097091146 -0.11185155
-0.07438521 -0.04248332 -0.027989872 0.050573803 0.03635745 0.08298531 0.070991166 -0.056733955
-0.060548574 -0.013682083 -0.049324553 -0.10481462 0.005605571 0.0050732894 0.011648014 -0.07233891
0.05451089 -0.111363724 -0.037346225 0.084643096 -0.027317606 -0.06632422 0.09410865 -0.07181098
-0.023592457 -0.050813816 -0.102439746 -0.054410253 -0.098216794 0.10497323 -0.05975449 0.08133864
-0.058568634 0.11298379 0.05758898 -0.042851023 0.10333645 0.004664591 0.013364962 -0.040791422
0.08086782 0.07604532 0.072177775 -0.0022843007 0.07696122 0.078185245 -0.10300063 -0.07874889
-0.07454348 -0.08465811 0.11120624 0.03190805 0.08578789 -0.06892182 0.045238987 0.049961656
0.031518523 0.076720126 0.040094417 0.031628918 -0.0080468105 -0.027357103 -0.013565091 -0.071073525
-0.025357824 0.09213141 0.07242565 0.031756148 0.07703624 -0.10818401 -0.060414605 -0.07354064
0.001852295 0.027973851 -0.05524413 -0.018651482 -0.0766946 -0.046776988 -0.0131887635 0.10259236
00000000: 9ee1 42bd b641 8bbd 95b0 0cbd 9834 96bd
00000010: 141f 55bd af7c c1bd 3884 edbc 72e5 9d3c
00000020: 21a9 8b3d f7c0 07bd ad5f 263d 49bf 953d
00000030: 23b8 6d3d 585c 61bd b29d b13d 8c8a 613d
00000040: 53b7 aebc 6ec7 a5bc 3f2f 41bc fdd2 53bd
00000050: 10fb 9fbc 0fe7 d6bd d44e 94bd eaea 87bd
00000060: 2ed4 78bd 8dd8 013d 8529 d93b d0bf 42bc
00000070: 6143 b53d 82aa b5bd 6af9 a5bd 54cc 19bd
00000080: b03b 2d3d 0b1d d5bd 52b4 e03c e610 523d
00000090: 41e2 0f3d 7fa7 31bd d85a 293c 95e1 b5bb
000000a0: 5ecc 913c 4e1b 883d 207e 3cbd ce40 623d
000000b0: 3db4 babd 395d 133b 0a97 99bd d12d 00bd
000000c0: 3698 4f3d af8d eabd b7f2 8dbd 0e60 adbd
000000d0: 0d36 c4bc 01db 383d a7e6 07bb dbb9 cabd
000000e0: e577 4a3d 5833 adbb 8084 c8bd 7264 953d
000000f0: f13c 9fbd 2d4e e2bd 92c6 053d 6e21 bd3d
00000100: 7709 81bd 7a3e d93a cc9f 47bd 4561 ccbc
00000110: 6c81 98bd 847f 543d 1d64 02bd f8a0 0abd
00000120: cdfc 043d 664b 70bc f899 dd3d b00e 47bd
00000130: 3e09 9f3a 0585 bb3d 0367 8bbd a416 35bd
00000140: da9b 86bd 3636 b83d 8a8f d43d 34db e3bc
00000150: 3828 6b3d 0744 943d 8631 88bd 2d53 d3bd
00000160: 0c74 9ebc dcc5 d0bd 88e2 bdbd d0d1 843d
00000170: 3061 39bd d07a 9fbd 3138 a3bd 5bd3 363d
00000180: b8af d4bd b1f1 d1bd 6fc5 983d 6361 d7bd
00000190: 7e0a c03d f7f9 43bd 3b41 8ebd 0835 b4bd
000001a0: a5aa c8bc 0c25 a03a 5306 80bd a136 8ebd
000001b0: 7970 7ebd 8eab d2bc c337 4dbd d0b9 cabd
000001c0: 150e c73d d81c d1bd 4ee4 8dbd 83f3 963d
000001d0: 3127 ddbb a924 b8bd f304 4f3d 2f1e aebd
000001e0: 041e b9bd 956f 203c 98dd 343c f3c7 a73c
000001f0: 7bd5 12bd bd7f c13d 2f48 5abd 6b21 ea3d
00000200: 1744 9dbd 5a84 b5bd 24e5 ddbd 8d0d d23d
00000210: 8fe9 0cbd 7e32 9b3d d68f a8bd e94d 493d
00000220: 1736 3bbd dbe8 7a3d 60b3 e0bc 0125 c43d
00000230: 9d46 4cbd 49c3 0abd 29f2 013d f601 a2bd
00000240: 1637 d8bd 1c02 8e3c 92e5 c9bd ea90 c1bd
00000250: a089 56bd 5c36 b43d fbaa b03d 55c0 a5bb
00000260: 1089 ea3d 2b1c 903d d316 c83b 71d7 8abd
00000270: df41 ab3d e361 353d 161d c3bd 74a0 9fbd
00000280: 928f dbbd 4ab5 ad3d 744e 6c3c d649 b33d
00000290: aaa6 e43c 2394 2c3d 1e36 e9bc 9f2d 58bc
000002a0: 8a62 ddbd 5d5b 8bbc 37c4 18bc 680f fb3c
000002b0: f97b e7bd e2d3 d83d b9d7 c6bd 6d12 e5bd
000002c0: 4657 98bd fd02 2ebd 044b e5bc 7a26 4f3d
000002d0: 8deb 143d 34f4 a93d d163 913d dd61 68bd
000002e0: c801 78bd d12a 60bc 8b08 4abd 0ca9 d6bd
000002f0: f0ae b73b d63d a63b 50d7 3e3c 6c26 94bd
00000300: d046 5f3d aa12 e4bd 5bf8 18bd 5c59 ad3d
00000310: 2cc9 dfbc fed4 87bd 09bc c03d a311 93bd
00000320: f844 c1bc 2622 50bd eecb d1bd 49dd 5ebd
00000330: e325 c9bd 34fc d63d 20c1 74bd df94 a63d
00000340: aae5 6fbd 0c64 e73d 6ce2 6b3d 8e84 2fbd
00000350: 10a2 d33d 6dd9 983b b7f8 5a3c e814 27bd
00000360: 079e a53d a6bd 9b3d f1d1 933d 35b4 15bb
00000370: d89d 9d3d 961f a03d fff1 d2bd 1947 a1bd
00000380: 41aa 98bd 3b61 adbd 19c0 e33d 04b2 023d
00000390: 90b1 af3d e226 8dbd 844c 393d 98a4 4c3d
000003a0: 9119 013d 711f 9d3d 0b3a 243d 538d 013d
000003b0: c5d6 03bc 011c e0bc 1e40 5ebc ff8e 91bd
000003c0: 36bb cfbc 65af bc3d e653 943d bc12 023d
000003d0: 2dc5 9d3d 948f ddbd 4e75 77bd 7a9c 96bd
000003e0: b5c8 f23a 6b29 e53c ab47 62bd feca 98bc
000003f0: 0f12 9dbd 3a99 3fbd af15 58bc f11b d23d

conv1.bias f4 [32]
-0.09841113 0.028146705 -0.059089053 -0.06517055 -0.04801509 0.01939867 -0.05451518 -0.006267925
0.023020025 0.061416116 0.11206644 -0.08458165 0.029071555 -0.08536783 -0.08888508 -0.027928866
0.076350935 -0.10837075 -0.00722133 0.033001233 -0.112672985 0.04658994 -0.028582169 -0.046981774
-0.013036519 -0.057945788 -0.062117044 -0.09926437 0.047805782 0.0087114815 -0.052563183 -0.0772177
00000000: c68b c9bd eb93 e63c 5d07 72bd 2378 85bd
00000010: 79ab 44bd f6e9 9e3c 4f4b 5fbd 2a63 cdbb
00000020: 7e94 bc3c 778f 7b3d 1783 e53d 2539 adbd
00000030: 7827 ee3c 54d5 aebd 6109 b6bd 14cb e4bc
00000040: e15d 9c3d 7cf1 ddbd e8a0 ecbb 4d2c 073d
00000050: 18c1 e6bd 18d5 3e3d 2725 eabc f66f 40bd
00000060: 2097 55bc 9058 6dbd 716e 7ebd 1e4b cbbd
00000070: ffcf 433d 9aba 0e3c 7e4c 57bd 5024 9ebd

conv2.weight f4 [32, 32, 5, 5]
-0.033372886 -0.014338413 -0.009714824 -0.010854622 0.026201243 0.007305124 -0.013250342 -0.005366116
0.010692466 0.03276 -0.008140681 -0.01957741 -0.0314225 -0.022028085 0.009231193 0.031138092
0.0034654657 0.010321052 0.016863432 -0.01572193 0.009682447 0.0045725373 -0.03305144 0.024372319
-0.025241947 0.00043363022 0.0073437537 0.0033303404 -0.0037509883 0.03098633 0.016320622 0.0039326013
-0.023869377 -0.0054232534 0.010988737 -0.0026661423 -0.013715234 0.02308555 0.022318944 -0.008183664
-0.0053124777 0.012097612 0.02932383 -0.033983406 0.0009416308 0.023984145 -0.010825434 -0.026534328
-0.028912932 -0.0027484647 -0.0068917274 0.02865114 0.014058601 0.0008119792 -0.0084425425 0.015276814
-0.018645309 -0.007502598 -0.032397192 -0.026889052 0.0054403623 0.015254886 0.031933583 -0.003040649
0.005773727 0.006446783 -0.027207132 0.017651776 -0.020613581 -0.024908764 -0.033328213 -0.0051551317
-0.03162012 0.007451337 0.009530324 -0.021067556 -0.011202709 0.014582499 -0.019602876 -0.03067029
0.00010947142 -0.029267145 -0.011258373 0.029925644 0.02614524 -0.0057449625 0.00356801 0.009846935
0.017899584 -0.021046132 0.011928248 -0.03413903 0.023761902 -0.007587953 0.015245631 -0.01688841
-0.0144573385 -0.016826501 -0.004579953 0.027225398 0.004608373 -0.007919297 0.02241577 -0.023274705
-0.024500549 0.0056279753 0.0130113745 -0.016945057 0.0027471043 -0.004856887 -0.017587205 0.0070354063
-0.016099907 0.027673747 -0.0177717 0.02481448 -0.002756013 0.0019491474 -0.018645516 0.009533821
-0.01176636 -0.032467052 0.0066404054 -0.014730137 0.011679419 -0.039552145 0.011729172 0.012757701
0.015260952 0.008423715 -0.026098056 0.0044000046 0.034123592 -0.013120204 -0.01228018 0.010558683
-0.033698697 0.019999456 0.019968057 0.0043809125 -0.014584497 -0.022448115 0.003530887 0.02750116
-0.012429683 -0.01798131 -0.025165109 0.007839714 0.0012517336 0.03926254 -0.0036653238 -0.0015520249
-0.021885067 0.022115208 -0.034663714 0.009825739 -0.030150037 0.024374718 0.01384101 -0.0019737198
0.03208694 -0.025119105 -0.0011557678 -0.029122237 0.031707775 -0.008275264 0.025302397 -0.026462829
-0.01970885 0.019110655 -0.02213046 -0.00437156 0.013238946 0.009049153 0.004894253 -0.022052849
-0.023064544 -0.0012483423 -0.0015367814 0.0043536387 0.00044143567 0.012951816 -0.0067704357 0.029655414
0.032198742 -0.01734863 -0.025462782 -0.037879672 -0.0295196 0.019561984 -0.036489453 -0.025245195
0.031360585 0.025405925 0.032549754 -0.038266703 -0.03741844 -0.02519689 -0.0005379086 0.005373275
-0.023227446 0.010791524 0.014373686 0.005477655 -0.023884138 0.022917692 -0.025164071 -0.031043455
-0.008988479 0.011065967 -0.015967766 -0.042923555 -0.023984764 -0.029692542 0.0113180345 -0.00727527
0.0175394 -0.007638258 0.030797096 0.008675972 0.0021402014 -0.032697976 -0.024704274 -0.028530587
-0.016291989 0.017913658 -0.014686513 -0.013943554 -0.0029199221 -0.008279242 0.0056723137 -0.033392627
-0.029114405 -0.006690108 0.023179663 -0.030818284 0.0317832 0.033629794 0.033584118 0.00076014886
0.018471539 -0.0070013134 0.023801433 0.02110116 0.005989654 -0.008750178 -0.018413177 -0.019535258
-0.00954986 0.0255214 0.026650216 0.009308012 -0.018081341 0.028303014 -0.020328954 -0.004472573
00000000: 02b2 08bd aaeb 6abc ed2a 1fbc 96d7 31bc
00000010: fda3 d63c d25f ef3b f617 59bc 3ed6 afbb
00000020: 742f 2f3c 5a2f 063d 7e60 05bc ce60 a0bc
00000030: e1b4 00bd 3e74 b4bc 6e3e 173c 5015 ff3c
00000040: de1c 633b a119 293c 2e25 8a3c 47cb 80bc
00000050: 20a3 1e3c 39d5 953b f260 07bd 75a8 c73c
00000060: 33c8 cebc dd58 e339 dfa3 f03b d741 5a3b
00000070: 24d3 75bb 0bd7 fd3c d3b2 853c 0ddd 803b
00000080: b689 c3bc 8cb5 b1bb 1b0a 343c 72ba 2ebb
00000090: dcb5 60bc e81d bd3c 38d6 b63c c614 06bc
000000a0: 4b14 aebb 1035 463c 8738 f03c 2f32 0bbd
000000b0: c6d7 763a 667a c43c 295d 31bc 855e d9bc
000000c0: d0da ecbc 961f 34bb 00d4 e1bb ccb5 ea3c
000000d0: 0c56 663c 00db 543a 9752 0abc 9a4b 7a3c
000000e0: 0cbe 98bc 5bd8 f5bb ebb2 04bd 6e46 dcbc
000000f0: 1145 b23b a1ef 793c cacc 023d a045 47bb
00000100: 8831 bd3b 893f d33b 7ee1 debc 759a 903c
00000110: d0dd a8bc 770d ccbc 2a83 08bd 61ec a8bb
00000120: 1984 01bd 582a f43b 1325 1c3c de95 acbc
00000130: 918b 37bc 6feb 6e3c 3696 a0bc 4340 fbbc
00000140: 0594 e538 a7c1 efbc 0a75 38bc a026 f53c
00000150: 8b2e d63c 3d40 bcbb 46d5 693b 0a55 213c
00000160: 26a2 923c f068 acbc b36e 433c 5ed5 0bbd
00000170: 52a8 c23c 5da4 f8bb d0c8 793c 9059 8abc
00000180: 79de 6cbc bbd7 89bc 6e13 96bb cc07 df3c
00000190: d601 973b f0bf 01bc 47a1 b73c 98aa bebc
000001a0: 60b5 c8bc e16a b83b a92d 553c 5cd0 8abc
000001b0: c308 343b 8526 9fbb 0b13 90bc 4489 e63b
000001c0: f4e3 83bc 0eb4 e23c f595 91bc bd47 cb3c
000001d0: 3a9e 34bb 897a ff3a 7bbe 98bc be33 1c3c
000001e0: b1c7 40bc 2cfc 04bd c297 d93b ac56 71bc
000001f0: 095b 3f3c 6e01 22bd b72b 403c ad05 513c
00000200: 1209 7a3c 9f03 0a3c 97cb d5bc ea2d 903b
00000210: 2ec5 0b3d 20f6 56bc cf32 49bc 54fe 2c3c
00000220: a507 0abd e6d5 a33c 0d94 a33c c28d 8f3b
00000230: d0f3 6ebc 1ce5 b7bc 7466 673b 1d4a e13c
00000240: dea5 4bbc 8a4d 93bc 0f27 cebc 2572 003c
00000250: 3611 a43a c2d1 203d ee35 70bb 506d cbba
00000260: 5048 b3bc f42a b53c 8afb 0dbd 23fc 203c
00000270: 36fd f6bc 7dad c73c 67c5 623c 8659 01bb
00000280: 986d 033d 95c6 cdbc 227d 97ba c291 eebc
00000290: 03e0 013d f994 07bc f946 cf3c 93c8 d8bc
000002a0: 7474 a1bc f38d 9c3c f04a b5bc 4e3f 8fbb
000002b0: 2ae8 583c e642 143c f85f a03b 2da8 b4bc
000002c0: dbf1 bcbc 6b9f a3ba d46d c9ba f8a8 8e3b
000002d0: 7e70 e739 db33 543c 88da ddbb e9ef f23c
000002e0: d4e2 033d b71e 8ebc 5397 d0bc b727 1bbd
000002f0: 17d3 f1bc 7440 a03c f775 15bd 03cf cebc
00000300: f573 003d 1620 d03c e452 053d 8cbd 1cbd
00000310: 1444 19bd b569 cebc 6f02 0dba 4c12 b03b
00000320: 7c47 bebc efce 303c 9c7f 6b3c e77d b33b
00000330: aba8 c3bc e2bd bb3c e224 cebc d84e febc
00000340: 6a44 13bc 084e 353c d5ce 82bc 9cd0 2fbd
00000350: b27b c4bc c63d f3bc 476f 393c 6365 eebb
00000360: caae 8f3c 5a4a fabb 314a fc3c aa25 0e3c
00000370: 9f42 0c3b 50ee 05bd 9e60 cabc fab8 e9bc
00000380: c776 85bc aabf 923c b39f 70bc 8173 64bc
00000390: 2a5c 3fbb a8a5 07bc d1de b93b b5c6 08bd
000003a0: 5581 eebc b238 dbbb 47e3 bd3c a076 fcbc
000003b0: 1a2f 023d 65bf 093d 808f 093d ba44 473a
000003c0: a051 973c 466b e5bb 39fb c23c 57dc ac3c
000003d0: dc44 c43b e85c 0fbc 3bd7 96bc 6808 a0bc
000003e0: 0477 1cbc 4112 d13c 8e51 da3c a280 183c
000003f0: 521f 94bc b9db e73c e888 a6bc a98e 92bb

conv2.bias f4 [32]
-0.01255266 0.0041611036 0.023145204 -0.03264617 -0.011299436 -0.03279697 -0.020091105 0.028181968
-0.018465664 0.0054569845 0.0045504523 0.03257979 0.0029133505 0.020548532 0.017413503 0.0030724336
0.018354347 -0.035099998 0.015777303 -0.009610337 0.0009204746 0.02338516 -0.019421725 0.032338634
-0.0096324645 0.020300392 -0.034478653 0.020124193 0.03255246 0.034683477 -0.0052968855 0.013749563
00000000: aca9 4dbc de59 883b 039b bd3c feb7 05bd
00000010: 4521 39bc 1e56 06bd 1a96 a4bc dfdd e63c
00000020: 4e45 97bc 81d0 b23b f61b 953b 6372 053d
00000030: e9ed 3e3b 6555 a83c c3a6 8e3c e25a 493b
00000040: db5b 963c 04c5 0fbd 673f 813c ad74 1dbc
00000050: 014c 713a 3c92 bf3c 4f1a 9fbc 8475 043d
00000060: 7cd1 1dbc 024d a63c 7d39 0dbd 7edb a43c
00000070: ba55 053d 4310 0e3d 7f91 adbb d945 613c
