src/TRAINED_MODEL_DIR/image_fragment_model_linear_fd_128_epoch_5.pth (torch, 396093 bytes, 2 tensors)

linear.weight f4 [128, 768]
00000000: cb89 043d a355 8dbc 1e42 663c 4a20 e33c
00000010: d381 283c a19e d4bb 52f5 f53c 97e7 88bc
00000020: 8fff 09bd 2242 88bc f737 a23c f83b edbb
00000030: f9b6 ccbc 772d 4dbc 69ef 88bc a289 083d
00000040: e562 e93c 3c48 f83b e353 22bc c465 ed3b
00000050: b9f5 5d3c 1c73 0c3d 9ab8 a6bc 117c 69bb
00000060: a08f f93c 453d c7bc 85dc b93c c06b c73c
00000070: 67fd 03bd bb7c bdbc 0f54 0d3c d5ed e1bc
00000080: 3453 03bd 35e6 efbb 87b8 82bc fade ac3c
00000090: 2cfe bc3c bfe0 073d 7c43 8b3c 1e4c d7bc
000000a0: 66a9 0abc a52a 51bc e1ea 083d 229a e1bc
000000b0: ed9b 153c a25c 18bd e4a5 e1bb b5f5 a83c
000000c0: eaec fd3b fbdf 793c 7d41 8bba 3e5e b43b
000000d0: 3c43 efbc fc67 1dbc 3e87 903c fc38 dabc
000000e0: 5c87 6bbc 3ec2 c1bc a483 05bd a396 babb
000000f0: 39cd c13c 40cd 8e3c 4780 c53c a551 90bc
00000100: e48d c3bb ddae b23c c284 85bc 7836 65b9
00000110: 7f08 353c c8cf 8ebb 3fd9 7d3c 0fb7 d53c
00000120: f8af 00bd 2bae 3bbc c4b4 c1bc 7f99 0d3d
00000130: a59d 8d3c b15d d7bc 30d5 a33c 006f 253b
00000140: 7cbd 113d fbd6 d1bc 3632 d13c 79ab b0bc
00000150: 3096 0fbd 36ab e8bc 065a 76bc 9565 d2bc
00000160: e6a7 813c 1025 a3bc 10ca 713c 71b8 01bd
00000170: fe8a 74bc ce67 f73c fb70 eb3c 5f6a 14bd
00000180: a84e 6dba 148d c93c f681 7abb 7ab8 bfbc
00000190: b2c0 153c 8bf7 743c 8e0d d7bb 9680 103c
000001a0: f7ad 67bc 98d0 d73c 8cb8 4f3b 4d86 66bc
000001b0: 56f9 ea3c f5cf 4c3c 81c6 023d f9f4 1bbc
000001c0: 8051 19bd fb25 63bc 4b59 663c ea53 9f3c
000001d0: 5f30 c43c e83d aebc 55c8 c23c c776 353c
000001e0: d00d 97bc c04f cd3c 2626 b1bb 4aee a5ba
000001f0: 52fb 02bd 90d9 41bc ce7d e53c 8109 9bbb
00000200: 66b2 ca3c 759a aabc fd8b fa3a a1de fabc
00000210: 0ec4 e1bc 1ede 943c 8fd3 e0bc dac3 563a
00000220: ae44 f83c 8718 adbc c285 cb3c c706 f53c
00000230: b090 e7b8 c83b d63c 8f65 50bb 0d31 093c
00000240: cee8 5d3b ef01 0e3d 74a9 e73a a71e f2bc
00000250: 0ffc c6bc 0b0a 09bc 2fa9 be3b b61d 2e3a
00000260: 5bb6 96bc 0b53 3cbc df83 083d 238a fe3b
00000270: 0296 913c 1446 153c 8e02 dc3c d07d b23c
00000280: a08c b7bc 1076 4ebc 0e62 183c 69cc 983c
00000290: 77bb 12bd 26b3 ba3c b2e4 dc3c 5e45 d3bc
000002a0: 1427 8dbc 1cef 84bc 2fda a5bc 4f30 03bd
000002b0: 4e06 0b3c 7080 d4bb c525 0dbc b255 be3c
000002c0: e5df 25bc be4c 2f3a 366d e93b 2d87 ebbc
000002d0: 8322 6ebc 2689 ec3c 9f71 8c3c 7419 f43c
000002e0: 4914 01bd 0a05 ae3c 5b9c de3c 2917 8b3b
000002f0: 6475 803c 859b ec3b e4f7 8abc f8d0 ae3c
00000300: 3c80 2d3a 9446 143d cc90 8cbc e04c 4a3c
00000310: 37fc edbb 4040 8fba 2011 14bc 6649 49bc
00000320: ce4d e5bc adcf 9fbc b352 03bb dbd1 063d
00000330: de8a 503c 99d8 0c3b 9f08 36bc e056 e63b
00000340: a60d 693b 3608 9e3b 84d5 f7bc 3f2f c3bc
00000350: 6fab 083c 642a 663c aeff df3c 35bc dd3c
00000360: 9c60 d7bc 606f 683b 8450 f73c 61a0 593c
00000370: 3ebd 9abc 77ae 9ebc 751b 3fbb 0fd4 bdbc
00000380: 814e 103c 2b7a c43c c910 3b3c f3fa b9bc
00000390: 93d2 e7b8 e93b 8c3c 8f58 693b 8f7e 77bc
000003a0: ad19 563b d1d4 253a 097f cf3c 1b41 1abc
000003b0: 4f33 f5bb 8aef 11bd 6241 d83c 09df acbc
000003c0: 7ab6 43bb b6e9 223b e2e8 fcbc 5f8b da3b
000003d0: 28f2 cfbb 69b8 0cbd aaad d63c 8485 5ebc
000003e0: 4fc4 c43b 6abf a63b 026a 183c 5284 37bb
000003f0: f8fe 60bc e306 dd3c 482a a3bc a236 783c
0.032357972 -0.017252749 0.0140538495 0.027725358 0.010284859 -0.0064886366 0.030024204 -0.016711993
-0.033690985 -0.016633097 0.019802077 -0.007239815 -0.024989592 -0.012523047 -0.016715722 0.033334382
0.02848954 0.0075769704 -0.009907695 0.0072447974 0.013547354 0.034289464 -0.020351697 -0.0035626928
0.030463994 -0.024321208 0.02268816 0.024343371 -0.032224085 -0.023130765 0.008625998 -0.027579227
-0.03206177 -0.007321144 -0.01595713 0.021102417 0.023070417 0.03317332 0.016999952 -0.026281413
-0.008463239 -0.012766515 0.033427123 -0.027539317 0.009131414 -0.037197717 -0.006886231 0.020624975
0.0077491896 0.015251155 -0.0010624375 0.0055043986 -0.029206865 -0.009607311 0.017642614 -0.0266385
-0.014375534 -0.023652192 -0.032596245 -0.005694227 0.023657428 0.017431855 0.024109019 -0.017617056
-0.0059678424 0.021811897 -0.016298655 -0.00021859433 0.011049389 -0.0043582655 0.01549369 0.026088266
-0.031417817 -0.011455099 -0.023645766 0.034570213 0.017287085 -0.026289793 0.019999117 0.0025243163
0.035581097 -0.025615206 0.025536638 -0.02156614 -0.03505534 -0.028401952 -0.015036112 -0.025683204
0.01582713 -0.019915134 0.014757648 -0.031670038 -0.014925716 0.030200865 0.028740397 -0.036234256
-0.0009052553 0.024603404 -0.0038224435 -0.023403395 0.00914018 0.014951597 -0.006562895 0.00881972
-0.014140598 0.026344582 0.0031695692 -0.014070106 0.028683346 0.012500753 0.03192759 -0.009518855
-0.03743124 -0.013864036 0.014059375 0.019449193 0.023948846 -0.021269754 0.023777166 0.011075682
-0.018439204 0.025062442 -0.005406159 -0.0012659517 -0.03197796 -0.011831656 0.02801409 -0.0047313576
0.02474327 -0.020825604 0.0019115206 -0.030623736 -0.027559306 0.01817232 -0.027444629 0.00081926363
0.030306187 -0.02112986 0.024844054 0.029910458 -0.000110418885 0.026151553 -0.0031798815 0.008373511
0.0033860686 0.034669813 0.0017674402 -0.029555632 -0.024290113 -0.008364211 0.005818508 0.00066420005
-0.0183975 -0.011494408 0.033328887 0.007767932 0.017771725 0.009110946 0.026856687 0.021788508
-0.022405922 -0.0126013905 0.009300722 0.018652158 -0.03582331 0.022790503 0.02696452 -0.025789913
-0.017230548 -0.016227297 -0.02024564 -0.032028493 0.00848539 -0.0064850375 -0.008614962 0.023234222
-0.010124181 0.00066871557 0.0071236147 -0.02875098 -0.014534595 0.028873991 0.017144023 0.029797293
-0.031513486 0.021242637 0.027174165 0.0042447043 0.015680976 0.007220688 -0.016963907 0.021339878
0.00066185347 0.03620012 -0.017158888 0.01234743 -0.0072627324 -0.0010929182 -0.009037286 -0.012285566
-0.027991202 -0.019508207 -0.0020038306 0.032914978 0.012728421 0.0021491407 -0.011110454 0.0070293993
0.0035561114 0.004822756 -0.03025318 -0.02382624 0.008341654 0.014048193 0.027343597 0.027067283
-0.026291184 0.0035466775 0.03018976 0.013282866 -0.018889066 -0.0193703 -0.0029160653 -0.023172406
0.008807779 0.023984035 0.011417576 -0.02270267 -0.00011054161 0.017118411 0.0035605764 -0.0151058575
0.0032669113 0.00063259626 0.02532913 -0.009414936 -0.007482923 -0.035628833 0.026398364 -0.021102445
-0.0029863403 0.002485854 -0.030872766 0.0066694464 -0.006346006 -0.034355555 0.026205856 -0.013581637
0.006004847 0.0050887363 0.009302618 -0.0028002453 -0.013732664 0.026980823 -0.019917622 0.015149744

linear.bias f4 [128]
00000000: ead7 823b 9b50 e7bc ea7d 783c 69d4 b1bc
00000010: 3d7f 853b b035 dbbc f0e6 fcbc 4837 62bc
00000020: 8290 94bc cb33 c3bb 03f6 e23c 4f24 533c
00000030: 0e62 433c c8e0 8ebc 857e a23a f1c5 fc3c
00000040: 47ef 803c 16cb 053c 1458 00bd 3555 06bd
00000050: be84 513c 2b76 0b3c d397 bebc 3997 e5bc
00000060: 0be4 94bc 950c 563c dae8 d83c 1970 823c
00000070: 164f 553b d762 0a3d 95e0 28bc 7a86 ba3c
00000080: f441 8abc 0543 d8bb e68e 1eba 1b07 f83a
00000090: 0308 dbbc 2e84 343c c580 e839 bb93 c0bc
000000a0: 5810 8336 a0e0 8d3c a441 383c e8ba a13b
000000b0: 76de 183c f817 543c 3fb0 9abc 5130 cb3c
000000c0: 7f38 37bc 7da2 a53c 82e8 013d 25c1 aabc
000000d0: c2d4 db3c 16c5 cdbc 9616 13bc 0fe0 f0bc
000000e0: d7e5 cdbb 5175 10bd 4139 6d3c 049d a8ba
000000f0: 726d 32bc ad53 9f3c 1f33 09bd b7b6 09bd
00000100: 7f48 cf3c fc02 93bc 78f6 adb8 8d61 cd39
00000110: adbd 2c3c f5a1 d8bc fc66 ccbc 847a c0bc
00000120: 815b 133d e97a 3bbb bc40 99bc 8521 f8bb
00000130: 1f7a 5abc d222 cb3c e6d3 903c a3ea 0d3d
00000140: 0cd7 fd3c ab8c 0d3d e61b 91bc 4cb0 3b3c
00000150: 5dba 8cb7 3314 b4bc b281 b13c 971e d73c
00000160: 7add 963c f905 10bd aeb7 82bc 39c2 df3c
00000170: d343 6b3c c043 4c3c d6a2 05bd 1b28 483c
00000180: 0568 053c bf11 cfbc aefd 063c 6528 62bb
00000190: 9b5d 0cbd 1874 3d3c 9f8e ecbc b998 ac3c
000001a0: ba9d b4bc 8380 e03b 34dd d23b 4e18 1d3c
000001b0: f486 d1bc 531c 093d 959e d7bc bf7f 89bb
000001c0: ce6d 7ebc fd8e 34bc 3bc5 f43b cdaa 913b
000001d0: d085 113d b9df e5bb f201 27b9 f836 5abb
000001e0: 723a 9fbb 556b e03c 0288 51bc e219 db3c
000001f0: b3e9 4abc c3c0 943c f9ba 9bbb 5f8d 573c
0.003993024 -0.028236678 0.015166739 -0.02170773 0.004074006 -0.026758999 -0.030871838 -0.013807125
-0.018135313 -0.005957102 0.027705198 0.012887075 0.0119252335 -0.017441168 0.0012397325 0.030856105
0.015739096 0.008166095 -0.031333998 -0.032796104 0.012787996 0.00851206 -0.023265755 -0.02802621
-0.018175146 0.013064523 0.02647822 0.015922593 0.003254836 0.033785667 -0.010307451 0.022769202
-0.016877152 -0.006599786 -0.0006048515 0.0018923016 -0.026737219 0.011017842 0.0004434643 -0.023507943
3.906007e-06 0.017319024 0.011246119 0.004935611 0.009330383 0.012945168 -0.018882869 0.024803312
-0.011182903 0.020219082 0.031715877 -0.020844052 0.02683485 -0.025118392 -0.008977553 -0.029403714
-0.0062835026 -0.03526813 0.014478982 -0.0012864177 -0.010890352 0.01944908 -0.03349602 -0.033621516
0.025303124 -0.017945759 -8.295191e-05 0.00039173328 0.010543269 -0.026444415 -0.02495145 -0.02349592
0.035975937 -0.0028607196 -0.018707626 -0.007572355 -0.01333478 0.024796877 0.017679166 0.034647595
0.030986331 0.03455798 -0.017713498 0.011455607 -1.6776083e-05 -0.021982288 0.021668289 0.026259704
0.018416155 -0.035161946 -0.015956726 0.027314292 0.014359432 0.012467325 -0.032625996 0.012216593
0.008142476 -0.025277017 0.008239193 -0.003450894 -0.034268957 0.011563323 -0.0288766 0.021068918
-0.022047866 0.0068512573 0.006435061 0.009588314 -0.025577046 0.033474278 -0.026320735 -0.0041961367
-0.015529109 -0.011020419 0.0074698008 0.00444541 0.035528004 -0.007015195 -0.00015927086 -0.0033296924
-0.004859262 0.02739493 -0.012788774 0.02674574 -0.01238482 0.018158322 -0.0047525135 0.013156264
