src/TRAINED_MODEL_DIR/image_fragment_model_linear_fd_64_epoch_4.pth (torch, 199221 bytes, 2 tensors)

linear.weight f4 [64, 768]
0	0xbcbfe611	-0.023425134
1	0x3d0992c3	0.03358723
2	0xbc96f2e1	-0.01842636
3	0xbcaf4eab	-0.021399816
4	0xbcd535f7	-0.026026709
5	0xbc91feb2	-0.017821644
6	0x3bc6594f	0.006053127
7	0x3c2d5bc1	0.010580958
8	0x3ca56283	0.020188576
9	0xbbebe1cc	-0.007198548
10	0xbcee1a3f	-0.02906525
11	0xbc26b6fb	-0.010175462
12	0x3b8af3d2	0.0042404914
13	0xbc46d752	-0.012136297
14	0xbcee3c39	-0.02908145
15	0x3c48cd36	0.012255957
16	0x3c6da29e	0.014504103
17	0x3c14419c	0.009048846
18	0xbd0e05df	-0.034673568
19	0x3c84cc2a	0.016210634
20	0xbc53f367	-0.01293645
21	0xbcfa4318	-0.03054957
22	0xbc40a2d4	-0.011757571
23	0x3ca1082f	0.019657223
24	0xbd0ac458	-0.033878654
25	0xbcaa0478	-0.020754084
26	0xbcd729cd	-0.02626505
27	0xbc95f444	-0.018304951
28	0xbc4c8963	-0.012483927
29	0x3b8b19d7	0.0042450237
30	0x3cfe940d	0.031076455
31	0xbcd2abb6	-0.025716644
32	0xbc3891be	-0.011265216
33	0x3cd22f42	0.0256573
34	0x3cd1ca4c	0.025609158
35	0xbbb5da7b	-0.0055497265
36	0xbd0ef102	-0.03489781
37	0x3d19287b	0.03739212
38	0xbc0b1d66	-0.008490896
39	0x3c81f934	0.0158659
40	0x3cf1641c	0.029466681
41	0xbcb93d0b	-0.022612115
42	0xbd02e497	-0.03195628
43	0xbc11c435	-0.008896877
44	0x3ce613c1	0.028085591
45	0x3cb1ccfb	0.021704188
46	0xbccbe75a	-0.02489059
47	0x3ca82700	0.02052641
48	0x3caf8297	0.021424575
49	0xbca7eebc	-0.02049958
50	0xbc6b108c	-0.014347207
51	0xbd1322ba	-0.03592179
52	0xbc42d1e3	-0.011890861
53	0xbcd746ef	-0.026278941
54	0xbc6b4345	-0.0143593
55	0xbbee9401	-0.007280827
56	0x3cc960b4	0.024582244
57	0xbc732e93	-0.014842647
58	0xbc3909b9	-0.011293822
59	0xbcaa332d	-0.020776356
60	0xbc68aa4c	-0.014200758
61	0xbc9f7b58	-0.019467995
62	0xbc37023a	-0.011169964
63	0x3cf58d56	0.02997462
64	0x3c2060a7	0.009788669
65	0xbc223856	-0.009901127
66	0x3d0f9c99	0.035061453
67	0x3d0ec661	0.034857158
68	0xbaf2df02	-0.0018529596
69	0x3abbeb7f	0.0014337151
70	0x3d13c07b	0.036072236
71	0x3b413f7e	0.0029487307
72	0x3af147f8	0.0018408289
73	0x3d16f66a	0.036856093
74	0xbc3f63bf	-0.011681496
75	0xbcdc6b0d	-0.026906515
76	0xbd0804ee	-0.033207826
77	0xbcd01293	-0.025399482
78	0x3cc4b2a0	0.024010956
79	0x3b1140c5	0.002216385
80	0x3cd205ca	0.025637526
81	0xbd064c83	-0.03278781
82	0xbc1914e2	-0.009343358
83	0xbc4b786a	-0.012418846
84	0x3c87414d	0.01651063
85	0xbb193989	-0.002338024
86	0x3c21c3d0	0.0098733455
87	0x3d0c0764	0.034186736
88	0x3bf42f45	0.007451924
89	0xbc88e242	-0.01670945
90	0xbc202cc1	-0.009776295
91	0x3d154270	0.036440313
92	0xbc263276	-0.010143867
93	0x3cee8669	0.029116826
94	0x3cb363f9	0.021898257
95	0x3c760e8e	0.015018119
96	0xbc99baaf	-0.018765775
97	0x3cd02de0	0.0254125
98	0xbccfd792	-0.025371347
99	0x3cfbad95	0.030722419
100	0xbc8c7181	-0.017143967
101	0x3d10647d	0.035252083
102	0x3d03b1f1	0.03215212
103	0xbcbf34f4	-0.02334068
104	0x3bbc803d	0.005752592
105	0x3d08a12a	0.033356823
106	0x3d09080b	0.033454936
107	0xbbb507af	-0.0055245976
108	0xbcd9fb08	-0.026608959
109	0xbc85c173	-0.016327595
110	0xbbc0e8d6	-0.005887131
111	0xbc3cf985	-0.0115340995
112	0xbcd630c1	-0.026146295
113	0xbc6bd437	-0.014393858
114	0x3ca9ecf3	0.020742869
115	0xbc5d8c23	-0.013522181
116	0x3c32cd6a	0.010913232
117	0xbcd9c7f0	-0.026584595
118	0x3d0d29ef	0.03446382
119	0x3cd08b68	0.0254571
120	0x3cbd5b58	0.023114845
121	0x3c93b880	0.018032312
122	0x3c3d5950	0.011556938
123	0x3ce57ef0	0.02801463
124	0x3d1ac141	0.037781958
125	0x3d0ad0cd	0.033890534
126	0x3ceb008d	0.028686786
127	0xbc845799	-0.016155051
128	0x3c8ff278	0.017571673
129	0xbce7b486	-0.028284322
130	0xbb637eb5	-0.0034712974
131	0x3bab476e	0.005227021
132	0x3cc3df4b	0.023910185
133	0xbb1ef44c	-0.00242545
134	0x3ca755b2	0.020426605
135	0xbcba47f8	-0.022739395
136	0x3c385466	0.011250591
137	0xbcb6a518	-0.02229552
138	0xbc2a2053	-0.010383683
139	0xbc898b3f	-0.01679003
140	0x3c540e5d	0.012942878
141	0xbcab5ec5	-0.020919213
142	0x3c8db55c	0.017298393
143	0xbcf297ba	-0.029613364
144	0xbb3bf994	-0.0028682696
145	0xbc07ff19	-0.008300566
146	0x3cd853ca	0.026407141
147	0x3c277e33	0.010222959
148	0xbcaba569	-0.020952897
149	0x3cf5209e	0.02992278
150	0x3918165e	0.00014504182
151	0x3cc4da17	0.024029775
152	0x3cdf8c07	0.02728845
153	0xbc20e0a3	-0.009819183
154	0xbbd9d0d2	-0.006647208
155	0x3c3db719	0.011579298
156	0x3c6ef255	0.014584144
157	0x3ce937a7	0.02846892
158	0x3b0f1cb9	0.0021837188
159	0xbcfb083b	-0.030643573
160	0x3c9a3c77	0.01882766
161	0xbc028fca	-0.007968852
162	0x3d093acc	0.03350334
163	0x3cbefdc9	0.023314374
164	0xbc644e29	-0.01393465
165	0xbd0b900e	-0.034072928
166	0xb9a358ba	-0.0003115589
167	0xbc220bdf	-0.009890526
168	0x3ca25d9a	0.019820023
169	0xbc07605a	-0.008262718
170	0xbcb81094	-0.022468843
171	0xbd092327	-0.03348079
172	0xbd0237df	-0.031791564
173	0xbd04da09	-0.032434497
174	0x3c4d9c9e	0.0125495475
175	0x3c295363	0.010334822
176	0xbc9baf5f	-0.019004522
177	0x3c9840f6	0.018585663
178	0xbca6889d	-0.020328814
179	0xbc1d2b31	-0.009592817
180	0xbb95b0ab	-0.0045681796
181	0x3b6e0cae	0.0036323476
182	0xbc956c1d	-0.018240029
183	0xbc7d2364	-0.015450332
184	0x3cb9c4a1	0.022676768
185	0xbc58d442	-0.0132342
186	0xbcf83880	-0.030300379
187	0xbcfc782c	-0.030819021
188	0x3d07e2f2	0.033175416
189	0xbcd17af1	-0.025571318
190	0x3d0a2fd1	0.033737008
191	0xbcb55813	-0.022136724
192	0xbd046668	-0.032324225
193	0x3cd8abf8	0.026449189
194	0x3b99800a	0.004684453
195	0xbc97eed5	-0.018546501
196	0xbc83abf5	-0.016073206
197	0xbc5d106f	-0.013492688
198	0xbbb40ea9	-0.0054949117
199	0x3ca553fd	0.02018165
200	0xb9febbdd	-0.00048586624
201	0xbca3271b	-0.019916108
202	0xbc2ebeba	-0.01066559
203	0xbca6f549	-0.020380633
204	0xbd11aaf1	-0.035563413
205	0x3caa07c9	0.020755665
206	0xbbd18b57	-0.0063947844
207	0x3917887a	0.00014451324
208	0xbc983927	-0.01858194
209	0x3c4a04fb	0.012330289
210	0xbca354fb	-0.019937983
211	0xbd0647ef	-0.032783445
212	0xbc77ebb8	-0.015131883
213	0xbcba525f	-0.022744356
214	0x3c9a7a8a	0.01885726
215	0xbcbacd03	-0.022802835
216	0xbca5bf0c	-0.0202327
217	0x3d099769	0.03359166
218	0xbd067d36	-0.032834254
219	0x3cea579b	0.028606227
220	0x3b541cf1	0.0032365883
221	0xba9ede51	-0.0012120699
222	0x3b8f526c	0.004373839
223	0x3cf35d08	0.029707447
224	0x3c9c854e	0.019106533
225	0x3cedf91c	0.029049449
226	0xb9f7b661	-0.00047247394
227	0xbcb558c7	-0.022137059
228	0xbb301236	-0.0026866323
229	0xbc509a3b	-0.012732084
230	0x3c53e558	0.012933098
231	0xbc714a68	-0.0147272125
232	0xbc091e85	-0.008369093
233	0xbceaf388	-0.028680578
234	0x3c03fb7e	0.008055566
235	0xbbf5dec9	-0.0075033647
236	0xbc314c89	-0.01082147
237	0x3ad9df91	0.0016622414
238	0xbc5a03da	-0.013306582
239	0xbceb127c	-0.028695337
240	0x3c1974d1	0.00936623
241	0x3c9e0918	0.019291446
242	0xbc92d14b	-0.017922064
243	0xbcde1fe4	-0.027114816
244	0x3c18acb1	0.009318517
245	0x3cbf3a3c	0.023343198
246	0xbcb3f92c	-0.0219694
247	0x3d0c2bf2	0.034221597
248	0x3c432218	0.011909984
249	0xbcb2df65	-0.021835038
250	0xbcaeb1ad	-0.021324957
251	0x3cc55871	0.024090024
252	0x3ce2d8ee	0.02769133
253	0xbc1187d2	-0.00888248
254	0x3c962ab1	0.018330904
255	0x3bb650bc	0.0055638235

linear.bias f4 [64]
0	0x3d0befe8	0.03416434
1	0x3c27c757	0.010240397
2	0x3c50c67c	0.012742635
3	0xbc9edfa8	-0.019393757
4	0x3c7482e4	0.014923785
5	0x3c1d08c6	0.009584611
6	0x3ce3068a	0.027713079
7	0xbcf3c898	-0.029758736
8	0x3c881794	0.016612805
9	0xbc8da1e5	-0.017289111
10	0x3cfb85e1	0.030703487
11	0xbcf36fe9	-0.029716449
12	0xbcdc1354	-0.026864685
13	0xbcc01bd5	-0.023450771
14	0x3c804d7e	0.015661951
15	0xbc46b344	-0.012127701
16	0xbca50a5e	-0.020146545
17	0x3be9f18d	0.007139391
18	0xbc164b1c	-0.009173181
19	0xbccd1ca7	-0.025038077
20	0x3cd31176	0.025765162
21	0x3c594927	0.01326207
22	0xbc571ae0	-0.013128966
23	0xbc84e575	-0.016222695
24	0x3cd5710f	0.026054887
25	0xbc3b5a5d	-0.0114351185
26	0xbc04c591	-0.008103744
27	0x3c9b4a1c	0.018956237
28	0x3badccc7	0.0053039524
29	0xbcbd90da	-0.02314036
30	0xbc709cd9	-0.014685833
31	0x3c28f449	0.010312148
32	0xbca18670	-0.019717425
33	0x3cea84fe	0.028627869
34	0x3cdf41c0	0.027253032
35	0x3cd50b70	0.02600643
36	0x3abb5cac	0.0014294586
37	0x3c82bcfc	0.015959255
38	0x3cf596d8	0.029979154
39	0x3c898c22	0.016790453
40	0xbca00dd8	-0.019537851
41	0x3cebb05e	0.028770622
42	0x3ce524a5	0.027971575
43	0xbcb81630	-0.022471517
44	0xbcd4a307	-0.025956644
45	0x3c8745d0	0.016512781
46	0xbd00bcd5	-0.031430084
47	0x3c1701e9	0.009216764
48	0x3c9df58d	0.019282127
49	0xbb9306cc	-0.0044868942
50	0x3b8a63a8	0.0042233057
51	0x3c912a1d	0.017720276
52	0x3c5661e8	0.013084866
53	0xbc0b5010	-0.008502975
54	0xbad870e2	-0.0016513134
55	0x3d0181e0	0.031618
56	0x3d058c19	0.03260431
57	0x3aef840a	0.0018273604
58	0x3d1316f2	0.035910554
59	0x3c7aa27c	0.015297528
60	0x3bd7fd04	0.006591441
61	0xbbe4df74	-0.0069846455
62	0x3be591ac	0.007005891
63	0xbcfca91e	-0.03084236
