src/TRAINED_MODEL_DIR/image_fragment_model_linear_fd_64_epoch_3.pth (torch, 199221 bytes, 2 tensors)

linear.weight f4 [64, 768]
-0.022956662 0.033369392 -0.018663405 -0.020955248 -0.02622274 -0.018027954 0.0064180475 0.010349873
0.019954827 -0.006892603 -0.029318754 -0.010431349 0.004530582 -0.012374014 -0.02933111 0.012548607
0.014299772 0.008818504 -0.034358732 0.016047483 -0.013139462 -0.030207798 -0.011896659 0.01946658
-0.033523668 -0.020899676 -0.026470713 -0.01797151 -0.012674268 0.003990545 0.03137277 -0.02596207
-0.011577805 0.025937308 0.025339017 -0.005889086 -0.034592234 0.03713783 -0.008818016 0.016201867
0.029219897 -0.022935666 -0.031586885 -0.009147544 0.027751857 0.022107497 -0.025160398 0.020162018
0.021765644 -0.020758847 -0.014582802 -0.03563231 -0.012150172 -0.026501998 -0.014146733 -0.0075695473
0.024337245 -0.014675996 -0.011591937 -0.021032736 -0.014034328 -0.019736892 -0.011410457 0.030163547
0.009571068 -0.0101096695 0.03529073 0.03469752 -0.0020233467 0.0017092455 0.03595827 0.0028081269
0.0021431425 0.03674626 -0.011830054 -0.026604747 -0.03335019 -0.025589032 0.0242864 0.0020232971
0.025392951 -0.03251734 -0.0095533235 -0.012683156 0.016791387 -0.0025482008 0.009605396 0.034491476
0.007241815 -0.01698059 -0.009432695 0.036231283 -0.010419272 0.029491238 0.02166524 0.01470742
-0.01849664 0.025175449 -0.025540754 0.030908657 -0.017402614 0.035078343 0.032280512 -0.023606148
0.005580236 0.033463214 0.033202957 -0.0056882044 -0.02647857 -0.01653183 -0.006019641 -0.011368231
-0.026295241 -0.014494156 0.020944338 -0.013625616 0.010833441 -0.026344227 0.034395482 0.025390333
0.02337483 0.01795774 0.011465918 0.028272169 0.03766675 0.0337443 0.02893528 -0.01630966
0.017378593 -0.02803758 -0.0036460252 0.005010685 0.024149455 -0.002622313 0.020185985 -0.022478618
0.011049373 -0.02254406 -0.010077915 -0.016986225 0.012693857 -0.020573635 0.017086443 -0.029889304
-0.0025892975 -0.008438182 0.026375985 0.010422883 -0.021098945 0.029903809 0.00029196823 0.023885332
0.027281562 -0.009687156 -0.006772935 0.011586093 0.014717062 0.028364066 0.0021947373 -0.030498713
0.018745689 -0.00795798 0.033670846 0.023252716 -0.0139339045 -0.03387953 -0.00036216064 -0.009908945
0.020026209 -0.008332063 -0.02253089 -0.03326523 -0.03189158 -0.032546647 0.0127650825 0.010203422
-0.01916025 0.018794455 -0.020491136 -0.009784056 -0.0043787714 0.003430992 -0.018471513 -0.015262675
0.022447646 -0.01349398 -0.03008665 -0.031063404 0.032894965 -0.02531836 0.033474687 -0.022447204
-0.031997453 0.026433956 0.0048061493 -0.01827267 -0.016066508 -0.01332715 -0.0052743894 0.020190744
-0.00030508838 -0.019734586 -0.010661109 -0.020204095 -0.035424262 0.02073795 -0.0062517696 0.0002641358
-0.018612172 0.012436295 -0.019809444 -0.03281426 -0.015062459 -0.022617806 0.018801099 -0.02279413
-0.020115353 0.033490226 -0.032900948 0.028728005 0.0030992501 -0.0013384627 0.004500392 0.029542986
0.01893689 0.029177956 -0.0006637081 -0.022342157 -0.0025646207 -0.012955418 0.01269411 -0.014610008
-0.008626725 -0.028954064 0.008179376 -0.0077952933 -0.01113506 0.0018111223 -0.013631345 -0.029054582
0.009718687 0.019362204 -0.017687894 -0.026786536 0.009443817 0.023655362 -0.02168823 0.03435573
0.012244959 -0.021604763 -0.021207921 0.024411974 0.027868526 -0.008797213 0.018612921 0.005709278
00000000: 9c0f bcbc 58ae 083d ffe3 98bc 57aa abbc
00000010: 12d1 d6bc 5caf 93bc 7c4e d23b 8492 293c
00000020: 4e78 a33c 58db e1bb e22d f0bc 40e8 2abc
00000030: 4775 943b 60bc 4abc cc47 f0bc ac98 4d3c
00000040: 9749 6a3c 7d7b 103c bebb 0cbd 0376 833c
00000050: e646 57bc 5876 f7bc 34ea 42bc 6178 9f3c
00000060: 1d50 09bd cc35 abbc 1cd9 d8bc fd38 93bc
00000070: bca7 4fbc 1ec3 823b bc80 003d 68ae d4bc
00000080: d5b0 3dbc 7a7a d43c c593 cf3c 3cf9 c0bb
00000090: 96b0 0dbd d61d 183d 7179 10bc c7b9 843c
000000a0: 915e ef3c 94e3 bbbc 4061 01bd 95df 15bc
000000b0: dd57 e33c c81a b53c 2e1d cebc d12a a53c
000000c0: dd4d b23c 750e aabc b4ec 6ebc 2ff3 11bd
000000d0: 8411 47bc b81a d9bc b3c7 67bc f709 f8bb
000000e0: e75e c73c 9773 70bc 1cec 3dbc d84c acbc
000000f0: 3df0 65bc 43af a1bc edf2 3abc 8b19 f73c
00000100: f8cf 1c3c 07a3 25bc 038d 103d fd1e 0e3d
00000110: 209a 04bb c308 e03a fb48 133d 8d08 383b
00000120: f773 0c3b 3f83 163d d8d2 41bc 33f2 d9bc
00000130: 359a 08bd 17a0 d1bc 46f4 c63c 4b99 043b
00000140: e104 d03c e730 05bd 8b85 1cbc 03cd 4fbc
00000150: 178e 893c b7ff 26bb f35f 1d3c ef46 0d3d
00000160: bf4c ed3b e11a 8bbc 978b 1abc 4167 143d
00000170: 98b5 2abc 9c97 f13c 4d7b b13c 64f7 703c
00000180: 4486 97bc be3c ce3c d83a d1bc 2734 fd3c
00000190: ed8f 8ebc 4fae 0f3d 9238 043d ae61 c1bc
000001a0: 6ada b63b b910 093d d3ff 073d 1e64 babb
000001b0: 96e9 d8bc c36d 87bc 6940 c5bb d141 3abc
000001c0: 1e69 d7bc e678 6dbc 7693 ab3c fa3d 5fbc
000001d0: bf7e 313c d9cf d7bc 47e2 0c3d 63ff cf3c
000001e0: 927c bf3c 1c1c 933c 8cdb 3b3c 099b e73c
000001f0: 7348 1a3d 7737 0a3d ae09 ed3c d69b 85bc
00000200: 8d5d 8e3c 11af e5bc 27f2 6ebb ac30 a43b
00000210: 14d5 c53c 1ddb 2bbb 145d a53c 1425 b8bc
00000220: 6e08 353c 52ae b8bc d71d 25bc b226 8bbc
00000230: e5f9 4f3c 0a8a a8bc def8 8b3c 6ada f4bc
00000240: 34b1 29bb 4d40 0abc 7312 d83c bdc4 2a3c
00000250: b2d7 acbc d5f8 f43c 5013 9939 2cab c33c
00000260: 957d df3c e1b6 1ebc 7fef ddbb 99d3 3d3c
00000270: d51f 713c c25b e83c 95d5 0f3b 70d8 f9bc
00000280: 8f90 993c 3062 02bc 71ea 093d 7b7c be3c
00000290: 084b 64bc 43c5 0abd 61e0 bdb9 2159 22bc
000002a0: 010e a43c 3583 08bc b392 b8bc 1f41 08bd
000002b0: bfa0 02bd a24f 05bd a324 513c 412c 273c
000002c0: f5f5 9cbc d4f6 993c 07dd a7bc 4e4d 20bc
000002d0: cc7b 8fbb 7eda 603b 9251 97bc 4c10 7abc
000002e0: 20e4 b73c db15 5dbc 4778 f6bc ae78 febc
000002f0: dfbc 063d 7368 cfbc c11c 093d 33e3 b7bc
00000300: c30f 03bd 068c d83c e77c 9d3b 91b0 95bc
00000310: e99d 83bc 1e5a 5abc c9d4 acbb 0f67 a53c
00000320: 45f4 9fb9 6daa a1bc efab 2ebc 0f83 a5bc
00000330: 0819 11bd a2e2 a93c a5db ccbb b57b 8a39
00000340: 8e78 98bc 9ac1 4b3c 6a47 a2bc 3f68 06bd
00000350: 88c8 76bc fa48 b9bc c304 9a3c c1ba babc
00000360: f4c8 a4bc 0c2d 093d 25c3 06bd fe56 eb3c
00000370: ca1c 4b3b 5b6f afba 0678 933b 2204 f23c
00000380: 8921 9b3c 9c06 ef3c b2fc 2dba e606 b7bc
00000390: 3213 28bb f642 54bc f5fa 4f3c d15e 6fbc
000003a0: 1b57 0dbc 1331 edbc ca02 063c a96f ffbb
000003b0: d46f 36bc 2e63 ed3a 0156 5fbc e003 eebc
000003c0: 213b 1f3c 7c9d 9e3c 34e6 90bc 706f dbbc
000003d0: 3dba 1a3c e4c8 c13c 84ab b1bc 98b8 0c3d
000003e0: 159f 483c 79fc b0bc 3cbc adbc 9ffb c73c
000003f0: 894c e43c 3022 10bc 207a 983c e514 bb3b

linear.bias f4 [64]
0.03416434 0.010240397 0.012742635 -0.019393757 0.014923785 0.009584611 0.027713079 -0.029758736
0.016612805 -0.017289111 0.030703487 -0.029716449 -0.026864685 -0.023450771 0.015661951 -0.012127701
-0.020146545 0.007139391 -0.009173181 -0.025038077 0.025765162 0.01326207 -0.013128966 -0.016222695
0.026054887 -0.0114351185 -0.008103744 0.018956237 0.0053039524 -0.02314036 -0.014685833 0.010312148
-0.019717425 0.028627869 0.027253032 0.02600643 0.0014294586 0.015959255 0.029979154 0.016790453
-0.019537851 0.028770622 0.027971575 -0.022471517 -0.025956644 0.016512781 -0.031430084 0.009216764
0.019282127 -0.0044868942 0.0042233057 0.017720276 0.013084866 -0.008502975 -0.0016513134 0.031618
0.03260431 0.0018273604 0.035910554 0.015297528 0.006591441 -0.0069846455 0.007005891 -0.03084236
00000000: e8ef 0b3d 57c7 273c 7cc6 503c a8df 9ebc
00000010: e482 743c c608 1d3c 8a06 e33c 98c8 f3bc
00000020: 9417 883c e5a1 8dbc e185 fb3c e96f f3bc
00000030: 5413 dcbc d51b c0bc 7e4d 803c 44b3 46bc
00000040: 5e0a a5bc 8df1 e93b 1c4b 16bc a71c cdbc
00000050: 7611 d33c 2749 593c e01a 57bc 75e5 84bc
00000060: 0f71 d53c 5d5a 3bbc 91c5 04bc 1c4a 9b3c
00000070: c7cc ad3b da90 bdbc d99c 70bc 49f4 283c
00000080: 7086 a1bc fe84 ea3c c041 df3c 700b d53c
00000090: ac5c bb3a fcbc 823c d896 f53c 228c 893c
000000a0: d80d a0bc 5eb0 eb3c a524 e53c 3016 b8bc
000000b0: 07a3 d4bc d045 873c d5bc 00bd e901 173c
000000c0: 8df5 9d3c cc06 93bb a863 8a3b 1d2a 913c
000000d0: e861 563c 1050 0bbc e270 d8ba e081 013d
000000e0: 198c 053d 0a84 ef3a f216 133d 7ca2 7a3c
000000f0: 04fd d73b 74df e4bb ac91 e53b 1ea9 fcbc
