src/TRAINED_MODEL_DIR/image_fragment_model_linear_fd_256_epoch_4.pth (torch, 789821 bytes, 2 tensors)

linear.weight f4 [256, 768]
00000000: 907c 023d bca7 e93c 34db 8b3c cc24 58bc
00000010: 620e fb3c f1c3 c23c 1ac4 fdbc 9628 c23c
00000020: 0b0f 8fbb 0301 1d3c 7a7f 943b f998 4e3c
00000030: 34d6 563c 6dc1 bf3b 77ff edba 9026 07bd
00000040: 268a f23b 231b fdbc 7f0e b4bb 8d52 c3bc
00000050: c99d 9a3c 9a2a 81bc ddb4 69bc a23b 4ebc
00000060: 4d44 d03c d59e e33b 7888 07bd 24e7 2e3a
00000070: 6256 883b d823 013d 51a4 0d3c c4c0 0a3d
00000080: 4a0f f43c f2df 03bd 3c94 74bc f4a6 273c
00000090: 7cd5 99bc a4b7 23bc 662f 87bb 8cff dabc
000000a0: 1cdc 6cbb 7792 06bd e055 c73c cef5 8e3c
000000b0: 32a8 283b 352a bcbc cb45 3abc c683 873b
000000c0: dcf5 dbbc e1dd ee3c 9685 aebc 87c7 373c
000000d0: f4ae 8bbb 3aae 9bbc 1ee3 2ebc 2e77 31bb
000000e0: 2b1c ccbc d5a4 8d3c 4661 e5bc 4654 e7bc
000000f0: 8209 913c 85c4 f7b8 9e08 3ebb 8142 523c
00000100: 6b1c 9e3c b468 713c c638 0a3c ccaf 4f3c
00000110: 022f 2bbb eddb f8bc 6575 a6bb 30e0 a8bc
00000120: 4522 103d 6657 c63c 9a3d 9639 5186 d0bc
00000130: b94f 60bb 8f9a d6bb 57f3 bfbc f5c8 dcbc
00000140: adc0 f6bb 5c81 2b3c a8c1 7e3b fb0c 26bc
00000150: 6512 4ebc ca4e 8d3c 4f15 063c d8cd 8c3c
00000160: 0893 2fb9 3b55 b6bc 2d62 64bc cfe1 ec3b
00000170: 4048 e63a 7dab bf3c ed6e d5bc 3c84 e43c
00000180: 35d9 15bc 8e78 dbba 2d89 03bd 799e bf3c
00000190: fee8 35bc f55e 0d3b 4db2 8e3c fb2a 8aba
000001a0: 9bea 88bc cf28 ca3a 843f 633c 051e 5a3c
000001b0: bb3a fbbc dcad 6bbc 9cc1 d6bc 8d1e 2d3c
000001c0: 9663 043c 3205 013c 343c a53b 0d10 7bbc
000001d0: 2518 123d 999e 95bb 601c d1ba a7bf debc
000001e0: 8f6b f13c d24d ad3c 95df a73b f222 f03c
000001f0: f518 d1bb 5f86 c6bc 9739 063d 6623 09bd
00000200: 303f b03c 4db5 ebba 7bfc 91bb f725 083d
00000210: 833c 513c 6902 4a3c dd72 80bb 248e 213c
00000220: ec44 26bc 482e dcbb 33b3 0ebd 3548 003d
00000230: 849c 07bd d323 643c 9b15 b2bc 49eb 07bd
00000240: 93fa c5bc ba14 9fba 4cc3 b2bc 9338 de3c
00000250: 5c7a a33c d642 ca3c 6cc9 803b 94cb 233c
00000260: 1f6b 0abc 5f02 54bc 5fcd 573c a020 f9bb
00000270: 8b8d 40bc 7f92 02bc a9b2 343b 88fd 043d
00000280: 2bb7 e5bc b897 d53c 6af1 93bc 41e8 41bb
00000290: 23a8 d4bc cd77 903c fa26 a5bc 6433 5e3b
000002a0: 57d9 e1bc 3174 2f3c dfbf 843c 4aad 823c
000002b0: 15a1 d1bb 006f cc3c 97d3 163b 0b1e f6ba
000002c0: 57cc 043c 06af 94ba 00ec 78bc a0e3 09bc
000002d0: 60e4 08bd 73d6 ee3c 08db 623c 4b98 863c
000002e0: dcce 2ebb 879f 5c3c 0186 5b3c f674 d53c
000002f0: 2458 f2bc 7a15 b63c db56 cf3c 8cc7 013c
00000300: 8bf8 11bd 78f3 68bc b5b0 283a c23a 1e3c
00000310: b0e1 003d a9f6 c9b8 0eef 103d c519 06bb
00000320: 152a 1a3b 23fa bbbc cbfe ab3b 85db 97bb
00000330: 9516 fd3c ce0c aabc 3934 ad39 2d85 8abc
00000340: 563d 183b 6b58 c93b 0531 133d 0820 abbc
00000350: 8ff2 dbbc 4960 05bc ca2a 253c 86c0 e7bc
00000360: 597b 2fbb 2827 913b fe95 ae3c 88db d5bc
00000370: f4a7 d6bb 1ef1 9e3c 1379 01ba 20af 453c
00000380: 19e1 e73c b7e2 eebc 6a94 233c 30be 073b
00000390: 43b6 8cba d517 05bd b811 5f3b a4d6 103d
000003a0: 8436 f43b 3a71 57bc a596 a13b 5d5d fa3c
000003b0: 2dc1 24bc 80ce 3ebc 2476 edbc 463a b73c
000003c0: 58d1 033d ca7b aa3c 082b 0ebc 054e c93c
000003d0: 1b1c 63bc 5b60 e23a 4334 89bb 3552 eebb
000003e0: 90f0 48bc 6c95 833b ebc0 a63c 014a 89bc
000003f0: 3e47 843c 361b efbc ed22 d6bc 62cb 86bc
0.031857073 0.028522365 0.017072298 -0.013192367 0.030646507 0.023775073 -0.030977298 0.023700994
-0.004365807 0.009582761 0.004531798 0.012609714 0.013112593 0.0058519156 -0.00181578 -0.03299576
0.0074017225 -0.030896729 -0.005494892 -0.023843074 0.018874066 -0.015767384 -0.014264313 -0.01258746
0.025423193 0.0069464245 -0.03308913 0.0006672016 0.0041606883 0.031528324 0.008645133 0.033875242
0.029792447 -0.032195993 -0.01492792 0.010232676 -0.018778555 -0.009992514 -0.0041255234 -0.026733182
-0.0036141938 -0.032854524 0.02433294 0.017451193 0.0025735018 -0.022969345 -0.011369179 0.0041355817
-0.026850633 0.029158534 -0.021303933 0.011217005 -0.0042627994 -0.019003976 -0.010674266 -0.0027079093
-0.024915775 0.017290512 -0.028000485 -0.028238427 0.017704729 -0.000118144824 -0.0028996835 0.012833239
0.01930066 0.014734436 0.008436387 0.012676191 -0.0026120548 -0.030378306 -0.0050799125 -0.020614713
0.035188932 0.024211597 0.00028656126 -0.025454672 -0.0034227206 -0.0065491865 -0.023431463 -0.026951293
-0.007530293 0.010467853 0.0038872752 -0.010134931 -0.012577628 0.017249484 0.008183791 0.017187998
-0.00016744074 -0.022257438 -0.013939423 0.007229067 0.001756914 0.023397202 -0.02605387 0.027895086
-0.0091460245 -0.0016744302 -0.032113243 0.023390995 -0.011102913 0.0021571491 0.017419005 -0.0010541374
-0.016713431 0.0015423539 0.013870124 0.013312821 -0.030667653 -0.014384713 -0.026215367 0.010566366
0.008080384 0.007874774 0.005042577 -0.015323651 0.035667557 -0.0045660255 -0.0015953891 -0.027190996
0.029470233 0.021155272 0.0051230886 0.029313538 -0.006381149 -0.024233995 0.032769766 -0.033481024
0.021514505 -0.0017983109 -0.004455147 0.03323933 0.012770775 0.012329676 -0.003919943 0.009860549
-0.010148268 -0.0067193843 -0.034838866 0.031318862 -0.03310825 0.013924557 -0.021738818 -0.03318337
-0.024167335 -0.0012136914 -0.02182164 0.027126586 0.019955806 0.024690073 0.0039302614 0.009997267
-0.008448391 -0.012940018 0.013171523 -0.007602766 -0.0117524965 -0.007969498 0.002757231 0.03246835
-0.028041443 0.026073322 -0.018059451 -0.0029587897 -0.02595908 0.01763525 -0.020160187 0.0033905143
-0.027569456 0.0107088545 0.016204773 0.015951771 -0.0063973763 0.024955273 0.00230143 -0.0018777264
0.008105359 -0.0011343665 -0.015192986 -0.008416086 -0.03342092 0.029154992 0.013846166 0.01643004
-0.002667359 0.013465769 0.013398648 0.026056748 -0.029583044 0.022227038 0.02530997 0.007921111
-0.03563742 -0.014218204 0.0006435023 0.009657564 0.031465232 -9.630371e-05 0.03538423 -0.0020462137
0.0023523618 -0.022946423 0.0052488795 -0.004634323 0.030894557 -0.020758059 0.0003303604 -0.016909206
0.0023229918 0.0061445734 0.03593542 -0.020889297 -0.02684906 -0.008140632 0.0100810025 -0.028290045
-0.0026776402 0.0044297166 0.021311756 -0.026105657 -0.0065507833 0.019402083 -0.0004939001 0.012065679
0.028305577 -0.02916084 0.009984115 0.0020712726 -0.001073547 -0.03249343 0.003403766 0.035360947
0.007452788 -0.013149554 0.0049312883 0.030562097 -0.010055822 -0.011645913 -0.028986998 0.022366654
0.032182068 0.02081098 -0.008677252 0.024573335 -0.013861681 0.0017271148 -0.0041871383 -0.0072729834
-0.012264386 0.004015615 0.020355662 -0.01675892 0.016147252 -0.02918778 -0.0261397 -0.016454402

linear.bias f4 [256]
00000000: 632b c1bc dd1d b6bc 709a f63c 09be 113c
00000010: e532 303c e769 b53c a9c8 ddbb 6617 c63c
00000020: 504a bb3c a93b 8f3b 6880 0c3d 5899 9d3b
00000030: ffec 8e3b 2db3 97bb 30b0 bbbc bfde 7b3c
00000040: 32d6 47bc b34c 1a3c 5488 f43c a4aa 133d
00000050: 1745 debc 7e06 12bc 6076 983c f9f3 063c
00000060: 7ae9 a53c e22b 913c 23f3 16bb c567 3c3b
00000070: 59e6 853c 385f 58bc 86d6 67bc f595 21bc
00000080: 0a86 abbc 9786 103c 9e2b 22bc 7036 f53c
00000090: bb7d da3c 379a 883c 69e6 01bd 06cd b3bc
000000a0: e6a5 a43c c077 343c 5b55 89bc 6a68 6abc
000000b0: c310 cbbc 28dc 863c ad72 a6bc 4183 2cba
000000c0: 6ed7 913c 8920 a0bc 1519 1ebc 854a 3bbc
000000d0: 07e2 dfbb 26fe 013d 60bf f5bc 0496 44bc
000000e0: 0c33 dd3c 1456 e13c d9ba 7ebc caef 113d
000000f0: 7857 b43c ba3e 69b9 2f0a 053d 95c5 023c
00000100: 7583 db3c 4fa3 b1bc d2f5 943c 6bdb af3c
00000110: b449 e5bc eb98 fe3c bd91 10bc 57b6 3a3c
00000120: 8cd8 cebc 0baa 00bd 64b1 fa3a 4b3c a93c
00000130: ea36 a9bb 5606 503c be2f 013c 7399 2f3c
00000140: fb03 8f3b 6cdd 70bc 8d79 103d 0b34 80bc
00000150: d5ac d13a 532e c0ba 8d47 82bc 2a5d 8e3b
00000160: 4ece 0fbc a746 af3b 438e 983c e9af a1bc
00000170: 993d 1bbc 3552 233c 3fae 76bc d452 87bc
00000180: ebd7 0bbd 3a60 df3c 695c 033d 9570 7d3c
00000190: c0df d73c f133 d5bc 9d3a 59bc 74ef 2c3c
000001a0: c02a be3c b394 463c ed71 09bd 4432 80bc
000001b0: 9cc1 f9bc 5b79 b9b8 0620 e239 b07f cfbc
000001c0: 112e f6bc f693 003d efc6 1a3c 3d39 c73c
000001d0: 8d62 823c 373d c83c d411 e93c eaa9 c2bb
000001e0: 7f47 f6bc 68e2 76bc fb35 f8bb f78b fe3c
000001f0: 2afc edbc 44a4 0a3d 0a22 0c3c f401 85bb
00000200: 12cf 4a3c c577 a0bb d0bf 883b b8b7 12bc
00000210: 7195 f93b e749 7d3c 55c7 833c 1a4d 863b
00000220: 5d42 a0ba d9f7 833c 5a2f a63a 75a2 f6bc
00000230: 30ab 05bd 83ce 4aba 96b0 ca3c b139 073d
00000240: 12f7 cabc 9de1 c3bc c1e5 b53b c791 45bc
00000250: b265 963c e365 e73c 175d 25bc 0381 da3b
00000260: 76ac f53c a559 f1bb cd63 3c3a 278f 53bc
00000270: 9f88 6bbc ef5e f5bc dae1 fcbb d44d a83c
00000280: 1d8a 34bb 3e8c 8cbc 69f8 bb39 5267 0bbc
00000290: ae30 0b3d efef a6bb 5708 ac3c ee59 df3c
000002a0: c7c9 023d 189b 13bd e06b 82ba 5efa 293c
000002b0: 186d 59bc ff79 433c 4201 5ebc fa06 073d
000002c0: ff6e f0bc c991 073d 7191 1dbb e133 f93c
000002d0: e06d 133c 39ed e7bb dcb5 5bbc 83f6 113d
000002e0: 0e24 d63c 70bc a03b f8ce d53b b6c4 a639
000002f0: fee9 e83a 492a de3c ed56 79bc ff8a fdbc
00000300: 13c9 5d3c 6afd e9bc b824 9c3c d9d9 09bc
00000310: 19f0 57bc 965e 053d f6a2 cebc a564 93bc
00000320: 9969 14bc e829 9a3c 6176 eb3c a240 0b3d
00000330: b242 2abb 9dec 56bc e694 103d fc74 8a3c
00000340: 42dd d53c f4cb 4fbc b285 db3c e40f cf3c
00000350: 662d ebbc 3045 12bd 6e3f 9c3c fc5f fbbc
00000360: 9364 0b3d 2822 84bc 1ee7 14bc 71bc 123d
00000370: 04e8 b43c 040a 7e3c 7ee1 053d b5af 8f3a
00000380: 6062 a63c a93b 053d 4a9f ac3b 5759 293c
00000390: 7e85 d53c c80e ac3c c4b7 043c 7693 13bd
000003a0: 55d5 81bb 0386 c33c eaa0 a03c 6259 cc3b
000003b0: 3bee 8f3c 1287 083d 163b fb3c 18a2 7fbc
000003c0: bbc6 8fbc d02f 4abb bb36 0b3c 873b ad3c
000003d0: 3299 8abc d299 b1bc 6bc8 e9ba 28cc 8cbc
000003e0: e79f eabc c9fe 733c d87a a83b 7b0b c63c
000003f0: 2d6a f93c c28c dc3c 3c02 89bc 0222 ba3c
-0.023580259 -0.022231037 0.030102938 0.008895406 0.010754322 0.022145225 -0.0067683053 0.02418108
0.022862583 0.0043711257 0.034302145 0.0048095398 0.004361748 -0.0046295137 -0.022911161 0.015372931
-0.012197064 0.009417701 0.029850163 0.036051407 -0.027132554 -0.008912681 0.018611133 0.008236879
0.020252932 0.01772112 -0.0023033104 0.0028748375 0.01634519 -0.013206296 -0.0141502675 -0.009862413
-0.020937938 0.008821151 -0.009898094 0.029933184 0.026671281 0.016675098 -0.031713877 -0.021948349
0.020098638 0.011014879 -0.016764333 -0.014307121 -0.024788266 0.0164624 -0.020318354 -0.00065808377
0.01780292 -0.019546764 -0.009649535 -0.011431341 -0.0068323645 0.031736515 -0.029998481 -0.011998657
0.02700188 0.027506866 -0.015547478 0.03562907 0.022014365 -0.00022243979 0.032480415 0.007981678
0.026796082 -0.021684317 0.018183623 0.021466931 -0.027989246 0.031078776 -0.008823809 0.011396012
-0.025249742 -0.031412166 0.0019126353 0.020658633 -0.005164017 0.012696823 0.007884918 0.0107177375
0.004364488 -0.014701229 0.03527217 -0.015649816 0.0015996943 -0.0014662243 -0.015903259 0.004344602
-0.008777214 0.0053489986 0.018622523 -0.0197372 -0.009475135 0.00996833 -0.015056192 -0.016518988
-0.034141462 0.027267564 0.03207055 0.015468736 0.02635181 -0.026025744 -0.013258603 0.010555137
0.023213744 0.012120414 -0.033555914 -0.015648969 -0.030487828 -8.844092e-05 0.00043129938 -0.02532944
-0.030051263 0.031391107 0.0094468435 0.024319286 0.015916133 0.024443252 0.028450884 -0.0059406655
-0.030063389 -0.015068628 -0.0075747943 0.0310726 -0.029050905 0.033848062 0.008553037 -0.0040590707
0.012378471 -0.00489709 0.0041732565 -0.008954935 0.0076166918 0.015459514 0.01608626 0.0040985467
-0.0012226809 0.016109394 0.0012678907 -0.030106762 -0.03263396 -0.0007736461 0.024742406 0.033014003
-0.024776015 -0.023911292 0.0055510704 -0.012058682 0.018359039 0.028246826 -0.010092995 0.0066682114
0.029989462 -0.007365423 0.00071865023 -0.012912548 -0.014375835 -0.029952494 -0.0077173533 0.020544924
-0.0027548142 -0.017156716 0.000358525 -0.00850852 0.03398197 -0.0050945203 0.02100007 0.027264562
0.03193071 -0.03603658 -0.0009950362 0.010374634 -0.013270639 0.011930942 -0.013550105 0.032965638
-0.029349802 0.033098016 -0.0024042989 0.030420246 0.008998364 -0.0070778397 -0.013410058 0.035635483
0.02614024 0.004905276 0.0065249167 0.00031808548 0.001776993 0.027119773 -0.015218479 -0.030950068
0.013536709 -0.02856322 0.019060478 -0.008413755 -0.013179802 0.032560907 -0.02522419 -0.017992327
-0.00905838 0.01881881 0.02874297 0.033997186 -0.0025979695 -0.013117936 0.03529825 0.016901486
0.02610648 -0.012682904 0.02679715 0.025276132 -0.028708171 -0.035710514 0.019073214 -0.030685417
0.034031462 -0.016129568 -0.009088306 0.035824243 0.02208329 0.015505318 0.03268575 0.0010962399
0.02031058 0.0325276 0.005268012 0.010336242 0.02606463 0.021003142 0.008100454 -0.0360293
-0.0039621987 0.023867613 0.01960798 0.006236241 0.017569652 0.033331938 0.030667823 -0.015602611
-0.017550817 -0.0030851252 0.0084969355 0.021146549 -0.016918752 -0.021679793 -0.0017836218 -0.017187193
-0.0286407 0.0148922885 0.0051415972 0.024175396 0.030446136 0.026922587 -0.016724698 0.022721294
