src/TRAINED_MODEL_DIR/image_fragment_model_linear_fd_256_epoch_3.pth (torch, 789821 bytes, 2 tensors)

linear.weight f4 [256, 768]
0	0x3d04e449	0.032444272
1	0x3ced8d94	0.028998174
2	0x3c8f79af	0.017514078
3	0xbc4ee078	-0.01262676
4	0x3cfeba8e	0.031094816
5	0x3cc607b4	0.024173595
6	0xbcfa94de	-0.030588564
7	0x3cc443d5	0.023958126
8	0xbb87f02a	-0.004148503
9	0x3c20913d	0.0098002525
10	0x3b96e52a	0.004604955
11	0x3c4f9b2b	0.012671272
12	0x3c57b90e	0.013166679
13	0x3bbd2629	0.0057723713
14	0xbaf45ee8	-0.0018644007
15	0xbd07a678	-0.03311774
16	0x3beb1e3d	0.0071752355
17	0xbcfe4677	-0.03103946
18	0xbbbc25c8	-0.0057418086
19	0xbcc5f5d7	-0.024165077
20	0x3c99188f	0.018688468
21	0xbc831c30	-0.016004652
22	0xbc6e5207	-0.014545924
23	0xbc501488	-0.0127002075
24	0x3cd01723	0.025401657
25	0x3be2ebd2	0.0069250846
26	0xbd06d002	-0.032913215
27	0x3a3eb3fa	0.00072747434
28	0x3b8c69ba	0.0042850645
29	0x3d02b346	0.03190925
30	0x3c0c5c0e	0.008566869
31	0x3d0ae681	0.033911232
32	0x3cf6f01d	0.030143792
33	0xbd054050	-0.032532036
34	0xbc77ddf1	-0.015128599
35	0x3c2a1ad5	0.010382374
36	0xbc9e0192	-0.019287858
37	0xbc29f8c3	-0.010374251
38	0xbb881e25	-0.004153984
39	0xbcdf6ada	-0.02727263
40	0xbb84c148	-0.0040513612
41	0xbd06f3f2	-0.032947488
42	0x3cc388c9	0.023868935
43	0x3c8bd435	0.017068962
44	0x3b26d62b	0.0025457244
45	0xbcbfc61f	-0.023409901
46	0xbc40678e	-0.011743439
47	0x3b87eb62	0.004147933
48	0xbcd8a84b	-0.026447436
49	0x3cf0ed20	0.029409945
50	0xbcad32c1	-0.021142365
51	0x3c3f116b	0.011661868
52	0xbb82b876	-0.0039892746
53	0xbc9a61ef	-0.018845527
54	0xbc29fa78	-0.010374658
55	0xbb2a1acc	-0.0025955914
56	0xbccc0c5b	-0.024908235
57	0x3c8eac9d	0.017416293
58	0xbce5eab9	-0.028066026
59	0xbce86aa5	-0.028371165
60	0x3c9111c0	0.01770866
61	0xb994b27c	-0.0002836174
62	0xbb49c9a6	-0.0030790358
63	0x3c511a87	0.012762672
64	0x3c9c7774	0.019099928
65	0x3c6ed709	0.014577636
66	0x3c074366	0.008255815
67	0x3c4b3397	0.012402437
68	0xbb36bc86	-0.0027883365
69	0xbcfa3fdd	-0.03054803
70	0xbbade0af	-0.0053063254
71	0xbca9a857	-0.020710154
72	0x3d107d37	0.035275664
73	0x3cc6fb70	0.024289817
74	0x3a0a123d	0.0005267
75	0xbccf7c1c	-0.025327735
76	0xbb5489a4	-0.0032430673
77	0xbbc93f2d	-0.0061415643
78	0xbcc0197b	-0.02344965
79	0xbcdc124a	-0.02686419
80	0xbbea47d6	-0.007149677
81	0x3c282d34	0.0102646835
82	0x3b7a6705	0.0038208377
83	0xbc21d2f7	-0.009876958
84	0xbc53a470	-0.012917623
85	0x3c8ba08a	0.017044324
86	0x3c07fbb8	0.0082997605
87	0x3c8978e9	0.016781287
88	0xb9f58f50	-0.00046836818
89	0xbcb647ea	-0.022251088
90	0xbc6aff49	-0.014343091
91	0x3be255a7	0.006907183
92	0x3ae5cb26	0.0017531856
93	0x3cbc7b59	0.023008035
94	0xbcd82014	-0.026382484
95	0x3ce4b941	0.027920367
96	0xbc11d5fb	-0.008901115
97	0xbad41afd	-0.001618236
98	0xbd03d248	-0.03218296
99	0x3cc2e775	0.023792008
100	0xbc32d66e	-0.010915382
101	0x3b0f304e	0.002184886
102	0x3c9146ea	0.01773401
103	0xba7c92be	-0.00096349034
104	0xbc896821	-0.016773285
105	0x3ad5d02e	0.0016312653
106	0x3c613387	0.013745195
107	0x3c566a75	0.013086905
108	0xbcfbf72b	-0.030757507
109	0xbc703c4d	-0.014662814
110	0xbcd95143	-0.026528006
111	0x3c2b44fa	0.010453457
112	0x3c0018e6	0.007818436
113	0x3bfa5d08	0.0076404847
114	0x3b9f87bc	0.0048684757
115	0xbc7fa6f8	-0.015603773
116	0x3d11461a	0.035467245
117	0xbb995885	-0.004679742
118	0xbae7c9bb	-0.0017684022
119	0xbcdf3cc2	-0.027250651
120	0x3cf2cab9	0.029637681
121	0x3caea9b7	0.02132116
122	0x3bb231de	0.0054380735
123	0x3cf22df4	0.029562928
124	0xbbc71d26	-0.006076473
125	0xbcc24cc5	-0.023718247
126	0x3d06d453	0.032917332
127	0xbd081622	-0.033224232
128	0x3cb49b6b	0.022046765
129	0xbaecc6fe	-0.0018064675
130	0xbb8d5b95	-0.004313896
131	0x3d09fafd	0.033686627
132	0x3c4f4bc6	0.012652343
133	0x3c4a8c9b	0.0123626245
134	0xbb6b3117	-0.0035887414
135	0x3c1e54b5	0.00966375
136	0xbc278403	-0.010224345
137	0xbbd5889b	-0.006516529
138	0xbd0fcc00	-0.03510666
139	0x3cff215d	0.031143839
140	0xbd072bc1	-0.03300071
141	0x3c5f43f1	0.013627038
142	0xbcb3f7fe	-0.021968838
143	0xbd078d98	-0.03309402
144	0xbcc44e40	-0.023963094
145	0xba9f3085	-0.0012145197
146	0xbcb3fcb9	-0.021971093
147	0x3ce1ec38	0.027578458
148	0x3ca550e2	0.02018017
149	0x3cca8d34	0.024725534
150	0x3b8d94ce	0.0043207174
151	0x3c2657d4	0.010152776
152	0xbc0ace8e	-0.008472098
153	0xbc524ca9	-0.01283566
154	0x3c55eb27	0.013056553
155	0xbc00702c	-0.007839244
156	0xbc42af7d	-0.01188266
157	0xbc07e507	-0.0082943505
158	0x3b1c69a7	0.0023866685
159	0x3d041d9e	0.032254808
160	0xbce8baf4	-0.028409459
161	0x3cd2c235	0.02572737
162	0xbc963d89	-0.01833989
163	0xbb5b2411	-0.0033438245
164	0xbcd737b6	-0.026271682
165	0x3c8ee8f0	0.017445058
166	0xbca70b75	-0.020391205
167	0x3b568b4a	0.0032736831
168	0xbce14f96	-0.02750377
169	0x3c311879	0.010809057
170	0x3c86e68a	0.016467351
171	0x3c846c84	0.016165026
172	0xbbc77d78	-0.006087955
173	0x3cd0c1d5	0.025483051
174	0x3b21c733	0.0024685382
175	0xbacc8e49	-0.0015606369
176	0x3c0e72a9	0.008694329
177	0xba93420a	-0.0011234891
178	0xbc75b24a	-0.014996121
179	0xbc01b56f	-0.007916792
180	0xbd0923fc	-0.033481583
181	0x3cefdc67	0.0292799
182	0x3c69c5c9	0.014268347
183	0x3c861ec5	0.016372094
184	0xbb28b182	-0.0025740569
185	0x3c6299f3	0.01383065
186	0x3c599008	0.013278969
187	0x3cd57565	0.026056955
188	0xbcf0201e	-0.02931219
189	0x3cb479a0	0.022030652
190	0x3cce82e9	0.025208907
191	0x3c05343e	0.008130131
192	0xbd1124a6	-0.03543534
193	0xbc692d75	-0.014232029
194	0x39f17cfa	0.00046060217
195	0x3c2560cc	0.010093879
196	0x3d01b38c	0.03166537
197	0xb8dc0ee2	-0.000104931896
198	0x3d128168	0.035767943
199	0xbaf94ce6	-0.001902011
200	0x3b16d9b6	0.002301795
201	0xbcbb1d0e	-0.022841003
202	0x3ba845e4	0.0051352847
203	0xbba0046b	-0.004883339
204	0x3cfbdc76	0.030744772
205	0xbcacd301	-0.021096708
206	0xb88a7e23	-6.6038476e-05
207	0xbc8d03c5	-0.017213712
208	0x3af71dcd	0.0018853486
209	0x3bbb9831	0.0057249297
210	0x3d11b98e	0.03557735
211	0xbcaeaadb	-0.021321705
212	0xbcdee994	-0.027210988
213	0xbc0a40e5	-0.008438324
214	0x3c2042ba	0.009781534
215	0xbce93ee2	-0.028472368
216	0xbb378e85	-0.0028008532
217	0x3b8fa520	0.004383698
218	0x3caf99b5	0.021435598
219	0xbcd5a25c	-0.026078396
220	0xbbd11f03	-0.0063818707
221	0x3ca22321	0.019792141
222	0xb9e7f835	-0.00044244682
223	0x3c49c5c3	0.0123152165
224	0x3cec1fdb	0.028823784
225	0xbcef81a8	-0.02923663
226	0x3c26118d	0.01013602
227	0x3b25957d	0.0025266104
228	0xbaa214c0	-0.0012365803
229	0xbd04dbc1	-0.032436136
230	0x3b77276b	0.0037712704
231	0x3d104bf0	0.03522867
232	0x3bf6180e	0.0075101918
233	0xbc51c163	-0.012802455
234	0x3b9b176b	0.0047330162
235	0x3cfa0df5	0.030524233
236	0xbc208580	-0.009797454
237	0xbc43e13a	-0.011955554
238	0xbceee8f0	-0.029163808
239	0x3cb88b07	0.02252723
240	0x3d0475cb	0.0323389
241	0x3ca9f24f	0.020745425
242	0xbc1250dd	-0.008930412
243	0x3ccbe427	0.024889065
244	0xbc61cc50	-0.013781622
245	0x3ad092e4	0.0015912917
246	0xbb807069	-0.0039196503
247	0xbbececc8	-0.007230375
248	0xbc4b6322	-0.012413772
249	0x3b86a85a	0.0041094245
250	0x3ca5ed8a	0.020254869
251	0xbc8b3860	-0.016994655
252	0x3c833666	0.01601715
253	0xbcf164ea	-0.029467065
254	0xbcd8eb0d	-0.026479268
255	0xbc894c7f	-0.016760109

linear.bias f4 [256]
0	0xbcc12b63	-0.023580259
1	0xbcb61ddd	-0.022231037
2	0x3cf69a70	0.030102938
3	0x3c11be09	0.008895406
4	0x3c3032e5	0.010754322
5	0x3cb569e7	0.022145225
6	0xbbddc8a9	-0.0067683053
7	0x3cc61766	0.02418108
8	0x3cbb4a50	0.022862583
9	0x3b8f3ba9	0.0043711257
10	0x3d0c8068	0.034302145
11	0x3b9d9958	0.0048095398
12	0x3b8eecff	0.004361748
13	0xbb97b32d	-0.0046295137
14	0xbcbbb030	-0.022911161
15	0x3c7bdebf	0.015372931
16	0xbc47d632	-0.012197064
17	0x3c1a4cb3	0.009417701
18	0x3cf48854	0.029850163
19	0x3d13aaa4	0.036051407
20	0xbcde4517	-0.027132554
21	0xbc12067e	-0.008912681
22	0x3c987660	0.018611133
23	0x3c06f3f9	0.008236879
24	0x3ca5e97a	0.020252932
25	0x3c912be2	0.01772112
26	0xbb16f323	-0.0023033104
27	0x3b3c67c5	0.0028748375
28	0x3c85e659	0.01634519
29	0xbc585f38	-0.013206296
30	0xbc67d686	-0.0141502675
31	0xbc2195f5	-0.009862413
32	0xbcab860a	-0.020937938
33	0x3c108697	0.008821151
34	0xbc222b9e	-0.009898094
35	0x3cf53670	0.029933184
36	0x3cda7dbb	0.026671281
37	0x3c889a37	0.016675098
38	0xbd01e669	-0.031713877
39	0xbcb3cd06	-0.021948349
40	0x3ca4a5e6	0.020098638
41	0x3c3477c0	0.011014879
42	0xbc89555b	-0.016764333
43	0xbc6a686a	-0.014307121
44	0xbccb10c3	-0.024788266
45	0x3c86dc28	0.0164624
46	0xbca672ad	-0.020318354
47	0xba2c8341	-0.00065808377
48	0x3c91d76e	0.01780292
49	0xbca02089	-0.019546764
50	0xbc1e1915	-0.009649535
51	0xbc3b4a85	-0.011431341
52	0xbbdfe207	-0.0068323645
53	0x3d01fe26	0.031736515
54	0xbcf5bf60	-0.029998481
55	0xbc449604	-0.011998657
56	0x3cdd330c	0.02700188
57	0x3ce15614	0.027506866
58	0xbc7ebad9	-0.015547478
59	0x3d11efca	0.03562907
60	0x3cb45778	0.022014365
61	0xb9693eba	-0.00022243979
62	0x3d050a2f	0.032480415
63	0x3c02c595	0.007981678
64	0x3cdb8375	0.026796082
65	0xbcb1a34f	-0.021684317
66	0x3c94f5d2	0.018183623
67	0x3cafdb6b	0.021466931
68	0xbce549b4	-0.027989246
69	0x3cfe98eb	0.031078776
70	0xbc1091bd	-0.008823809
71	0x3c3ab657	0.011396012
72	0xbcced88c	-0.025249742
73	0xbd00aa0b	-0.031412166
74	0x3afab164	0.0019126353
75	0x3ca93c4b	0.020658633
76	0xbba936ea	-0.005164017
77	0x3c500656	0.012696823
78	0x3c012fbe	0.007884918
79	0x3c2f9973	0.0107177375
80	0x3b8f03fb	0.004364488
81	0xbc70dd6c	-0.014701229
82	0x3d10798d	0.03527217
83	0xbc80340b	-0.015649816
84	0x3ad1acd5	0.0015996943
85	0xbac02e53	-0.0014662243
86	0xbc82478d	-0.015903259
87	0x3b8e5d2a	0.004344602
88	0xbc0fce4e	-0.008777214
89	0x3baf46a7	0.0053489986
90	0x3c988e43	0.018622523
91	0xbca1afe9	-0.0197372
92	0xbc1b3d99	-0.009475135
93	0x3c235235	0.00996833
94	0xbc76ae3f	-0.015056192
95	0xbc8752d4	-0.016518988
96	0xbd0bd7eb	-0.034141462
97	0x3cdf603a	0.027267564
98	0x3d035c69	0.03207055
99	0x3c7d7095	0.015468736
100	0x3cd7dfc0	0.02635181
101	0xbcd533f1	-0.026025744
102	0xbc593a9d	-0.013258603
103	0x3c2cef74	0.010555137
104	0x3cbe2ac0	0.023213744
105	0x3c4694b3	0.012120414
106	0xbd0971ed	-0.033555914
107	0xbc803244	-0.015648969
108	0xbcf9c19c	-0.030487828
109	0xb8b97958	-8.8440895e-05
110	0x39e22006	0.00043129938
111	0xbccf7fb0	-0.02532944
112	0xbcf62e11	-0.030051263
113	0x3d0093f6	0.031391107
114	0x3c1ac6ef	0.0094468435
115	0x3cc7393d	0.024319286
116	0x3c82628d	0.015916133
117	0x3cc83d37	0.024443252
118	0x3ce911d4	0.028450884
119	0xbbc2a9ea	-0.0059406655
120	0xbcf6477f	-0.030063389
121	0xbc76e268	-0.015068628
122	0xbbf835fb	-0.0075747943
123	0x3cfe8bf7	0.0310726
124	0xbcedfc2a	-0.029050905
125	0x3d0aa444	0.033848062
126	0x3c0c220a	0.008553037
127	0xbb8501f4	-0.0040590707
128	0x3c4acf12	0.012378471
129	0xbba077c5	-0.00489709
130	0x3b88bfd0	0.0041732565
131	0xbc12b7b8	-0.008954935
132	0x3bf99571	0.0076166918
133	0x3c7d49e7	0.015459514
134	0x3c83c755	0.01608626
135	0x3b864d1a	0.0040985467
136	0xbaa0425d	-0.0012226809
137	0x3c83f7d9	0.016109394
138	0x3aa62f5a	0.0012678907
139	0xbcf6a275	-0.030106762
140	0xbd05ab30	-0.03263396
141	0xba4ace83	-0.0007736461
142	0x3ccab096	0.024742406
143	0x3d0739b1	0.033014003
144	0xbccaf712	-0.024776015
145	0xbcc3e19d	-0.023911292
146	0x3bb5e5c1	0.0055510704
147	0xbc4591c7	-0.012058682
148	0x3c9665b2	0.018359039
149	0x3ce765e3	0.028246826
150	0xbc255d17	-0.010092995
151	0x3bda8103	0.0066682114
152	0x3cf5ac76	0.029989462
153	0xbbf159a5	-0.007365423
154	0x3a3c63cd	0.00071865023
155	0xbc538f27	-0.012912548
156	0xbc6b889f	-0.014375835
157	0xbcf55eef	-0.029952494
158	0xbbfce1da	-0.0077173533
159	0x3ca84dd4	0.020544924
160	0xbb348a1d	-0.0027548142
161	0xbc8c8c3e	-0.017156716
162	0x39bbf869	0.000358525
163	0xbc0b6752	-0.00850852
164	0x3d0b30ae	0.03398197
165	0xbba6efef	-0.0050945203
166	0x3cac0857	0.02100007
167	0x3cdf59ee	0.027264562
168	0x3d02c9c7	0.03193071
169	0xbd139b18	-0.03603658
170	0xba826be0	-0.0009950362
171	0x3c29fa5e	0.010374634
172	0xbc596d18	-0.013270639
173	0x3c4379ff	0.011930942
174	0xbc5e0142	-0.013550105
175	0x3d0706fa	0.032965638
176	0xbcf06eff	-0.029349802
177	0x3d0791c9	0.033098016
178	0xbb1d9171	-0.0024042989
179	0x3cf933e1	0.030420246
180	0x3c136de0	0.008998364
181	0xbbe7ed39	-0.0070778397
182	0xbc5bb5dc	-0.013410058
183	0x3d11f683	0.035635483
184	0x3cd6240e	0.02614024
185	0x3ba0bc70	0.004905276
186	0x3bd5cef8	0.0065249167
187	0x39a6c4b6	0.00031808548
188	0x3ae8e9fe	0.001776993
189	0x3cde2a49	0.027119773
190	0xbc7956ed	-0.015218479
191	0xbcfd8aff	-0.030950068
192	0x3c5dc913	0.013536709
193	0xbce9fd6a	-0.02856322
194	0x3c9c24b8	0.019060478
195	0xbc09d9d9	-0.008413755
196	0xbc57f019	-0.013179802
197	0x3d055e96	0.032560907
198	0xbccea2f6	-0.02522419
199	0xbc9364a5	-0.017992327
200	0xbc146999	-0.00905838
201	0x3c9a29e8	0.01881881
202	0x3ceb7661	0.02874297
203	0x3d0b40a2	0.033997186
204	0xbb2a42b2	-0.0025979695
205	0xbc56ec9d	-0.013117936
206	0x3d1094e6	0.03529825
207	0x3c8a74fc	0.016901486
208	0x3cd5dd42	0.02610648
209	0xbc4fcbf4	-0.012682904
210	0x3cdb85b2	0.02679715
211	0x3ccf0fe4	0.025276132
212	0xbceb2d66	-0.028708171
213	0xbd124530	-0.035710514
214	0x3c9c3f6e	0.019073214
215	0xbcfb5ffc	-0.030685417
216	0x3d0b6493	0.034031462
217	0xbc842228	-0.016129568
218	0xbc14e71e	-0.009088306
219	0x3d12bc71	0.035824243
220	0x3cb4e804	0.02208329
221	0x3c7e0a04	0.015505318
222	0x3d05e17e	0.03268575
223	0x3a8fafb5	0.0010962399
224	0x3ca66260	0.02031058
225	0x3d053ba9	0.0325276
226	0x3bac9f4a	0.005268012
227	0x3c295957	0.010336242
228	0x3cd5857e	0.02606463
229	0x3cac0ec8	0.021003142
230	0x3c04b7c4	0.008100454
231	0xbd139376	-0.0360293
232	0xbb81d555	-0.0039621987
233	0x3cc38603	0.023867613
234	0x3ca0a0ea	0.01960798
235	0x3bcc5962	0.006236241
236	0x3c8fee3b	0.017569652
237	0x3d088712	0.033331938
238	0x3cfb3b16	0.030667823
239	0xbc7fa218	-0.015602611
240	0xbc8fc6bb	-0.017550817
241	0xbb4a2fd0	-0.0030851252
242	0x3c0b36bb	0.0084969355
243	0x3cad3b87	0.021146549
244	0xbc8a9932	-0.016918752
245	0xbcb199d2	-0.021679793
246	0xbae9c86b	-0.0017836218
247	0xbc8ccc28	-0.017187193
248	0xbcea9fe7	-0.0286407
249	0x3c73fec9	0.0148922885
250	0x3ba87ad8	0.0051415972
251	0x3cc60b7b	0.024175396
252	0x3cf96a2d	0.030446136
253	0x3cdc8cc2	0.026922587
254	0xbc89023c	-0.016724698
255	0x3cba2202	0.022721294
