src/TRAINED_MODEL_DIR/image_fragment_model_conv_fd_32_epoch_2.pth (torch, 115229 bytes, 4 tensors)

conv1.weight f4 [32, 3, 5, 5]
0	0xbd42e19e	-0.047578447
1	0xbd8b41b6	-0.06799643
2	0xbd0cb095	-0.03434809
3	0xbd963498	-0.0733425
4	0xbd551f14	-0.05203159
5	0xbdc17caf	-0.0944761
6	0xbced8438	-0.02899371
7	0x3c9de572	0.019274447
8	0x3d8ba921	0.06819368
9	0xbd07c0f7	-0.03314301
10	0x3d265fad	0.040618587
11	0x3d95bf49	0.073118754
12	0x3d6db823	0.058036935
13	0xbd615c58	-0.055019706
14	0x3db19db2	0.08672656
15	0x3d618a8c	0.05506377
16	0xbcaeb753	-0.02132765
17	0xbca5c76e	-0.020236697
18	0xbc412f3f	-0.0117910495
19	0xbd53d2fd	-0.051714886
20	0xbc9ffb10	-0.019528896
21	0xbdd6e70f	-0.1049329
22	0xbd944ed4	-0.07241598
23	0xbd87eaea	-0.06636603
24	0xbd78d42e	-0.060749225
25	0x3d01d88d	0.03170066
26	0x3bd92985	0.006627264
27	0xbc42bfd0	-0.011886552
28	0x3db54361	0.08850742
29	0xbdb5aa82	-0.088704124
30	0xbda5f96a	-0.081042126
31	0xbd19cc54	-0.037548378
32	0x3d2d3bb0	0.04229325
33	0xbdd51d0b	-0.1040593
34	0x3ce0b452	0.027429733
35	0x3d5210e6	0.051285647
36	0x3d0fe241	0.035127882
37	0xbd31a77f	-0.043372627
38	0x3c295ad8	0.0103366
39	0xbbb5e196	-0.0055505736
40	0x3c91cc5e	0.017797645
41	0x3d881b4e	0.06645833
42	0xbd3c7e20	-0.04601872
43	0x3d6240ce	0.055237584
44	0xbdbab43d	-0.09116409
45	0x3b135d38	0.0022485983
46	0xbd99970a	-0.074995115
47	0xbd002dd1	-0.031293694
48	0x3d4f9836	0.05068227
49	0xbdea8daf	-0.11452805
50	0xbd8df2b7	-0.0693106
51	0xbdad600e	-0.084655866
52	0xbcc4360d	-0.023951555
53	0x3d38db01	0.045130733
54	0xbb07e6a4	-0.0020736838
55	0xbdcab9db	-0.0989873
56	0x3d4a77e5	0.049430747
57	0xbbad3358	-0.0052856617
58	0xbdc88480	-0.09790897
59	0x3d956472	0.07294549
60	0xbd9f3cf1	-0.077752955
61	0xbde24e2d	-0.11050067
62	0x3d05c692	0.032660075
63	0x3dbd216e	0.09234892
64	0xbd810977	-0.063006334
65	0x3ad93e72	0.0016574396
66	0xbd479fcc	-0.04873638
67	0xbccc6145	-0.024948725
68	0xbd98816c	-0.0744656
69	0x3d547f84	0.05187942
70	0xbd02641d	-0.031833757
71	0xbd0aa0f8	-0.033844918
72	0x3d04fccd	0.032467652
73	0xbc704b66	-0.014666414
74	0x3ddd99f8	0.10820383
75	0xbd470c78	-0.048595876
76	0x3a9f2722	0.00121424
77	0x3dbb8538	0.09156269
78	0xbd8b66e2	-0.06806733
79	0xbd3515f7	-0.0442104
80	0xbd869a46	-0.06572394
81	0x3db836dc	0.089948386
82	0x3dd48fc5	0.10378984
83	0xbce3d99c	-0.027813725
84	0x3d6b2905	0.057412166
85	0x3d9445d4	0.07239881
86	0xbd88312e	-0.06650005
87	0xbdd3532b	-0.103185974
88	0xbc9e730b	-0.019341966
89	0xbdd0c5dc	-0.10193989
90	0xbdbde0a7	-0.09271365
91	0x3d84d1f9	0.064853616
92	0xbd3960d8	-0.045258373
93	0xbd9f7ad0	-0.077870965
94	0xbda33831	-0.07969702
95	0x3d36d8da	0.0446404
96	0xbdd4aecd	-0.10384903
97	0xbdd1f1a1	-0.10251165
98	0x3d98c5af	0.0745958
99	0xbdd7601d	-0.10516379
100	0x3dc0097a	0.093768075
101	0xbd43fc54	-0.04784806
102	0xbd8e420d	-0.06946192
103	0xbdb4351b	-0.087991916
104	0xbcc8ace9	-0.024496512
105	0x3aa00ea3	0.0012211393
106	0xbd80067d	-0.062512375
107	0xbd8e36a7	-0.06944018
108	0xbd7e70b9	-0.06211922
109	0xbcd2ace3	-0.025717204
110	0xbd4d37ca	-0.050102033
111	0xbdcab9d0	-0.09898722
112	0x3dc70e15	0.09719483
113	0xbdd11cd8	-0.1021058
114	0xbd8de44e	-0.06928311
115	0x3d96f383	0.07370665
116	0xbbdd2a9c	-0.006749464
117	0xbdb824a9	-0.08991367
118	0x3d4f04d1	0.050541703
119	0xbdae1e2f	-0.08501851
120	0xbdb91d54	-0.09038797
121	0x3c206ec4	0.009792034
122	0x3c34dc35	0.01103883
123	0x3ca7c7ab	0.020480951
124	0xbd12d560	-0.03584802
125	0x3dc17ef3	0.09448042
126	0xbd5a4a34	-0.053293422
127	0x3dea20cd	0.114320375
128	0xbd9d4423	-0.07679012
129	0xbdb5845d	-0.08863137
130	0xbddde546	-0.10834746
131	0x3dd20d65	0.10256461
132	0xbd0cea48	-0.034403116
133	0x3d9b327e	0.0757799
134	0xbda88fd6	-0.082305595
135	0x3d494dd7	0.0491465
136	0xbd3b366a	-0.04570619
137	0x3d7ae893	0.061256956
138	0xbce0b42f	-0.027429668
139	0x3dc42501	0.095773704
140	0xbd4c4676	-0.049871884
141	0xbd0ac372	-0.033877797
142	0x3d01f202	0.031724937
143	0xbda201f6	-0.0791053
144	0xbdd83716	-0.10557382
145	0x3c8e04a6	0.0173362
146	0xbdc9e592	-0.0985824
147	0xbdc190ea	-0.09451468
148	0xbd5689aa	-0.05237738
149	0x3db4365c	0.08799431
150	0x3db09ace	0.08623277
151	0xbba6b9f3	-0.005088085
152	0x3dea7bf1	0.11449421
153	0x3d901533	0.070352934
154	0x3bc7e88b	0.0061007193
155	0xbd8ae8ae	-0.067826614
156	0x3dab30e4	0.083589345
157	0x3d3547e1	0.044258002
158	0xbdc321e9	-0.09527952
159	0xbd9fa184	-0.077944785
160	0xbddba0a3	-0.107239984
161	0x3dada555	0.084788
162	0x3c6bfa30	0.014402911
163	0x3db346bf	0.08753728
164	0x3ce4a69f	0.027911482
165	0x3d2c71a2	0.042100556
166	0xbce96e9c	-0.028495125
167	0xbc586771	-0.013208256
168	0xbddd63bd	-0.10810039
169	0xbc8b5730	-0.017009348
170	0xbc19492a	-0.009355823
171	0x3cfae001	0.030624392
172	0xbde7804d	-0.11303768
173	0x3dd8d370	0.105872035
174	0xbdc6d667	-0.09708863
175	0xbde51ea4	-0.11187485
176	0xbd986336	-0.07440798
177	0xbd2e16e2	-0.04250229
178	0xbce55eeb	-0.027999362
179	0x3d4f2280	0.05057001
180	0x3d14d17e	0.0363326
181	0x3da9e725	0.082960404
182	0x3d9159de	0.07097219
183	0xbd686876	-0.056740247
184	0xbd780315	-0.060549814
185	0xbc6091f4	-0.013706673
186	0xbd4a20f6	-0.04934784
187	0xbdd6b0f8	-0.10482973
188	0x3bb79044	0.0056019146
189	0x3ba64170	0.0050737187
190	0x3c3e6f10	0.011623159
191	0xbd94312d	-0.07235942
192	0x3d5f3c67	0.054500964
193	0xbde41310	-0.111364484
194	0xbd18f63a	-0.037344195
195	0x3dad4cc9	0.08461911
196	0xbcdfebea	-0.027334172
197	0xbd87d790	-0.06632912
198	0x3dc0bc3a	0.09410901
199	0xbd931048	-0.0718084
200	0xbcc16460	-0.023607433
201	0xbd50312b	-0.05082814
202	0xbdd1d1c0	-0.10245085
203	0xbd5ee13e	-0.054414026
204	0xbdc925ba	-0.09821649
205	0x3dd6f397	0.1049568
206	0xbd74d224	-0.05977072
207	0x3da68ee1	0.08132721
208	0xbd6fe770	-0.058570325
209	0x3de76502	0.112985626
210	0x3d6bd11a	0.05757246
211	0xbd2f94ce	-0.04286652
212	0x3dd39d5c	0.10332748
213	0x3b98da78	0.0046647154
214	0x3c5b0623	0.013368162
215	0xbd2726b6	-0.040808402
216	0x3da596e8	0.08085424
217	0x3d9bbb03	0.07604029
218	0x3d93d32c	0.07218012
219	0xbb156ae1	-0.00227993
220	0x3d9d956c	0.076945156
221	0x3da01a39	0.078175016
222	0xbdd2f257	-0.10300129
223	0xbda14556	-0.07874553
224	0xbd98a7bb	-0.07453867
225	0xbda99145	-0.08279661
226	0x3de8011f	0.11328339
227	0x3d0b9223	0.034074914
228	0x3db40626	0.08790235
229	0xbd892fff	-0.06698608
230	0x3d4170c1	0.04722667
231	0x3d55d4a2	0.052204736
232	0x3d0ac803	0.033882152
233	0x3da1e52f	0.079050414
234	0x3d2d1270	0.04225391
235	0x3d09add9	0.03361306
236	0xbbbd6161	-0.0057794307
237	0xbccc5524	-0.024942942
238	0xbc36e2c5	-0.0111624645
239	0xbd8cf4ec	-0.06882653
240	0xbcc0a0f0	-0.023514241
241	0x3dc110e2	0.09427048
242	0x3d990bb0	0.07472932
243	0x3d0b8d09	0.03407005
244	0x3da23ba0	0.07921529
245	0xbdda4839	-0.10658307
246	0xbd6faee9	-0.058516417
247	0xbd925df3	-0.07146826
248	0x3b81802f	0.0039520483
249	0x3cf57203	0.029961592
250	0xbd58cfb0	-0.05293244
251	0xbc8417e1	-0.016124668
252	0xbd97b493	-0.07407489
253	0xbd350cf4	-0.044201806
254	0xbc30a15e	-0.01078066
255	0x3dd721a8	0.10504466

conv1.bias f4 [32]
0	0xbdc98bc6	-0.09841113
1	0x3ce7a403	0.02827645
2	0xbd725aaa	-0.059168495
3	0xbd84abb2	-0.06478061
4	0xbd3cd760	-0.046103835
5	0x3c9ef4ca	0.019403834
6	0xbd5f1ae1	-0.054468993
7	0xbb8906c3	-0.0041817143
8	0x3cc386c6	0.023867976
9	0x3d7f7550	0.062367737
10	0x3de7b308	0.113134444
11	0xbdac2c10	-0.08406842
12	0x3cfb5856	0.03068177
13	0xbda1c4c9	-0.07898862
14	0xbda5a7e9	-0.08088667
15	0xbccf604b	-0.02531447
16	0x3d997b44	0.07494214
17	0xbdddf1aa	-0.108371094
18	0x3b3d1551	0.0028851817
19	0x3d14ff29	0.036376152
20	0xbde6d74c	-0.11271533
21	0x3d3fb7ce	0.04680615
22	0xbcea1a76	-0.02857707
23	0xbd2385c9	-0.03992251
24	0xbbd8b5b1	-0.006613456
25	0xbd6d95d8	-0.05800423
26	0xbd7e870c	-0.06214051
27	0xbdc7e26b	-0.09759983
28	0x3d4637f3	0.0483932
29	0x3c039373	0.00803076
30	0xbd575f96	-0.052581392
31	0xbd9611dc	-0.07327625

conv2.weight f4 [32, 32, 5, 5]
0	0xbd08b202	-0.033372886
1	0xbc6aebaa	-0.014338413
2	0xbc1f2aed	-0.009714824
3	0xbc31d796	-0.010854622
4	0x3cd6a3fd	0.026201243
5	0x3bef5fd2	0.007305124
6	0xbc5917f6	-0.013250342
7	0xbbafd63e	-0.005366116
8	0x3c2f2f74	0.010692466
9	0x3d062f5a	0.03276
10	0xbc05607e	-0.008140681
11	0xbca060ce	-0.01957741
12	0xbd00b4e1	-0.0314225
13	0xbcb4743e	-0.022028085
14	0x3c173e6e	0.009231193
15	0x3cff1550	0.031138092
16	0x3b631cde	0.0034654657
17	0x3c2919a1	0.010321052
18	0x3c8a252e	0.016863432
19	0xbc80cb47	-0.01572193
20	0x3c1ea320	0.009682447
21	0x3b95d539	0.0045725373
22	0xbd0760f2	-0.03305144
23	0x3cc7a875	0.024372319
24	0xbccec833	-0.025241947
25	0x39e7d6cf	0.00044219798
26	0x3bf0d44f	0.007349528
27	0x3b5a7421	0.0033333378
28	0xbb75cc7c	-0.0037505915
29	0x3cfdd31d	0.030984456
30	0x3c85c404	0.01632882
31	0x3b810a1a	0.003937972
32	0xbcc38467	-0.023866845
33	0xbbb1b611	-0.0054233153
34	0x3c34005b	0.010986413
35	0xbb2e37cb	-0.0026583548
36	0xbc60a116	-0.013710281
37	0x3cbd2267	0.023087693
38	0x3cb6d550	0.022318512
39	0xbc061ffd	-0.008186338
40	0xbbadd6e2	-0.005305157
41	0x3c46481c	0.012102153
42	0x3cf03c51	0.029325636
43	0xbd0b32ee	-0.033984117
44	0x3a761660	0.00093874894
45	0x3cc488c9	0.023991005
46	0xbc314bb0	-0.010821268
47	0xbcd95b51	-0.0265328
48	0xbcecdcb0	-0.028913826
49	0xbb34513c	-0.002751424
50	0xbbe1fddb	-0.006896717
51	0x3ceaab21	0.028646054
52	0x3c6643f4	0.014054287
53	0x3a541bb9	0.0008091289
54	0xbc0a5721	-0.008443625
55	0x3c7a370c	0.015271913
56	0xbc98c857	-0.018650217
57	0xbbf5fa76	-0.007506664
58	0xbd04b598	-0.032399744
59	0xbcdc4802	-0.026889805
60	0x3bb21d7c	0.0054356437
61	0x3c79dc11	0.015250222
62	0x3d02c8d2	0.0319298
63	0xbb476af3	-0.0030428737
64	0x3bbd2d9f	0.0057732607
65	0x3bd31a22	0.0064423243
66	0xbcdeeaab	-0.027211508
67	0x3c909330	0.01764831
68	0xbca8e1f0	-0.020615548
69	0xbccc0e0b	-0.02490904
70	0xbd08877a	-0.033332326
71	0xbba90e45	-0.0051591718
72	0xbd01876d	-0.031623293
73	0x3bf41b80	0.0074495673
74	0x3c1c242f	0.009530111
75	0xbcbd66e7	-0.023120357
76	0xbc4e24b4	-0.012581993
77	0x3c63e4e0	0.0139095485
78	0xbca083f0	-0.019594163
79	0xbcf631ca	-0.030053038
80	0xbaf540dd	-0.0018711347
81	0xbcfa4181	-0.030548813
82	0xbc417508	-0.011807688
83	0x3cf66d29	0.030081348
84	0x3cdc9734	0.026927568
85	0xbbf9b08f	-0.0076199244
86	0x3b1dae9e	0.0024060379
87	0x3c1a8795	0.009431739
88	0x3c951cb6	0.018202167
89	0xbca4b89a	-0.020107556
90	0x3c26d547	0.010182685
91	0xbd100e81	-0.035170082
92	0x3cc057c6	0.023479354
93	0xbbea54d9	-0.007151228
94	0x3c85af2c	0.01631888
95	0xbc977bde	-0.018491682
96	0xbc7b9fa4	-0.0153578855
97	0xbc8b2eef	-0.016990153
98	0xbb84344d	-0.004034555
99	0x3ce8a457	0.028398676
100	0x3b91081c	0.0044260155
101	0xbc03233b	-0.008004005
102	0x3cb7c691	0.022433551
103	0xbcbda816	-0.023151439
104	0xbcc6d864	-0.024273105
105	0x3bb24d3a	0.005441335
106	0x3c53be92	0.0129238535
107	0xbc8aabdb	-0.01692765
108	0x3b3c500b	0.0028734233
109	0xbb9777e2	-0.0046224454
110	0xbc919db1	-0.017775388
111	0x3be3a1e8	0.006946791
112	0xbc83bed9	-0.016082214
113	0x3ce3c234	0.027802564
114	0xbc8f9fb5	-0.017532209
115	0x3cc9c557	0.024630232
116	0xbb3a3448	-0.002841251
117	0x3b011fc7	0.0019702779
118	0xbc97a813	-0.018512761
119	0x3c20330a	0.009777794
120	0xbc43a7d7	-0.011941872
121	0xbd054dbe	-0.032544844
122	0x3bda808f	0.0066681574
123	0xbc6f111c	-0.014591482
124	0x3c436eb9	0.011928254
125	0xbd343c68	-0.04400292
126	0x3c10660a	0.0088133905
127	0x3c3bb37b	0.011456366
128	0x3c7e6d30	0.015528962
129	0x3c258721	0.010103018
130	0xbcf8442a	-0.03030594
131	0x3ae81f78	0.0017709574
132	0x3d07c577	0.0331473
133	0xbc4cc491	-0.012498037
134	0xbc2796ff	-0.010228871
135	0x3bda5a0e	0.0066635674
136	0xbd137180	-0.035996914
137	0x3c9ea42e	0.019365396
138	0x3cab8333	0.020936584
139	0x3bde058a	0.0067755627
140	0xbc9473ee	-0.018121686
141	0xbcc7ddd9	-0.024397777
142	0x3b539e44	0.0032290379
143	0x3cebc5aa	0.028780777
144	0xbc1fb2a6	-0.009747183
145	0xbcad29c5	-0.021138081
146	0xbcdb4da0	-0.026770413
147	0x3c007029	0.007839241
148	0x3b36b481	0.0027878585
149	0x3d2caf78	0.042159528
150	0xbb6f823c	-0.0036546132
151	0xbac99b7e	-0.0015381423
152	0xbcb32610	-0.021868736
153	0x3cb55032	0.022132967
154	0xbd0de891	-0.03464562
155	0x3c2130eb	0.009838323
156	0xbcf6dd0d	-0.030134702
157	0x3cc7d1d5	0.024392048
158	0x3c631230	0.013859317
159	0xbb00282d	-0.0019555197
160	0x3d037c48	0.032100946
161	0xbccda49b	-0.025102904
162	0xba952d7b	-0.0011381352
163	0xbcee6be5	-0.029104182
164	0x3d01f273	0.03172536
165	0xbc0756de	-0.008260457
166	0x3ccf691e	0.025318678
167	0xbcd8a4e1	-0.026445808
168	0xbca1510d	-0.019691968
169	0x3c9caf5b	0.019126585
170	0xbcb52b40	-0.02211535
171	0xbb8eba67	-0.004355717
172	0x3c592a96	0.013254782
173	0x3c148229	0.009064236
174	0x3ba0d31e	0.0049079796
175	0xbccd0a38	-0.025029287
176	0xbcd1c10d	-0.02560475
177	0xbb53134b	-0.0032207544
178	0xbb3bc5cb	-0.002865183
179	0x3b7110f7	0.0036783793
180	0xbb26642d	-0.00253893
181	0x3c2b3b10	0.010451093
182	0xbc0de298	-0.008659981
183	0x3ce90bb3	0.028447961
184	0x3d01bbea	0.03167335
185	0xbca61269	-0.02027245
186	0xbce44efc	-0.027869694
187	0xbd225f1b	-0.03964148
188	0xbcfa73ee	-0.030572858
189	0x3c9d59db	0.019207885
190	0xbd20f8aa	-0.039299645
191	0xbce15cb5	-0.027510026
192	0x3cf3d169	0.02976294
193	0x3cc8f39b	0.024530223
194	0x3d049e8f	0.032377776
195	0xbd279960	-0.040917754
196	0xbd21d182	-0.039506443
197	0xbcd9fa1c	-0.02660852
198	0xbaa0dfa1	-0.0012273678
199	0x3bb04e68	0.0053804405
200	0xbce9f758	-0.028560326
201	0x3bd14976	0.006386931
202	0x3c363952	0.011122065
203	0x3b64cfc0	0.0034913868
204	0xbcc9b963	-0.024624532
205	0x3c90e96d	0.017689431
206	0xbcf116ea	-0.029429872
207	0xbd0bc2ea	-0.03412143
208	0xbc3077a4	-0.010770712
209	0x3c2cdf49	0.010551282
210	0xbcac3588	-0.02102162
211	0xbd408136	-0.046998225
212	0xbcdc06eb	-0.026858767
213	0xbd000edc	-0.03126417
214	0x3c347389	0.011013874
215	0xbc462e8e	-0.01209606
216	0x3c606497	0.0136958575
217	0xbc289e71	-0.010291682
218	0x3cf11335	0.029428104
219	0x3c0c1f29	0.008552351
220	0xbb1d9e5b	-0.0024050686
221	0xbd14a117	-0.03628644
222	0xbcde4b28	-0.027135447
223	0xbcf3737c	-0.029718153
224	0xbc85560b	-0.01627638
225	0x3c93002d	0.01794442
226	0xbc704265	-0.014664267
227	0xbc643bb7	-0.013930253
228	0xbb3f1131	-0.0029154534
229	0xbc07b527	-0.008282936
230	0x3bbadad2	0.005702355
231	0xbd08b04b	-0.03337125
232	0xbcee6797	-0.02910213
233	0xbbdb1d00	-0.0066868067
234	0x3cbdd8c9	0.02317466
235	0xbcfc39d2	-0.03078929
236	0x3d024467	0.031803515
237	0x3d09cb2e	0.033641033
238	0x3d0991e2	0.03358639
239	0x3a45b1d2	0.0007541451
240	0x3c978bca	0.018499274
241	0xbbe4c9ed	-0.0069820792
242	0x3cc310e7	0.02381177
243	0x3cacdf7a	0.021102656
244	0x3bc40d1f	0.0059830095
245	0xbc0eee95	-0.008723875
246	0xbc96b150	-0.018395096
247	0xbc9ff48f	-0.019525794
248	0xbc1c72f3	-0.00954889
249	0x3cd103bb	0.025514474
250	0x3cd3a03c	0.025833242
251	0x3c0e314c	0.0086787455
252	0xbc97f2c8	-0.018548384
253	0x3ce52355	0.02797095
254	0xbca858a9	-0.020550089
255	0xbbacaaff	-0.0052694078

conv2.bias f4 [32]
0	0xbc4da9ac	-0.01255266
1	0x3b8859de	0.0041611036
2	0x3cbd9b03	0.023145204
3	0xbd05b7fe	-0.03264617
4	0xbc392145	-0.011299436
5	0xbd06561e	-0.03279697
6	0xbca4961a	-0.020091105
7	0x3ce6dddf	0.028181968
8	0xbc97454e	-0.018465664
9	0x3bb2d081	0.0054569845
10	0x3b951bf6	0.0045504523
11	0x3d057263	0.03257979
12	0x3b3eede9	0.0029133505
13	0x3ca85565	0.020548532
14	0x3c8ea6c3	0.017413503
15	0x3b495ae2	0.0030724336
16	0x3c965bdb	0.018354347
17	0xbd0fc504	-0.035099998
18	0x3c813f67	0.015777303
19	0xbc1d74ad	-0.009610337
20	0x3a714c01	0.0009204746
21	0x3cbf923c	0.02338516
22	0xbc9f1a4f	-0.019421725
23	0x3d047584	0.032338634
24	0xbc1dd17c	-0.0096324645
25	0x3ca64d02	0.020300392
26	0xbd0d397d	-0.034478653
27	0x3ca4db7e	0.020124193
28	0x3d0555ba	0.03255246
29	0x3d0e1043	0.034683477
30	0xbbad917f	-0.0052968855
31	0x3c6145d9	0.013749563
