src/TRAINED_MODEL_DIR/image_fragment_model_conv_fd_64_epoch_2.pth (torch, 432285 bytes, 4 tensors)

conv1.weight f4 [64, 3, 5, 5]
00000000: 4e30 b43d 058d b6bd 7ccc e53d 9394 bd3d
00000010: 3ae1 0a3d 3da9 a6bd 29eb 10bb faf0 89bd
00000020: b14e cbbd e86e 673d 7d4f f4bc adef 94bc
00000030: 4c76 dd3d 9d56 bf3d 0b6e 853d 18ff d1bd
00000040: c96e d2bd 0caf 94bd 622d e03d 65a3 183d
00000050: 1bfe 4cbd a597 d7bc 8cd0 aebd 6a15 52bd
00000060: 2104 51bd f341 883d 74cb 37bb 1326 673c
00000070: 9834 ae3d 5742 b63d 07ee ad3d 66ba afbc
00000080: bf07 df3a c6ad 8ebd 0ff8 0c3c 1ce9 633d
00000090: 4aba aabd 08f0 d4bb 8d58 82bd 9930 50bd
000000a0: ab58 f43c 70d4 d03d 7038 813d 2b7c 3fbd
000000b0: 081c ac3c 8279 19bd b956 993d ce68 54bd
000000c0: 7a2f 733d 4ed1 a83d 1c57 133d ea2d b5bd
000000d0: 59f8 1e3c 9665 953c 5567 533d 909e 573d
000000e0: 9e96 d3bd 34f5 013d e318 81bd 89d8 bf3d
000000f0: 4dbc 80bd 9b8f 13bd fd25 1e3d 78cc ccbc
00000100: 31be 0b3a 7117 0e3d d62e 1dbc f45f 6bbd
00000110: 6295 48bd 6d19 7f3d 459f 1cbc d776 a2bb
00000120: e748 debd a221 1cbd 231f 063c 63f7 453d
00000130: f1b0 903d cd8f 073d d9b9 3bbd 441e a7bd
00000140: cdfa 823d 9188 0bbd 63dd b93d 9633 3f3d
00000150: 47a3 babd 4bc5 a4bd 376d e8bd 3599 ce3d
00000160: f289 c2bc 08bb cfbd 2c69 9a3d 68b7 afbd
00000170: 4249 e53d f78c de3d 1049 79bc 8ddc e6bd
00000180: ab17 adbd 8565 8fbd 175f 9f3d 251f 303d
00000190: 34cc 9f3c 3b65 ecbd b720 b43a 5542 7e3b
000001a0: 5e47 d73d e7f8 91bd 2dad a4bd 4557 8dbd
000001b0: 93b4 34bd 3abd 603d b7f4 93bc f7f0 e93d
000001c0: 6cd3 b63d 353d 88bd 1a54 5b3c 335a f83c
000001d0: b79d 51bd bfe5 f53b 4316 5bbc c4b6 57bd
000001e0: e739 5fbc 0546 88bc 4be8 aabd 18ba 00bd
000001f0: 857e 8e3c 9e98 9b3d 61aa c83d 41ed 1a3d
00000200: eaa6 7a3b 4b59 8c3d c2c5 db3d a929 e3bd
00000210: fe35 de3b c4db 3ebc 46dd d7bd 3558 b6bd
00000220: 1ad7 ebbd 2b89 8bbb ba87 8ebd 82bb a73c
00000230: 136f 2abd 2ae7 afbd 909e 46bd 27f2 63bd
00000240: 819e 773d a41a d7bd 346d 9bbd 1f6d 523d
00000250: e774 773d fac1 bcbd 5df3 013d 0b9c 2d3d
00000260: 3b87 903c d209 db3d a977 de3c 4852 dabd
00000270: 5a7e 84bd 2d7f 45bd cb33 0c3c ef7d 37bd
00000280: 35ce ab3d a17b 0d3d 0b1c 573d 54e1 e63c
00000290: e34e adbd 0381 8ebb 7bf9 eb3d 0c21 75bd
000002a0: dcf1 1ebd 8f95 ac3d 16bd 953b c489 423d
000002b0: 402f 3abb e078 ac3d a277 653d d39c 20bc
000002c0: 84e0 cabc 45a6 e1bd ba6a c63d 1e69 adbd
000002d0: b89f f63c 7146 64bd 1f11 163d 46ff 4fbd
000002e0: ceaa be3d cc3d 8a3d 3660 ddbd 0229 5b3c
000002f0: 7e54 e93d 2378 463d b126 a93d e9e0 61bc
00000300: baff b63d 775e 41bd 4eb7 c33d b894 9e3d
00000310: 4b4e ee3c aa47 4f3d 1dea 8e3d 58fe 8ebd
00000320: 449b 2bbd 65b2 d63d f359 b13d c08c 853c
00000330: 86f6 b0bc 6777 b8bc 4377 2f3d c103 c3bd
00000340: 589e c2bd ef61 dbbd 53d5 b93d be8e 30bd
00000350: 12da e83d cda2 04bd dfee 913c 84cf aa3d
00000360: 2016 b439 f680 46bd 5240 1ebd 3123 e13d
00000370: 34ee 3b3d 88db 8ebd 109e 9fbc 85bc cf3d
00000380: 8244 91bd 3717 16bd 7f47 ac3c bcc5 953c
00000390: 81db 42bc 1af4 2b3d 51fd 80bc fde5 193b
000003a0: 481b c9bc ba76 123a 468c 993d fa4b f43c
000003b0: 11fc a3bd e6e9 99bc fc54 d33c 8377 b1bd
000003c0: 0c69 5c3c 2f2a b43d a824 9ebd 0d46 893d
000003d0: e4cb cf3d 1aee 893d fd3f c63d 2a7c 2abd
000003e0: 094f 3e3d 4ee6 1fbc 1218 66bb 0aab 473d
000003f0: aa0d b0bd 8677 283c 6e42 a7bd 6e3b 9dbd
0.08798276 -0.08913616 0.11220643 0.09256854 0.0339062 -0.081377484 -0.0022112823 -0.06735416
-0.099271186 0.056502253 -0.02982306 -0.018180693 0.10813579 0.09342692 0.0651513 -0.102537334
-0.10275037 -0.0725995 0.10946156 0.0372652 -0.05004702 -0.026317427 -0.08535871 -0.051289953
-0.05102933 0.06653204 -0.0028044851 0.014108199 0.08506125 0.08899372 0.08492666 -0.021451186
0.0017015858 -0.069667384 0.008604064 0.055642232 -0.08336313 -0.0064983405 -0.06364546 -0.050827596
0.029827436 0.10196769 0.06309593 -0.046749275 0.02100946 -0.037469395 0.07487244 -0.051857762
0.05937145 0.08243047 0.035971746 -0.08846648 0.009702765 0.018236917 0.051612217 0.05264145
-0.10331462 0.031727985 -0.06303575 0.09367473 -0.062859155 -0.036025625 0.038610447 -0.024999842
0.000533077 0.034690324 -0.009593686 -0.057464555 -0.048970588 0.062280107 -0.009559457 -0.0049580145
-0.10853749 -0.038118012 0.0081861345 0.04833163 0.07064999 0.033096123 -0.045831535 -0.081600696
0.06395493 -0.034065787 0.09075429 0.046680056 -0.09113174 -0.08045443 -0.11348956 0.10087816
-0.023747418 -0.10143095 0.07539591 -0.08579904 0.111956134 0.10866731 -0.015215173 -0.112725355
-0.0845178 -0.07001785 0.07781809 0.04299845 0.019506551 -0.11542746 0.001374266 0.0038796861
0.10511659 -0.071275525 -0.08040843 -0.06901411 -0.04411752 0.05486796 -0.018061025 0.114229135
0.08927044 -0.06652299 0.013386751 0.030316448 -0.0511758 0.0075041945 -0.013372007 -0.052664533
-0.013624645 -0.01663495 -0.083450876 -0.031427473 0.017394314 0.07597469 0.09798122 0.03782392
0.0038246461 0.06852969 0.10731079 -0.110919304 0.0067813387 -0.011649076 -0.105402514 -0.08903543
-0.11515637 -0.004258295 -0.069594815 0.020475153 -0.041609835 -0.08589013 -0.04849106 -0.055650856
0.060453895 -0.10503128 -0.07589188 0.051373597 0.06041422 -0.092166856 0.03172623 0.042385142
0.017642608 0.106952325 0.027156668 -0.10660225 -0.06469412 -0.048216987 0.00855727 -0.044797834
0.0838894 0.03454173 0.05251698 0.028183617 -0.08462312 -0.0043488755 0.11522194 -0.05984597
-0.038804874 0.084269635 0.00456966 0.047494665 -0.002840951 0.084214926 0.056022294 -0.009803015
-0.02476526 -0.110180415 0.09688325 -0.08467315 0.030105457 -0.05573124 0.03663742 -0.050780557
0.09309922 0.06750068 -0.108093664 0.013376476 0.11393069 0.048454415 0.08259333 -0.013786533
0.08935495 -0.04720923 0.09556447 0.077432096 0.029090067 0.050605454 0.06978247 -0.06982106
-0.04189612 0.10483245 0.086597346 0.016302466 -0.021601927 -0.022517873 0.042838346 -0.095222004
-0.09502858 -0.10712039 0.090738915 -0.04310488 0.113697186 -0.03238182 0.017814098 0.08340362
0.0003434876 -0.04846283 -0.03863556 0.1099304 0.045881465 -0.06975466 -0.01948455 0.10143379
-0.07093145 -0.036643233 0.021030186 0.018282764 -0.011893154 0.04198084 -0.01574579 0.002348303
-0.024549142 0.00055871496 0.07497458 0.029821385 -0.08007062 -0.01878829 0.02579736 -0.08665373
0.0134527795 0.087971084 -0.077218354 0.06702814 0.10146311 0.067348674 0.096801735 -0.04162232
0.046462093 -0.009759499 -0.0035109562 0.0487471 -0.08596356 0.010282403 -0.08166967 -0.07677351

conv1.bias f4 [64]
00000000: 3ff7 05bd 0a45 aabd 48cd a43d 5b81 343d
00000010: 48b0 1639 4963 2e3d 1f5b 0fbd b336 8a3d
00000020: 4e47 9dbd 38ac ac3d 0ffc 08bd 36e6 193d
00000030: b331 183c 931f e23d a99b a6bb 0271 d838
00000040: 7ef4 df3d 1818 853d 2758 4fbd d0a0 27bd
00000050: 854f 133b ba5c dc3d c9c2 9a3d e96a 873c
00000060: 6180 6d3d cb9d 1ebd 8688 883d c3cd ca3a
00000070: 5ef0 a9bd eab8 b9bd 44ca bb3d 5102 963d
00000080: 29d9 103d 6d21 9ebd 8f4d 30bc 19a0 d9bd
00000090: 645c 3d3d 4f4e 9ebb 06e8 bd3c 85c3 5ebd
000000a0: 1041 8abc 64f1 f83d 3daa 19bd 9eb2 af3d
000000b0: 2ef9 17bd 430e da3d 561e 903d e073 c1bd
000000c0: 86b9 a8bd 4f0d 9bbd 9e31 ac3c 4657 8d3c
000000d0: 866d cabd 9170 e63d 3cc5 9d3c 4cd7 c03d
000000e0: 7aff 00bc 88f3 0dbd d9b3 e33d effa 2abd
000000f0: b9c8 c33d 51ff 04bd cc7c 3ebd faea 953c
-0.032706495 -0.083139494 0.08046967 0.044068675 0.00014370785 0.042575154 -0.03499901 0.06748714
-0.07679616 0.084312856 -0.033443507 0.037573062 0.009289193 0.110411786 -0.005084474 0.00010320732
0.10935305 0.06498736 -0.050621178 -0.040924847 0.0022477817 0.10759874 0.075566836 0.01653047
0.05798376 -0.0387247 0.06666665 0.0015472699 -0.082977995 -0.09068473 0.091694385 0.073246606
0.03536335 -0.07721219 -0.010760679 -0.10626239 0.04623069 -0.0048311125 0.023181926 -0.05438568
-0.016876727 0.121554166 -0.037515868 0.085789904 -0.03710287 0.106472515 0.07037036 -0.094459295
-0.08238511 -0.07570898 0.021019753 0.01725353 -0.09884171 0.11251939 0.019259088 0.094160646
-0.00787341 -0.034656078 0.111182876 -0.041743215 0.09559769 -0.03247005 -0.046505734 0.018300522

conv2.weight f4 [64, 64, 5, 5]
00000000: 6d9c b7bc e880 b23c a719 e33b 170b 2c3c
00000010: 74f3 aebc 1e57 aa3b 4fc5 813c 444a c53c
00000020: 2a0b 773c 8b56 c63c 3884 193c 12af 7fbc
00000030: 5959 29bc 9703 573c e9d1 683c 8f1f cdbb
00000040: 8a7b 23bc 0c15 c1bc c949 95bc 490d ff3a
00000050: 3118 c9bb 3d8e aa3c d2da a9bb f552 45bc
00000060: 9b96 ef3a ad86 893c 3283 daba 1e79 bbba
00000070: 388b 743c ca94 123b 1ab6 2e3c ce77 0e3c
00000080: 1d9e 8b3c 2b4e 9f3c 8f89 acbc 94ab da3a
00000090: a3b4 b53c 1f80 dbbb 0c6d a9bc eea3 9cbc
000000a0: b3d2 183c 22c5 a83b 01f9 233b 03fe be3b
000000b0: a96a 553c 8b53 c4bc 551b 9e3b 7f08 45bc
000000c0: d61c c9bb 1303 c43c f2cd 3fbb f6b2 4bbc
000000d0: 4458 f33b 4ae8 b3bc 4c47 fc3b da71 9abc
000000e0: 7694 9dbc 4ca1 283a f8e7 65bc e330 bf3c
000000f0: b6d2 4c3c 18c2 1f3c 8cca c3bc 0760 8c3c
00000100: 0518 d0bb 92f4 af3c b7fe d2bc 1152 0d3b
00000110: 8fff 3d3c 76bc a13c b898 10bc 7d6f 5a3a
00000120: 2d2a dfbb d7c3 d6bc f2a9 69bc 01e2 83bc
00000130: f69a 86bc 8cc7 263c 85f1 203c 9077 6abc
00000140: e7c0 a5bc 9361 c13c 2645 7dbc 308e 6c3b
00000150: 0553 5c3c 4ee3 b93c 2fec 94bb 8756 32ba
00000160: 521d ac3c 8f49 9ebc c4a8 153c f3c4 bd3c
00000170: df0d 29bc 1cc5 c73c afd4 7fbb c053 afbc
00000180: 67ba 07bb c453 bbbc 171b 903b 2e22 2c3c
00000190: 3d3c 6f3b 1067 8fbc 667b a13c 8325 7bbc
000001a0: 9923 0e3c c5cb bcbc f81e 2a3c a7ff 6a3c
000001b0: e893 f7bb 82d5 d13c 062d 5f3c d429 023c
000001c0: e42d 3f3c e76a 533c 5a83 89bc ce06 14bc
000001d0: c636 ea3a 4ab1 60bb 8b24 603b e6c6 253c
000001e0: 882a cdbb 8b28 8e3c db35 b8bc 5163 97bb
000001f0: ac66 6a3c 0256 a73c 2599 ba3b 0f07 e6bb
00000200: 1027 aabc e9d5 833c 9824 113c a953 d0bb
00000210: b356 073c 97bc 6b3c d1b5 753c a1d9 253c
00000220: 773f 62bb ecb5 ccbc 5714 863c b77f 95bb
00000230: 402a 0fbc 2b0d bb3c 520f cdbc 9351 7cbb
00000240: 22a0 963c 3447 e13b 4874 f83b b6cb e73b
00000250: ade9 8ebc 8fc0 39bc af24 4e3c 0d93 50bb
00000260: c2b2 75bb cbfc 7cbc 4c82 01bc 0fcf 773c
00000270: 4398 a4bb 3e81 653c 0295 cf3c 1172 b0bc
00000280: 3023 7cb9 7d98 7abc 6367 adb9 cf69 b53c
00000290: ae0c 96bc bc3d 613c 2d39 bfbc c1ee 3cbc
000002a0: edcb 1b3b 1856 743c 658e 9b3c dc38 eb3b
000002b0: 6bbf 5ebc 43f9 453c 79b4 8bbc bf89 c1bc
000002c0: 45ee 82bc fc4d 6cbc a91b 77b9 fe43 b1bc
000002d0: ffe5 d9bb 511e c03c ff1d bc3c b34f ae3c
000002e0: 37a2 69bc 99dc 9f3c 848f 803c 2c9a cc3b
000002f0: 899f 9f3c e84f 283c b031 a9bc 6187 3dbc
00000300: 506a 863c 59d1 8fbc f4fd ee3b 5d5e 3ebc
00000310: 946a 8b3c 7779 9abb 1d24 053c aa22 5fbc
00000320: 6282 8ebc b75c aabc e686 b7bc 1fc8 863c
00000330: 468b 16bc 1f23 89bc a93e 983c a861 93bc
00000340: 6c12 d43c 64f2 843c ee37 aa3c 48a7 64bc
00000350: 335f ef3b 6c81 9bbb b27f ac3c 4f45 753c
00000360: dd14 86bc 5735 043c c896 c73b 8c09 dc3b
00000370: f0e6 dc3b 271b 883b 7a2b b63c e2d4 593c
00000380: 37bd 8d3c e0f9 5bbc 4e34 a2bc 89d2 4d3c
00000390: b8be 4b3c 024f af3c 21b0 343b 82b2 d03b
000003a0: f57f 2bbc dede cd3c 83dc ab3c 0113 20bc
000003b0: 9106 a9bc 2ddc 023c 7794 823b f745 6a3c
000003c0: e1e2 a2bc eb08 aa3c 38b9 aebc b382 cc3c
000003d0: 152d a93c 4d34 853c 2ccd b73c 3236 b23c
000003e0: 18f5 bbbc 4368 ca38 92d2 9d3c eceb cbbc
000003f0: ec10 c8bc 1fac 8fbc d9d5 a8bb 1bab a03b
-0.022413457 0.021789983 0.006930548 0.010500691 -0.021356322 0.0051983735 0.015841154 0.024083264
0.015078345 0.024211189 0.009369902 -0.015605705 -0.010336244 0.0131234145 0.014210203 -0.0062598656
-0.0099781845 -0.023569606 -0.01822366 0.0019458915 -0.006136917 0.020819778 -0.005183556 -0.012043704
0.0018279137 0.016787851 -0.0016671179 -0.0014303064 0.01492577 0.0022366517 0.010663534 0.008695556
0.017043168 0.019446453 -0.021061687 0.0016683214 0.02218086 -0.006698623 -0.02068188 -0.019121137
0.009327578 0.005150453 0.0025020244 0.0058286204 0.013025918 -0.023965618 0.0048250356 -0.012025951
-0.0061374707 0.023927247 -0.002926704 -0.012432804 0.0074262936 -0.02196135 0.007698929 -0.018853117
-0.01923583 0.00064327265 -0.014032356 0.02333874 0.012501409 0.009750865 -0.023900293 0.017135633
-0.0063505196 0.021478925 -0.025756223 0.0021563808 0.011596574 0.019743185 -0.0088254735 0.0008332653
-0.0068104477 -0.02621643 -0.0142617095 -0.016098978 -0.016431313 0.010179412 0.009823208 -0.0143107325
-0.020233585 0.023606097 -0.015458381 0.0036095493 0.013447528 0.022691395 -0.004544757 -0.0006803055
0.021010075 -0.019322185 0.009134475 0.023165202 -0.0103182485 0.024385981 -0.0039036681 -0.02140224
-0.002071047 -0.022867091 0.0043977606 0.010506196 0.003650441 -0.017505199 0.019712161 -0.015328768
0.008675479 -0.023046384 0.01038336 0.014343179 -0.0075554736 0.025614504 0.013621574 0.007944543
0.011668656 0.0129039055 -0.016786266 -0.0090348255 0.0017869107 -0.003428536 0.0034201469 0.010118222
-0.0062611736 0.017353317 -0.022486618 -0.0046199937 0.014306705 0.020426754 0.005694526 -0.0070198844
-0.02077058 0.016093211 0.008858822 -0.0063576293 0.008260417 0.014388225 0.014996962 0.010122688
-0.0034522691 -0.02498909 0.01636712 -0.004562344 -0.0087381005 0.022833427 -0.02503172 -0.003850077
0.018386904 0.006874943 0.007582221 0.007073845 -0.01744541 -0.011337413 0.012581988 -0.003182593
-0.003749058 -0.01544113 -0.0079046 0.01512505 -0.005023034 0.0140078645 0.025339607 -0.021538766
-0.00024045701 -0.015295145 -0.0003307416 0.02214518 -0.018316593 0.013747629 -0.023342693 -0.011531533
0.0023772672 0.0149131045 0.018988797 0.007178409 -0.013595442 0.012083354 -0.01705383 -0.023625253
-0.015982756 -0.01442289 -0.0002356606 -0.021638867 -0.006649732 0.023451956 0.022963522 0.021278238
-0.014259866 0.019514369 0.015693434 0.0062439647 0.019485252 0.010272957 -0.020653576 -0.011567921
0.016408116 -0.01755588 0.007293457 -0.011619178 0.017018594 -0.004714187 0.008126286 -0.013619104
-0.017396156 -0.020796163 -0.022403192 0.016452847 -0.009188479 -0.01674038 0.018584566 -0.017990902
0.02588769 0.016228862 0.020778622 -0.013955899 0.00730505 -0.004745653 0.021056984 0.014970138
-0.01636737 0.008069358 0.0060909726 0.0067150053 0.006741397 0.0041536274 0.022237528 0.013295384
0.017302139 -0.013426274 -0.019800331 0.0125624025 0.012435608 0.021399979 0.0027570801 0.006368936
-0.010467519 0.025130685 0.020979172 -0.009770156 -0.020633014 0.007987064 0.0039849835 0.0142989075
-0.019883575 0.020756206 -0.021328554 0.024964666 0.02065138 0.01626029 0.0224367 0.021754358
-0.022944018 9.651531e-05 0.019265447 -0.02489277 -0.024422131 -0.017538128 -0.0051524458 0.00490321

conv2.bias f4 [64]
00000000: c730 a03b 805f b7bb dad6 2cbc 070a 97bc
00000010: d55a a33c 8831 953c b24a bfbc e7f3 ad3c
00000020: 9207 ad3c eac6 9bbc f2f1 c4bc 3fc1 9cbc
00000030: 8d98 b7bc f875 b63c 8dc0 71bb e786 4bbc
00000040: 3370 32ba daa4 ae3b 6ab3 3abc 9ab7 dcbb
00000050: 933d b03b 67ba 543b 2388 bb3c 7a38 27bc
00000060: dddc 6abc 33b4 97bb e0fd 46bc 2521 aebc
00000070: 4bf6 b43c c30b a7bc 1b52 8ebc 7d82 56bc
00000080: 6a2f 973c cdc3 693c 0a42 9d3c cdbc a63c
00000090: f7bb 3abc 53d1 b23c ed41 563c 4090 fd3b
000000a0: 03e9 3f3c 8d17 9b3c 63e8 9fbc 82ce a33c
000000b0: b362 baba 5a4a 18bb 3aa8 843b e3f6 903c
000000c0: 27cb 843b a00e 47bc b3bb ed3a 8a36 8abc
000000d0: 7db7 303c 13a5 23bc 7040 b13c 00b7 6bbb
000000e0: c9ba 38b8 6742 93bb c3bf b5bc c038 26bb
000000f0: b70f 5abc 33ac 873c 9a25 5c3a 738d 2dbb
0.004888627 -0.0055961013 -0.0105492715 -0.018437399 0.019940773 0.018212095 -0.023351047 0.021234466
0.021121774 -0.019015748 -0.02404115 -0.019135116 -0.022411609 0.022273049 -0.003688845 -0.0124223
-0.000680688 0.0053297104 -0.011395315 -0.006735754 0.005378434 0.0032459737 0.022892063 -0.010206336
-0.0143348845 -0.0046296357 -0.012145489 -0.021256039 0.022090098 -0.02039135 -0.017373135 -0.013092634
0.018455226 0.014267874 0.019196529 0.0203537 -0.011397353 0.02182833 0.013077241 0.007738143
0.011713269 0.018932128 -0.01951999 0.019995932 -0.0014220088 -0.0023237676 0.0040483745 0.01769585
0.004052538 -0.012149483 0.0018137604 -0.01687171 0.0107859345 -0.009988087 0.021637172 -0.003596723
-4.4042976e-05 -0.0044939998 -0.022186166 -0.0025363415 -0.013309411 0.016561603 0.0008397937 -0.0026482015
