src/TRAINED_MODEL_DIR/image_fragment_model_linear_fd_256_epoch_1.pth (torch, 789821 bytes, 2 tensors)

linear.weight f4 [256, 768]
0	0x3d0c55bc	0.03426145
1	0x3cfa246a	0.030534942
2	0x3c97b0b7	0.018516881
3	0xbc3300f0	-0.0109255165
4	0x3d052cd2	0.032513447
5	0x3ccd1b35	0.025037387
6	0xbcf12b38	-0.029439554
7	0x3ccb3738	0.024806604
8	0xbb79f1a4	-0.0038138414
9	0x3c2a23c7	0.010384507
10	0x3b9fd071	0.004877143
11	0x3c4d1418	0.012516998
12	0x3c584fa0	0.013202578
13	0x3bb5843a	0.0055394443
14	0xbb1d6988	-0.00240192
15	0xbd09acc6	-0.033612035
16	0x3bd51877	0.0065031606
17	0xbd028776	-0.031867467
18	0xbbd6d386	-0.0065559773
19	0xbccd535b	-0.025064161
20	0x3c91a096	0.017776769
21	0xbc891309	-0.01673271
22	0xbc7a1721	-0.015264303
23	0xbc5a8de9	-0.013339498
24	0x3ccf3bc9	0.025297062
25	0x3be3d5f2	0.0069529945
26	0xbd060c35	-0.032726485
27	0x3a6e393a	0.0009087507
28	0x3b9c0670	0.0047615096
29	0x3d05eca7	0.032696392
30	0x3c0a5e82	0.008445384
31	0x3d0c2605	0.034215946
32	0x3cfd376e	0.03091022
33	0xbd087ac5	-0.033320207
34	0xbc7cd247	-0.015430993
35	0x3c2e4a2a	0.010637799
36	0xbca8a5f5	-0.020586947
37	0xbc378324	-0.0112007
38	0xbb905e76	-0.004405792
39	0xbceb70a9	-0.028740244
40	0xbba749c5	-0.0051052296
41	0xbd08fd09	-0.033444438
42	0x3cb890aa	0.022529919
43	0x3c83d0a9	0.016090708
44	0x3b0c7976	0.00214347
45	0xbcca75c4	-0.024714358
46	0xbc50a301	-0.012734176
47	0x3b78a350	0.0037939139
48	0xbccdd3af	-0.025125353
49	0x3cf8c040	0.03036511
50	0xbcaab7b4	-0.02083955
51	0x3c555830	0.013021514
52	0xbb4682fc	-0.0030290475
53	0xbc9832d0	-0.018578917
54	0xbc1b709a	-0.0094872955
55	0xbb0b8795	-0.002129053
56	0xbccd8acf	-0.025090603
57	0x3c912a56	0.017720383
58	0xbce6cc02	-0.02817345
59	0xbcedb521	-0.029017033
60	0x3c8fdce8	0.017561391
61	0xba4a371c	-0.00077139004
62	0xbb81aa0e	-0.0039570397
63	0x3c4a10fa	0.012333149
64	0x3c971ac0	0.018445373
65	0x3c605c08	0.013693817
66	0x3bf77da5	0.00755282
67	0x3c3dda73	0.011587727
68	0xbb718655	-0.003685375
69	0xbcff2143	-0.03114379
70	0xbbc1631e	-0.0059017083
71	0xbcae6c7a	-0.02129196
72	0x3d111feb	0.03543083
73	0x3cc9588f	0.02457836
74	0x3a6fbe80	0.0009145513
75	0xbccc6eb3	-0.02495513
76	0xbb28f984	-0.0025783489
77	0xbbaac402	-0.0052113542
78	0xbcbf78a5	-0.023372957
79	0xbcd7ea85	-0.026356945
80	0xbbcb8159	-0.006210488
81	0x3c21ba04	0.00987101
82	0x3b812724	0.0039414335
83	0xbc1759be	-0.009237705
84	0xbc610d91	-0.013736145
85	0x3c892413	0.016740834
86	0x3c0b8ec5	0.008517926
87	0x3c8087aa	0.01568969
88	0xba91b9e5	-0.0011118023
89	0xbcb7804a	-0.02240004
90	0xbc7df3f1	-0.015500055
91	0x3bc918ed	0.0061370046
92	0x3ac44a38	0.0014975732
93	0x3cb3099e	0.021855172
94	0xbcdee741	-0.02720988
95	0x3ce2b51a	0.027674247
96	0xbc03c62a	-0.008042851
97	0xba9de721	-0.0012047031
98	0xbd051499	-0.032490347
99	0x3ccc8f4e	0.024970677
100	0xbc2785fe	-0.010224817
101	0x3b092e35	0.0020932083
102	0x3c984a41	0.018590095
103	0xba1e5196	-0.0006039379
104	0xbc8c8308	-0.017152324
105	0x3ae934db	0.0017792241
106	0x3c5c364b	0.013440679
107	0x3c479f50	0.012183979
108	0xbcff8e82	-0.031195883
109	0xbc7d7c5e	-0.015471546
110	0xbce35f3e	-0.027755376
111	0x3c219946	0.009863203
112	0x3be48d9d	0.0069748894
113	0x3bd69b94	0.006549308
114	0x3b87751f	0.004133835
115	0xbc86de35	-0.016463378
116	0x3d0d53d8	0.034503788
117	0xbba92e06	-0.005162957
118	0xbb12cca5	-0.002239981
119	0xbce32964	-0.027729698
120	0x3cf5bcc7	0.029997243
121	0x3cb2fae9	0.021848159
122	0x3bc65daa	0.006053646
123	0x3cf80ae1	0.030278625
124	0xbba53f39	-0.005042937
125	0xbcb7d4f9	-0.02244042
126	0x3d091dc5	0.033475656
127	0xbd03e929	-0.03220478
128	0x3cc04aee	0.02347323
129	0xbad4da63	-0.0016239401
130	0xbb69b1d4	-0.0035658972
131	0x3d0f0f52	0.03492672
132	0x3c4c7d05	0.012480979
133	0x3c512c89	0.012766966
134	0xbb3108d6	-0.0027013323
135	0x3c166954	0.009180386
136	0xbc272a1d	-0.010202912
137	0xbbc64ad8	-0.0060514025
138	0xbd12dd32	-0.03585548
139	0x3cfc8883	0.030826813
140	0xbd06a27a	-0.032869793
141	0x3c511987	0.012762434
142	0xbcb81da3	-0.02247507
143	0xbd078275	-0.033083398
144	0xbcbeb9fd	-0.023282045
145	0xba83beae	-0.0010051334
146	0xbcb87ab3	-0.022519445
147	0x3cebef2b	0.028800568
148	0x3cab249a	0.020891476
149	0x3cc98c78	0.024603114
150	0x3bad0d7d	0.005281149
151	0x3c2db3b4	0.010601927
152	0xbc105dda	-0.008811438
153	0xbc505fa2	-0.012718113
154	0x3c506c99	0.012721204
155	0xbc103f20	-0.008804113
156	0xbc4c590c	-0.012472402
157	0xbc179f4c	-0.009254288
158	0x3a83020c	0.0009995117
159	0x3d00851a	0.031376936
160	0xbcf1f7ad	-0.029537046
161	0x3cc788c4	0.024357207
162	0xbc9eab2f	-0.019368736
163	0xbb92ba98	-0.00447781
164	0xbce1567a	-0.027507056
165	0x3c89488e	0.01675823
166	0xbcac192e	-0.0210081
167	0x3b2efbc0	0.0026700348
168	0xbce04bc6	-0.027379882
169	0x3c3782a6	0.011200583
170	0x3c8b3966	0.016995143
171	0x3c89e27b	0.016831627
172	0xbba38e24	-0.0049913097
173	0x3cdc06cc	0.02685871
174	0x3b4eb5d2	0.0031541479
175	0xb99e15d4	-0.00030152372
176	0x3c29e1ac	0.010368746
177	0xba4db653	-0.0007847298
178	0xbc652d43	-0.013987842
179	0xbbd210af	-0.0064106802
180	0xbd08c29c	-0.03338872
181	0x3cf6263b	0.030047527
182	0x3c7e724a	0.015530178
183	0x3c85ed33	0.016348457
184	0xbb033832	-0.0020022509
185	0x3c732df9	0.014842504
186	0x3c55044b	0.013001512
187	0x3cd76400	0.0262928
188	0xbceaa4fe	-0.028643128
189	0x3cb02d27	0.021505905
190	0x3ccdd07c	0.025123827
191	0x3c0c265d	0.008554068
192	0xbd0eab0d	-0.034831095
193	0xbc67408e	-0.014114512
194	0xb95fc644	-0.00021340797
195	0x3c379bae	0.0112065505
196	0x3d0420fb	0.032258015
197	0xb9c5b2a3	-0.00037707863
198	0x3d161b0c	0.036646888
199	0xbac8b53a	-0.0015312799
200	0x3af434ef	0.0018631498
201	0xbcba88c3	-0.022770291
202	0x3b9c4142	0.0047685215
203	0xbbc12e96	-0.005895446
204	0x3cf66138	0.030075654
205	0xbcb51818	-0.022106215
206	0xbac685e8	-0.0015146108
207	0xbc96218a	-0.01832654
208	0x3a1a34ce	0.00058825023
209	0x3b895321	0.004190818
210	0x3d0cb495	0.034351904
211	0xbcb8dc20	-0.022565901
212	0xbce9d740	-0.028545022
213	0xbc19d991	-0.009390251
214	0x3c138af0	0.009005293
215	0xbcef4e2c	-0.02921208
216	0xbb4ceaeb	-0.0031267952
217	0x3b917bdc	0.004439814
218	0x3cb1741b	0.021661809
219	0xbcd39aa6	-0.025830578
220	0xbbb6f3e4	-0.0055832732
221	0x3cab247f	0.020891426
222	0x37d1fc33	2.5032181e-05
223	0x3c5ce6e9	0.013482788
224	0x3cf926ec	0.030414067
225	0xbcedb628	-0.029017523
226	0x3c3681bd	0.01113933
227	0x3b847d56	0.0040432615
228	0xbaa76bc3	-0.0012773204
229	0xbd01d9f4	-0.031701997
230	0x3ba5281e	0.0050401827
231	0x3d0ff70b	0.035147708
232	0x3c053fc5	0.00813288
233	0xbc3f81d4	-0.011688668
234	0x3b8f87ba	0.0043801935
235	0x3cfc4990	0.030796796
236	0xbc13d30c	-0.009022485
237	0xbc4f6d67	-0.012660361
238	0xbcf03c70	-0.029325694
239	0x3cbbfef7	0.022948725
240	0x3d0644a0	0.03278029
241	0x3ca9883c	0.020694844
242	0xbc20a280	-0.009804368
243	0x3cd23317	0.025659127
244	0xbc5d7ca1	-0.013518483
245	0x3a81116f	0.0009847115
246	0xbb5bf972	-0.003356543
247	0xbbe98731	-0.007126712
248	0xbc56a4d2	-0.01310082
249	0x3b87b9f3	0.00414204
250	0x3ca33393	0.019922053
251	0xbc9322b7	-0.01796089
252	0x3c7c7d4f	0.015410735
253	0xbcf84692	-0.030307088
254	0xbce35b6a	-0.02775355
255	0xbc923345	-0.017846713

linear.bias f4 [256]
0	0xbcc12b63	-0.023580259
1	0xbcb61ddd	-0.022231037
2	0x3cf69a70	0.030102938
3	0x3c11be09	0.008895406
4	0x3c3032e5	0.010754322
5	0x3cb569e7	0.022145225
6	0xbbddc8a9	-0.0067683053
7	0x3cc61766	0.02418108
8	0x3cbb4a50	0.022862583
9	0x3b8f3ba9	0.0043711257
10	0x3d0c8068	0.034302145
11	0x3b9d9958	0.0048095398
12	0x3b8eecff	0.004361748
13	0xbb97b32d	-0.0046295137
14	0xbcbbb030	-0.022911161
15	0x3c7bdebf	0.015372931
16	0xbc47d632	-0.012197064
17	0x3c1a4cb3	0.009417701
18	0x3cf48854	0.029850163
19	0x3d13aaa4	0.036051407
20	0xbcde4517	-0.027132554
21	0xbc12067e	-0.008912681
22	0x3c987660	0.018611133
23	0x3c06f3f9	0.008236879
24	0x3ca5e97a	0.020252932
25	0x3c912be2	0.01772112
26	0xbb16f323	-0.0023033104
27	0x3b3c67c5	0.0028748375
28	0x3c85e659	0.01634519
29	0xbc585f38	-0.013206296
30	0xbc67d686	-0.0141502675
31	0xbc2195f5	-0.009862413
32	0xbcab860a	-0.020937938
33	0x3c108697	0.008821151
34	0xbc222b9e	-0.009898094
35	0x3cf53670	0.029933184
36	0x3cda7dbb	0.026671281
37	0x3c889a37	0.016675098
38	0xbd01e669	-0.031713877
39	0xbcb3cd06	-0.021948349
40	0x3ca4a5e6	0.020098638
41	0x3c3477c0	0.011014879
42	0xbc89555b	-0.016764333
43	0xbc6a686a	-0.014307121
44	0xbccb10c3	-0.024788266
45	0x3c86dc28	0.0164624
46	0xbca672ad	-0.020318354
47	0xba2c8341	-0.00065808377
48	0x3c91d76e	0.01780292
49	0xbca02089	-0.019546764
50	0xbc1e1915	-0.009649535
51	0xbc3b4a85	-0.011431341
52	0xbbdfe207	-0.0068323645
53	0x3d01fe26	0.031736515
54	0xbcf5bf60	-0.029998481
55	0xbc449604	-0.011998657
56	0x3cdd330c	0.02700188
57	0x3ce15614	0.027506866
58	0xbc7ebad9	-0.015547478
59	0x3d11efca	0.03562907
60	0x3cb45778	0.022014365
61	0xb9693eba	-0.00022243979
62	0x3d050a2f	0.032480415
63	0x3c02c595	0.007981678
64	0x3cdb8375	0.026796082
65	0xbcb1a34f	-0.021684317
66	0x3c94f5d2	0.018183623
67	0x3cafdb6b	0.021466931
68	0xbce549b4	-0.027989246
69	0x3cfe98eb	0.031078776
70	0xbc1091bd	-0.008823809
71	0x3c3ab657	0.011396012
72	0xbcced88c	-0.025249742
73	0xbd00aa0b	-0.031412166
74	0x3afab164	0.0019126353
75	0x3ca93c4b	0.020658633
76	0xbba936ea	-0.005164017
77	0x3c500656	0.012696823
78	0x3c012fbe	0.007884918
79	0x3c2f9973	0.0107177375
80	0x3b8f03fb	0.004364488
81	0xbc70dd6c	-0.014701229
82	0x3d10798d	0.03527217
83	0xbc80340b	-0.015649816
84	0x3ad1acd5	0.0015996943
85	0xbac02e53	-0.0014662243
86	0xbc82478d	-0.015903259
87	0x3b8e5d2a	0.004344602
88	0xbc0fce4e	-0.008777214
89	0x3baf46a7	0.0053489986
90	0x3c988e43	0.018622523
91	0xbca1afe9	-0.0197372
92	0xbc1b3d99	-0.009475135
93	0x3c235235	0.00996833
94	0xbc76ae3f	-0.015056192
95	0xbc8752d4	-0.016518988
96	0xbd0bd7eb	-0.034141462
97	0x3cdf603a	0.027267564
98	0x3d035c69	0.03207055
99	0x3c7d7095	0.015468736
100	0x3cd7dfc0	0.02635181
101	0xbcd533f1	-0.026025744
102	0xbc593a9d	-0.013258603
103	0x3c2cef74	0.010555137
104	0x3cbe2ac0	0.023213744
105	0x3c4694b3	0.012120414
106	0xbd0971ed	-0.033555914
107	0xbc803244	-0.015648969
108	0xbcf9c19c	-0.030487828
109	0xb8b9795b	-8.844092e-05
110	0x39e22006	0.00043129938
111	0xbccf7fb0	-0.02532944
112	0xbcf62e11	-0.030051263
113	0x3d0093f6	0.031391107
114	0x3c1ac6ef	0.0094468435
115	0x3cc7393d	0.024319286
116	0x3c82628d	0.015916133
117	0x3cc83d37	0.024443252
118	0x3ce911d4	0.028450884
119	0xbbc2a9ea	-0.0059406655
120	0xbcf6477f	-0.030063389
121	0xbc76e268	-0.015068628
122	0xbbf835fb	-0.0075747943
123	0x3cfe8bf7	0.0310726
124	0xbcedfc2a	-0.029050905
125	0x3d0aa444	0.033848062
126	0x3c0c220a	0.008553037
127	0xbb8501f4	-0.0040590707
128	0x3c4acf12	0.012378471
129	0xbba077c5	-0.00489709
130	0x3b88bfd0	0.0041732565
131	0xbc12b7b8	-0.008954935
132	0x3bf99571	0.0076166918
133	0x3c7d49e7	0.015459514
134	0x3c83c755	0.01608626
135	0x3b864d1a	0.0040985467
136	0xbaa0425d	-0.0012226809
137	0x3c83f7d9	0.016109394
138	0x3aa62f5a	0.0012678907
139	0xbcf6a275	-0.030106762
140	0xbd05ab30	-0.03263396
141	0xba4ace83	-0.0007736461
142	0x3ccab096	0.024742406
143	0x3d0739b1	0.033014003
144	0xbccaf712	-0.024776015
145	0xbcc3e19d	-0.023911292
146	0x3bb5e5c1	0.0055510704
147	0xbc4591c7	-0.012058682
148	0x3c9665b2	0.018359039
149	0x3ce765e3	0.028246826
150	0xbc255d17	-0.010092995
151	0x3bda8103	0.0066682114
152	0x3cf5ac76	0.029989462
153	0xbbf159a5	-0.007365423
154	0x3a3c63cd	0.00071865023
155	0xbc538f27	-0.012912548
156	0xbc6b889f	-0.014375835
157	0xbcf55eef	-0.029952494
158	0xbbfce1da	-0.0077173533
159	0x3ca84dd4	0.020544924
160	0xbb348a1d	-0.0027548142
161	0xbc8c8c3e	-0.017156716
162	0x39bbf868	0.00035852497
163	0xbc0b6752	-0.00850852
164	0x3d0b30ae	0.03398197
165	0xbba6efef	-0.0050945203
166	0x3cac0857	0.02100007
167	0x3cdf59ee	0.027264562
168	0x3d02c9c7	0.03193071
169	0xbd139b18	-0.03603658
170	0xba826be0	-0.0009950362
171	0x3c29fa5e	0.010374634
172	0xbc596d18	-0.013270639
173	0x3c4379ff	0.011930942
174	0xbc5e0142	-0.013550105
175	0x3d0706fa	0.032965638
176	0xbcf06eff	-0.029349802
177	0x3d0791c9	0.033098016
178	0xbb1d9171	-0.0024042989
179	0x3cf933e1	0.030420246
180	0x3c136de0	0.008998364
181	0xbbe7ed39	-0.0070778397
182	0xbc5bb5dc	-0.013410058
183	0x3d11f683	0.035635483
184	0x3cd6240e	0.02614024
185	0x3ba0bc70	0.004905276
186	0x3bd5cef8	0.0065249167
187	0x39a6c4bc	0.00031808566
188	0x3ae8e9fe	0.001776993
189	0x3cde2a49	0.027119773
190	0xbc7956ed	-0.015218479
191	0xbcfd8aff	-0.030950068
192	0x3c5dc913	0.013536709
193	0xbce9fd6a	-0.02856322
194	0x3c9c24b8	0.019060478
195	0xbc09d9d9	-0.008413755
196	0xbc57f019	-0.013179802
197	0x3d055e96	0.032560907
198	0xbccea2f6	-0.02522419
199	0xbc9364a5	-0.017992327
200	0xbc146999	-0.00905838
201	0x3c9a29e8	0.01881881
202	0x3ceb7661	0.02874297
203	0x3d0b40a2	0.033997186
204	0xbb2a42b2	-0.0025979695
205	0xbc56ec9d	-0.013117936
206	0x3d1094e6	0.03529825
207	0x3c8a74fc	0.016901486
208	0x3cd5dd42	0.02610648
209	0xbc4fcbf4	-0.012682904
210	0x3cdb85b2	0.02679715
211	0x3ccf0fe4	0.025276132
212	0xbceb2d66	-0.028708171
213	0xbd124530	-0.035710514
214	0x3c9c3f6e	0.019073214
215	0xbcfb5ffc	-0.030685417
216	0x3d0b6493	0.034031462
217	0xbc842228	-0.016129568
218	0xbc14e71e	-0.009088306
219	0x3d12bc71	0.035824243
220	0x3cb4e804	0.02208329
221	0x3c7e0a04	0.015505318
222	0x3d05e17e	0.03268575
223	0x3a8fafb5	0.0010962399
224	0x3ca66260	0.02031058
225	0x3d053ba9	0.0325276
226	0x3bac9f4a	0.005268012
227	0x3c295957	0.010336242
228	0x3cd5857e	0.02606463
229	0x3cac0ec8	0.021003142
230	0x3c04b7c4	0.008100454
231	0xbd139376	-0.0360293
232	0xbb81d555	-0.0039621987
233	0x3cc38603	0.023867613
234	0x3ca0a0ea	0.01960798
235	0x3bcc5962	0.006236241
236	0x3c8fee3b	0.017569652
237	0x3d088712	0.033331938
238	0x3cfb3b16	0.030667823
239	0xbc7fa218	-0.015602611
240	0xbc8fc6bb	-0.017550817
241	0xbb4a2fd0	-0.0030851252
242	0x3c0b36bb	0.0084969355
243	0x3cad3b87	0.021146549
244	0xbc8a9932	-0.016918752
245	0xbcb199d2	-0.021679793
246	0xbae9c86b	-0.0017836218
247	0xbc8ccc28	-0.017187193
248	0xbcea9fe7	-0.0286407
249	0x3c73fec9	0.0148922885
250	0x3ba87ad8	0.0051415972
251	0x3cc60b7b	0.024175396
252	0x3cf96a2d	0.030446136
253	0x3cdc8cc2	0.026922587
254	0xbc89023c	-0.016724698
255	0x3cba2202	0.022721294
