src/TRAINED_MODEL_DIR/image_fragment_model_linear_fd_32_epoch_2.pth (torch, 100789 bytes, 2 tensors)

linear.weight f4 [32, 768]
0	0x3cb1459d	0.02163964
1	0xb8a26f45	-7.7454875e-05
2	0xbc2489d9	-0.010042631
3	0xbb2cccb9	-0.0026367141
4	0x39a73a1a	0.0003189601
5	0x3cfee99d	0.031117255
6	0xbb420159	-0.0029602854
7	0xbce0d814	-0.027446784
8	0x3ca9848e	0.02069309
9	0x3bfc18fa	0.007693407
10	0xbcd73e73	-0.026274895
11	0xbca0cf7c	-0.019630186
12	0xbc4872df	-0.012234419
13	0xbaaf84bf	-0.0013391002
14	0x3caeb9c0	0.021328807
15	0xbbff8beb	-0.007798662
16	0x3cb7980c	0.022411369
17	0x3c5f2e74	0.013621915
18	0xbc5bf380	-0.013424754
19	0x3c2e72cd	0.010647488
20	0xbcd67a71	-0.026181431
21	0xbc543d3d	-0.0129540535
22	0xbcd44392	-0.025911126
23	0xbce58f7a	-0.028022517
24	0xbca45b44	-0.02006305
25	0x3d00fb75	0.031489808
26	0xbd04ef53	-0.0324548
27	0x3be0f69a	0.0068653347
28	0xbcf54fcc	-0.029945277
29	0x3ca6d44b	0.020364901
30	0xbd079c5b	-0.033108097
31	0x3c95f4c7	0.018305195
32	0xbb4a24d9	-0.0030844717
33	0x3c8e9885	0.017406711
34	0x3cd07da9	0.025450544
35	0xbc23dee7	-0.0100018745
36	0xbb4ca04c	-0.0031223474
37	0xbc0165ba	-0.007897789
38	0xbc952bc3	-0.018209344
39	0xbbf4a507	-0.007465962
40	0xbc631a2f	-0.013861223
41	0xbd1a083d	-0.037605513
42	0xbd0cdadc	-0.034388408
43	0xbd04d087	-0.03242543
44	0x3bb63a83	0.0055611744
45	0xbc64d108	-0.013965853
46	0x3ce00ef1	0.027350875
47	0xbd0a12b9	-0.03370926
48	0x3c4f25e9	0.012643316
49	0xbbed3c67	-0.0072398665
50	0xbcc59beb	-0.024122199
51	0x3ae51a3c	0.0017479132
52	0x3ca2522a	0.01981457
53	0x3c20b92b	0.0098097725
54	0x3caf07a6	0.021365952
55	0x3ba509a0	0.005036548
56	0xba022cc3	-0.00049657765
57	0x3bc111ad	0.0058919997
58	0x3c92d0a1	0.017921748
59	0xbc10a748	-0.008828945
60	0xbb5062c2	-0.0031797145
61	0x3c32a893	0.010904449
62	0xbcd4a932	-0.025959585
63	0xbbc6bbca	-0.0060648667
64	0x3ce7c3ab	0.028291544
65	0xbcba2004	-0.022720344
66	0xbd0d490d	-0.034493495
67	0x3c980069	0.018554883
68	0xbd0e2d3b	-0.034711104
69	0xbbefcf81	-0.0073184376
70	0x3cc0e88b	0.023548385
71	0xba7c9052	-0.00096345425
72	0xbced8d0d	-0.028997922
73	0xbc78e7cf	-0.015191986
74	0xbcd289a3	-0.025700396
75	0xbad9c4c7	-0.001661443
76	0x370fb270	8.56501e-06
77	0x3d00c75d	0.031440128
78	0x3b6a1f89	0.0035724363
79	0x3d1edf9e	0.038787477
80	0xbd0e54dd	-0.0347489
81	0x3ab73765	0.0013978301
82	0xba14ecd0	-0.000568104
83	0xbce6a932	-0.02815685
84	0x3c031b2e	0.008002086
85	0xbce69b9b	-0.02815037
86	0x3b83c0e3	0.0040207966
87	0x3b4192b8	0.0029536914
88	0x3c5d2288	0.013497002
89	0x3ce0bb48	0.027433053
90	0xbd08fb98	-0.033443063
91	0x3cc0c5f5	0.023531893
92	0x3cece6a0	0.028918564
93	0x3cc372ec	0.02385851
94	0x3c34b01c	0.011028316
95	0xbc8475c0	-0.016169429
96	0xbca4102e	-0.020027246
97	0xbcddc868	-0.0270731
98	0xbc762712	-0.0150239635
99	0xbbbd6356	-0.005779664
100	0x3c920091	0.017822536
101	0xbd190f1e	-0.037367932
102	0xbc506ba9	-0.012720981
103	0x3cdae79a	0.026721764
104	0x3b25d4d0	0.0025303848
105	0x3b821a8c	0.00397045
106	0x3c13102b	0.008976023
107	0x3c5b8596	0.013398549
108	0xbc40ecbb	-0.011775191
109	0x3cb67bfe	0.022275921
110	0x3d072dc7	0.03300264
111	0x3c08f779	0.008359783
112	0xbc51dff0	-0.0128097385
113	0xbd15b62d	-0.03655069
114	0xbcde82b1	-0.027161928
115	0xbc08340f	-0.008313193
116	0xbd0adf76	-0.033904515
117	0xbd03025c	-0.031984672
118	0xbc9fbd1f	-0.01949936
119	0xbcb349c4	-0.02188576
120	0x3d0b5c4a	0.03402356
121	0xbd00575f	-0.031333324
122	0xbc9ca86f	-0.019123284
123	0x3ce86184	0.028366812
124	0xbc4d0117	-0.012512467
125	0x3c2e0a63	0.010622594
126	0x3cf36104	0.029709347
127	0x39b7863c	0.00035004492
128	0xbcd398c7	-0.025829686
129	0x3c1f6a06	0.009729868
130	0x3b821e5a	0.0039709033
131	0x3c9846ed	0.018588508
132	0x3d0a5bd9	0.033779
133	0xbba47a31	-0.005019449
134	0x3c8a44d6	0.016878527
135	0x3a983050	0.0011611078
136	0x3cfeefcf	0.031120209
137	0xbcb50277	-0.022095902
138	0xbcea6b70	-0.028615683
139	0x3c2b0bbf	0.010439812
140	0x3b4103f7	0.0029451826
141	0xbc2c7a49	-0.010527202
142	0xbcbcd104	-0.023048885
143	0x3b702b00	0.0036646724
144	0x3967ba72	0.00022099333
145	0x3d1bb50e	0.038014464
146	0x3bbb28b3	0.005711639
147	0xbc5b7541	-0.013394655
148	0x3c8781d8	0.016541407
149	0x3cb5b239	0.02217971
150	0x3cb7ef69	0.022453027
151	0xbc84107e	-0.016121145
152	0x3a3f3306	0.0007293675
153	0xb6bfccb0	-5.7160723e-06
154	0xbc761cb2	-0.01502149
155	0x3c0225f7	0.007943622
156	0x3d10a6e0	0.035315394
157	0xba310e16	-0.0006754113
158	0xbcd1aa52	-0.02559391
159	0xba2c50ce	-0.000657332
160	0x3c356753	0.011071998
161	0xbca39103	-0.019966608
162	0x3c8e39c4	0.01736153
163	0x3a90159f	0.0010992772
164	0xbc247d6b	-0.010039668
165	0xbd10e0e5	-0.035370726
166	0x3c5e7db3	0.013579774
167	0xbcde735c	-0.027154617
168	0x3d11a0ea	0.03555385
169	0x3c8834bf	0.016626714
170	0x3cd63d98	0.026152417
171	0xbb325a2d	-0.0027214393
172	0xbc3d1633	-0.011540937
173	0x3c80311b	0.015648415
174	0xbc3e163e	-0.011601983
175	0xbcfd12f3	-0.030892825
176	0x3cb8afe5	0.02254481
177	0x3cebcd9b	0.028784564
178	0xbcb1f599	-0.021723555
179	0x3cd49f83	0.025954967
180	0x3bf441af	0.007454119
181	0x3cac4864	0.021030612
182	0x3c13a689	0.009011873
183	0x3c151030	0.009098098
184	0x3c49655f	0.012292235
185	0x3ca8e204	0.020615585
186	0xbc1deaf6	-0.009638539
187	0x3cdd73ed	0.027032817
188	0xbc841a6a	-0.016125876
189	0x3cf58cea	0.02997442
190	0x3d1151ef	0.03547853
191	0x3c994731	0.018710705
192	0xb9dd9278	-0.00042261533
193	0x3c18e51a	0.009331966
194	0xbc95e969	-0.018299775
195	0x3c8ff53e	0.017572995
196	0xbc848b3f	-0.016179679
197	0x3c0ba637	0.008523515
198	0xbbdbdf46	-0.006709966
199	0x3c910b94	0.017705716
200	0xbcbdeed0	-0.023185164
201	0x3c4da6b6	0.012551954
202	0x3cfb7966	0.030697536
203	0xbd08dc6c	-0.033413336
204	0x3c3b4b1d	0.011431483
205	0xbce8ed79	-0.028433548
206	0xbcc0dc7e	-0.023542639
207	0xbcf5a601	-0.029986383
208	0x3bda4306	0.006660822
209	0x3bd6da36	0.0065567745
210	0x3cd92a08	0.0265093
211	0x3c15c2b5	0.00914066
212	0xbc3faefa	-0.0116994325
213	0xbb863113	-0.0040952056
214	0x3c3aeb41	0.011408628
215	0x39eb4ee9	0.00044881486
216	0x3c61bb5b	0.013777579
217	0x3cfbebfd	0.030752176
218	0xbc6d781e	-0.01449397
219	0xbc1f6978	-0.009729736
220	0x3cdf5d12	0.02726606
221	0xbcca7849	-0.02471556
222	0xbcdf9945	-0.027294764
223	0x3cf25d58	0.029585525
224	0xbc790dd8	-0.0152010545
225	0xbd003e91	-0.031309668
226	0x3d1483c8	0.03625849
227	0x3bba7513	0.005690226
228	0x3d12c065	0.035828013
229	0xbc44a27e	-0.012001632
230	0xbb8a1817	-0.0042142975
231	0xbc714e50	-0.014728144
232	0x3ba6bf63	0.005088733
233	0x3cef5d50	0.0292193
234	0x39f3c8bb	0.00046498128
235	0x3ccaacce	0.024740603
236	0xbc21ed88	-0.009883292
237	0x3d0cf7f5	0.034416158
238	0x3a71a194	0.00092174974
239	0x3c985363	0.01859445
240	0x3c1c3ad2	0.009535508
241	0xb9f584a0	-0.00046828855
242	0xbc526303	-0.012840989
243	0xbc6f7adf	-0.014616697
244	0x3c9091f2	0.017647717
245	0xbc5cf45f	-0.013485997
246	0x3c85b5da	0.016322065
247	0xbc91d845	-0.01780332
248	0xbb04e580	-0.0020278394
249	0xbaceb51c	-0.0015770528
250	0xbc9e766c	-0.019343577
251	0xbcbe0b78	-0.023198828
252	0x3cf581dc	0.029969148
253	0xbc73f508	-0.014889963
254	0xbb4779ee	-0.0030437666
255	0xbcec7699	-0.028865146

linear.bias f4 [32]
0	0xbcb91287	-0.022591842
1	0xbab34807	-0.0013678082
2	0xbd06e68f	-0.03293472
3	0x3b131364	0.0022441978
4	0xbcf84d51	-0.030310305
5	0xbc829edd	-0.015944893
6	0xbc505152	-0.012714701
7	0xbc9ec47c	-0.0193808
8	0xbcbf0eec	-0.023322545
9	0x3d069a70	0.032862127
10	0xbca1883a	-0.019718278
11	0x3cd05114	0.025429286
12	0xbb70f24c	-0.0036765514
13	0x3c7147f6	0.0147266295
14	0x3c4bf323	0.012448105
15	0x3cc2f59f	0.023798762
16	0x3d0e3b4a	0.03472451
17	0xbb05959c	-0.0020383364
18	0x3d0a0ee2	0.0337056
19	0x3b7d2477	0.003862647
20	0xbb6e2392	-0.003633712
21	0xbc7e6947	-0.01552803
22	0x3c7a6462	0.015282722
23	0xbc752561	-0.014962525
24	0x3b132a8f	0.0022455787
25	0xbad62524	-0.0016337973
26	0xbc4b5a72	-0.012411701
27	0x3c52194d	0.012823415
28	0x3c85f774	0.016353346
29	0xbd0921a1	-0.033479337
30	0x3cda88ea	0.026676614
31	0xbc0f2a24	-0.008738074
