src/TRAINED_MODEL_DIR/image_fragment_model_linear_fd_32_epoch_5.pth (torch, 100789 bytes, 2 tensors)

linear.weight f4 [32, 768]
0	0x3cb02a1f	0.02150446
1	0x3ac70176	0.001518293
2	0xbc450328	-0.012024678
3	0xbb2fa0f9	-0.0026798828
4	0x3b073eca	0.002063679
5	0x3cf2386f	0.029567925
6	0xbb3fcbee	-0.0029265839
7	0xbcd18915	-0.025578061
8	0x3c9fedca	0.019522566
9	0x3bfec712	0.007775196
10	0xbcc7503c	-0.02433025
11	0xbca81897	-0.020519538
12	0xbc43d6ee	-0.011953099
13	0x3a58adcf	0.00082656456
14	0x3caa79af	0.020809976
15	0xbbf78efc	-0.007554887
16	0x3cc91436	0.02454577
17	0x3c57e879	0.013177984
18	0xbc5df019	-0.013546013
19	0x3c4b4c60	0.012408346
20	0xbcdc9747	-0.026927603
21	0xbc58e427	-0.0132379895
22	0xbcc76360	-0.024339378
23	0xbced193b	-0.028942695
24	0xbca63085	-0.020286808
25	0x3d076c8e	0.03306251
26	0xbd08db5e	-0.03341233
27	0x3be08bf3	0.0068526207
28	0xbce74976	-0.028233271
29	0x3c9f8915	0.019474545
30	0xbd06e978	-0.032937497
31	0x3ca5041c	0.020143561
32	0xbb8132cb	-0.0039428226
33	0x3c9166a9	0.017749147
34	0x3ce0cc68	0.027441218
35	0xbc318680	-0.01083529
36	0xbb3b31d9	-0.0028563647
37	0xbbc3cb41	-0.0059751575
38	0xbc9dc23e	-0.019257661
39	0xbbf11613	-0.007357368
40	0xbc45b979	-0.012068146
41	0xbd1f895d	-0.03894936
42	0xbd0c701a	-0.034286596
43	0xbcfaca60	-0.030614078
44	0x3b842aa8	0.0040334053
45	0xbc5f32f2	-0.013622986
46	0x3cf0abc0	0.029378772
47	0xbd108b59	-0.035289142
48	0x3c482193	0.012215036
49	0xbbc06500	-0.005871415
50	0xbcd4dcb2	-0.025984142
51	0x3abc354e	0.0014359148
52	0x3caef662	0.021357719
53	0x3c0a3dcb	0.008437584
54	0x3cae0ec9	0.021247284
55	0x3bdf74fe	0.0068193665
56	0xbab1387d	-0.0013520863
57	0x3bc011b0	0.0058614835
58	0x3ca2646d	0.019823277
59	0xbc192021	-0.009346039
60	0xbb49fd24	-0.003082105
61	0x3c5431a3	0.012951287
62	0xbcd6652f	-0.026171295
63	0xbbc7ce31	-0.006097578
64	0x3cf77032	0.030204866
65	0xbcbc07a1	-0.022952856
66	0xbd0ee3ff	-0.034885403
67	0x3ca4861b	0.020083478
68	0xbd106b94	-0.035258844
69	0xbbff6014	-0.007793436
70	0x3ccc668e	0.024951246
71	0xbad532c4	-0.001626574
72	0xbcf034e9	-0.029322105
73	0xbc6071c3	-0.013698998
74	0xbcd7933a	-0.02631532
75	0xbad9f775	-0.0016629534
76	0x3ae69856	0.0017593007
77	0x3cfe042f	0.031007854
78	0x3b7a8a5e	0.0038229446
79	0x3d26db57	0.040736523
80	0xbd0fb060	-0.035080314
81	0x3af007bc	0.0018312852
82	0x3acadd0d	0.0015477255
83	0xbce9111f	-0.028450547
84	0x3c08e050	0.0083542615
85	0xbcd5e410	-0.026109725
86	0x3b659577	0.0035031715
87	0x3b4af7e5	0.003097051
88	0x3c7bafa1	0.015361697
89	0x3cd9bbd5	0.026578823
90	0xbd08a463	-0.033359896
91	0x3ccfd375	0.025369385
92	0x3ce3efc6	0.027824294
93	0x3cc5a77e	0.024127718
94	0x3c556542	0.01302463
95	0xbc8e99c2	-0.017407302
96	0xbca8b18e	-0.020592477
97	0xbcd38323	-0.025819367
98	0xbc88f474	-0.016718127
99	0xbbcecf29	-0.0063113165
100	0x3c9d0953	0.019169485
101	0xbd1e34bb	-0.038624506
102	0xbc5697a1	-0.013097675
103	0x3ce793cf	0.028268723
104	0x3ae808bf	0.0017702802
105	0x3b6f2f47	0.0036496685
106	0x3c2de3ac	0.010613363
107	0x3c545989	0.0129608
108	0xbc44f4e7	-0.01202128
109	0x3cc4a779	0.024005638
110	0x3d0676d2	0.03282816
111	0x3c01c9b1	0.007921622
112	0xbc38e1dc	-0.011284318
113	0xbd16c651	-0.036810223
114	0xbce49886	-0.02790476
115	0xbbe9b579	-0.007132229
116	0xbd0d0a14	-0.03443344
117	0xbd062c37	-0.03275701
118	0xbc96b702	-0.018397812
119	0xbcb82674	-0.022479273
120	0x3d093ad1	0.033503357
121	0xbcf60566	-0.030031871
122	0xbca03a7c	-0.019559138
123	0x3ce69807	0.028148664
124	0xbc339b84	-0.010962371
125	0x3c29c98f	0.010362997
126	0x3cf39731	0.02973518
127	0x3b09dcb1	0.0021036083
128	0xbcd4d181	-0.025978805
129	0x3c236911	0.00997378
130	0x3bc23dc7	0.0059277746
131	0x3c97b33c	0.018518083
132	0x3d0b4e4e	0.034010224
133	0xbb496ba5	-0.0030734327
134	0x3c885fd7	0.016647262
135	0x3a9b98b4	0.0011871071
136	0x3d06b830	0.0328905
137	0xbcb9b0aa	-0.022667248
138	0xbcea5d27	-0.028608872
139	0x3c4827d2	0.012216525
140	0x3b0ccfeb	0.0021486233
141	0xbc289f66	-0.01029191
142	0xbcac9f8c	-0.021072172
143	0x3b3334a4	0.0027344609
144	0xb98162db	-0.0002467845
145	0x3d21256e	0.039342336
146	0x3b8ce247	0.0042994353
147	0xbc64d3ec	-0.013966542
148	0x3c91fe17	0.017821355
149	0x3cacb4cf	0.02108231
150	0x3cb33ca0	0.021879494
151	0xbc72596a	-0.014791826
152	0xb73205ba	-1.061096e-05
153	0xba25243e	-0.0006299651
154	0xbc607d6e	-0.01370178
155	0x3bf3b958	0.007437866
156	0x3d0e18ae	0.034691505
157	0x3a2e881b	0.00066578545
158	0xbcd41f47	-0.02589382
159	0xbabc85c8	-0.0014383132
160	0x3c488397	0.012238405
161	0xbca652af	-0.020303098
162	0x3c864da4	0.016394444
163	0x3b04eb20	0.0020281747
164	0xbc2c9240	-0.010532916
165	0xbd14fef1	-0.036375944
166	0x3c6c3f5e	0.014419405
167	0xbce3112c	-0.02771815
168	0x3d0ec6a1	0.034857396
169	0x3c914cb1	0.017736765
170	0x3cd38de3	0.025824493
171	0xbb51daa5	-0.0032021191
172	0xbc27c369	-0.0102394605
173	0x3c7d327e	0.015453933
174	0xbc449d33	-0.01200037
175	0xbcf1d289	-0.029519336
176	0x3cb71c92	0.02235249
177	0x3ce99968	0.028515533
178	0xbca5a4d7	-0.020220203
179	0x3cd33669	0.02578278
180	0x3bee38a7	0.007269937
181	0x3cb95acb	0.022626301
182	0x3c0fc988	0.008776076
183	0x3c11b8f5	0.008894195
184	0x3c63952e	0.013890548
185	0x3ca57ad0	0.020200163
186	0xbc1dd239	-0.0096326405
187	0x3cec4a07	0.028843893
188	0xbc87f595	-0.016596595
189	0x3cf87bf1	0.030332537
190	0x3d1a0607	0.037603404
191	0x3c94fe5b	0.018187692
192	0xba421f7c	-0.0007405204
193	0x3c30848a	0.010773787
194	0xbc9f6dc7	-0.019461526
195	0x3c8c56dd	0.017131263
196	0xbc729b60	-0.014807552
197	0x3bfb0a20	0.007661119
198	0xbbede785	-0.0072602653
199	0x3c9be0d3	0.019028103
200	0xbcc2cc92	-0.023779187
201	0x3c4281a5	0.01187173
202	0x3d02cfc9	0.03193644
203	0xbd0a9138	-0.033829898
204	0x3c2e7ffb	0.01065063
205	0xbcdf705b	-0.027275255
206	0xbcc3389f	-0.02383071
207	0xbcfce12e	-0.030869093
208	0x3bfbec06	0.0076880483
209	0x3bce155e	0.0062891683
210	0x3cd0e637	0.0255004
211	0x3c23568d	0.009969366
212	0xbc4614f5	-0.0120899575
213	0xbba860ea	-0.005138506
214	0x3c4728ff	0.01215577
215	0xb6686049	-3.462674e-06
216	0x3c556894	0.013025422
217	0x3d022c08	0.031780273
218	0xbc70ac01	-0.014689446
219	0xbc28f88e	-0.010313166
220	0x3ce95881	0.028484585
221	0xbccaceba	-0.024756778
222	0xbce46c1d	-0.027883584
223	0x3cfc9266	0.030831527
224	0xbc7a0ccd	-0.015261841
225	0xbd025cab	-0.031826656
226	0x3d1a0a2a	0.03760735
227	0x3bb8cd32	0.0056396956
228	0x3d10d28c	0.035357043
229	0xbc2d56f9	-0.010579818
230	0xbb8e8401	-0.004349232
231	0xbc79a3df	-0.015236824
232	0x3bd4acf0	0.0064903423
233	0x3cec6e21	0.028861107
234	0x3987509e	0.0002580927
235	0x3cd861a2	0.026413742
236	0xbc2833d7	-0.010266266
237	0x3d0dc598	0.03461227
238	0x3b407510	0.002936665
239	0x3c94df84	0.018172987
240	0x3c19d5a9	0.009389319
241	0x3a91f289	0.0011134903
242	0xbc61dd9a	-0.013785744
243	0xbc72361d	-0.014783409
244	0x3c9dd94b	0.019268652
245	0xbc659d7d	-0.014014599
246	0x3c837b35	0.01604996
247	0xbc84e5fc	-0.016222946
248	0xbb14643e	-0.0022642757
249	0xbb08bd99	-0.0020864962
250	0xbc930b8c	-0.017949842
251	0xbcbf3199	-0.02333908
252	0x3cef7b42	0.029233579
253	0xbc60bc83	-0.01371682
254	0xbb50463e	-0.003178015
255	0xbcf340ca	-0.02969398

linear.bias f4 [32]
0	0xbcb91287	-0.022591842
1	0xbab34807	-0.0013678082
2	0xbd06e68f	-0.03293472
3	0x3b131364	0.0022441978
4	0xbcf84d51	-0.030310305
5	0xbc829edd	-0.015944893
6	0xbc505152	-0.012714701
7	0xbc9ec47c	-0.0193808
8	0xbcbf0eec	-0.023322545
9	0x3d069a70	0.032862127
10	0xbca1883a	-0.019718278
11	0x3cd05114	0.025429286
12	0xbb70f24c	-0.0036765514
13	0x3c7147f6	0.0147266295
14	0x3c4bf323	0.012448105
15	0x3cc2f59f	0.023798762
16	0x3d0e3b4a	0.03472451
17	0xbb05959c	-0.0020383364
18	0x3d0a0ee2	0.0337056
19	0x3b7d2477	0.003862647
20	0xbb6e2392	-0.003633712
21	0xbc7e6947	-0.01552803
22	0x3c7a6462	0.015282722
23	0xbc752561	-0.014962525
24	0x3b132a8f	0.0022455787
25	0xbad62524	-0.0016337973
26	0xbc4b5a72	-0.012411701
27	0x3c52194d	0.012823415
28	0x3c85f774	0.016353346
29	0xbd0921a1	-0.033479337
30	0x3cda88ea	0.026676614
31	0xbc0f2a24	-0.008738074
