src/TRAINED_MODEL_DIR/image_fragment_model_linear_fd_32_epoch_3.pth (torch, 100789 bytes, 2 tensors)

linear.weight f4 [32, 768]
000000 c3 6d b0 3c af 24 0d 3a 50 a2 31 bc 39 c0 30 bb
       0.021536713 0.00053841894 -0.010841921 -0.0026970042
000010 cb 20 84 3a a3 ac f9 3c 2e 5a 44 bb d3 c6 da bc
       0.0010080574 0.030477827 -0.0029960978 -0.026706135
000020 9e 5a a5 3c 5a 6b fb 3b d8 e7 d0 bc 62 2e a4 bc
       0.020184811 0.0076727094 -0.025501177 -0.020041648
000030 05 8e 47 bc bb 4a f9 b9 e0 75 ac 3c 2f f5 fd bb
       -0.012179856 -0.0004754866 0.0210523 -0.0077501754
000040 9a af be 3c f3 34 5b 3c 23 34 5d bc a2 96 3a 3c
       0.023277093 0.013379323 -0.0135012 0.011388453
000050 11 4d d9 bc 19 42 56 bc 29 a5 ce bc c9 cb e8 bc
       -0.026526006 -0.013077282 -0.025225239 -0.028417485
000060 cc 08 a5 bc 74 df 03 3d 40 86 06 bd 7d 26 e1 3b
       -0.020145796 0.032195523 -0.032842875 0.0068710432
000070 f8 04 ef bc 26 f9 a3 3c 07 47 07 bd c4 af 9c 3c
       -0.029177174 0.020016264 -0.03302672 0.01912678
000080 94 82 5f bb 86 c8 8f 3c 10 a5 d7 3c da 05 29 bc
       -0.003410493 0.017551672 0.026323825 -0.0103163365
000090 36 ea 44 bb 05 3c e7 bb 83 63 98 bc ec 67 f2 bb
       -0.0030046827 -0.0070567154 -0.018602138 -0.0073976424
0000a0 83 1f 56 bc 74 0d 1c bd d6 8d 0c bd 9f 8d 01 bd
       -0.013069036 -0.038098767 -0.034314953 -0.0316292
0000b0 5c 1a a4 3b 64 4c 62 bc 22 15 e7 3c 7e 6e 0c bd
       0.005008025 -0.013812158 0.02820832 -0.03428506
0000c0 00 06 4c 3c bc d7 da bb 61 b7 cb bc 6a 8a d2 3a
       0.012452602 -0.0066785496 -0.024867715 0.0016062979
0000d0 c1 93 a7 3c 83 68 17 3c b4 69 ae 3c 60 20 bd 3b
       0.020456197 0.009241226 0.021290638 0.0057716817
0000e0 39 06 68 ba 1b 8e bf 3b c4 3c 99 3c 13 1b 15 bc
       -0.0008851025 0.0058457977 0.018705733 -0.009100693
0000f0 f2 72 50 bb e3 78 40 3c a8 ff d5 bc cf 36 c8 bb
       -0.0031806794 0.011747572 -0.026122883 -0.0061100493
000100 6e 59 ee 3c 43 80 bb bc 36 fb 0d bd 90 86 9d 3c
       0.029095378 -0.022888308 -0.0346634 0.019229203
000110 2d 4d 0f bd bc ee f5 bb db 2e c6 3c 6f d6 a5 ba
       -0.03498571 -0.007505266 0.024192264 -0.0012652407
000120 28 7f ee bc 33 8b 6d bc 4d b9 d4 bc 61 d6 d7 ba
       -0.029113367 -0.01449852 -0.025967265 -0.0016467088
000130 a1 9f 53 3a cb 03 00 3d 01 be 71 3b 5c 79 22 3d
       0.0008072798 0.031253617 0.0036886933 0.03966652
000140 ac e5 0e bd 9c 81 cf 3a c2 4d c1 39 87 a5 e7 bc
       -0.034887 0.0015831473 0.00036869763 -0.028277172
000150 04 b9 05 3c 18 32 df bc f0 7a 7a 3b c6 e5 47 3b
       0.008161787 -0.027245566 0.003822025 0.0030501946
000160 cd f4 6a 3c 76 30 de 3c f2 a4 08 bd 3e 94 c7 3c
       0.014340592 0.027122717 -0.03336043 0.02436268
000170 35 b5 e9 3c a0 9c c4 3c ee ef 42 3c a1 1e 88 bc
       0.028528789 0.024000466 0.011898024 -0.016616168
000180 74 ee a5 bc 14 59 d9 bc 8d 9e 80 bc fd 48 c4 bb
       -0.020255305 -0.026531734 -0.015700603 -0.005990146
000190 fc d7 96 3c f8 30 1b bd 70 0d 53 bc c9 5f e0 3c
       0.018413536 -0.037888497 -0.012881622 0.027389424
0001a0 a2 d7 0e 3b f9 ef 7a 3b ce aa 1e 3c 4c 9e 57 3c
       0.0021796008 0.0038290008 0.009684278 0.0131602995
0001b0 5e dc 42 bc 60 99 bc 3c b1 93 06 3d 2b de 05 3c
       -0.01189336 0.023022354 0.032855693 0.008170645
0001c0 92 c3 46 bc a5 70 16 bd 45 ee e0 bc d8 f1 fd bb
       -0.0121315885 -0.03672852 -0.027457366 -0.0077497773
0001d0 9f f8 0b bd 5a 34 04 bd c5 3a 9b bc 38 8e b5 bc
       -0.03417265 -0.03227649 -0.018948922 -0.022162542
0001e0 af 9b 0a 3d aa 74 fb bc 5f 54 9e bc af e2 e7 3c
       0.033839878 -0.030695278 -0.01932734 0.028306333
0001f0 f9 df 40 bc 41 f8 2b 3c 2b b5 f3 3c 7b b9 99 3a
       -0.011772149 0.0104962 0.029749474 0.0011728251
000200 29 34 d4 bc eb 7f 21 3c f3 90 9f 3b d0 f7 97 3c
       -0.025903778 0.009857158 0.004869574 0.018550783
000210 dc de 0a 3d 12 57 87 bb f7 7e 89 3c 3b 66 a0 3a
       0.03390394 -0.0041302526 0.016784174 0.0012237498
000220 3a db 02 3d fe b6 b6 bc f8 e9 e9 bc 7c 8d 38 3c
       0.031947352 -0.022304054 -0.028553948 0.011264201
000230 02 74 2e 3b eb 45 2a bc d3 a2 b5 bc 36 2b 5a 3b
       0.002661944 -0.010392646 -0.022172367 0.0033289916
000240 6f 6d 1e 38 c1 1c 1e 3d ec 8e a8 3b 80 08 5f bc
       3.7772053e-05 0.03860164 0.0051439907 -0.013612866
000250 25 49 8c 3c 68 f4 b1 3c 9e 0e b6 3c 87 4c 7e bc
       0.017124722 0.021722987 0.022223767 -0.015521175
000260 36 ab ca 39 82 05 87 b9 f5 41 6c bc bd 9e fb 3b
       0.00038656004 -0.0002575331 -0.014420022 0.007678835
000270 3b 99 0f 3d 1c 42 82 b8 06 42 d3 bc c0 13 7f ba
       0.03505824 -6.211197e-05 -0.025788318 -0.0009730421
000280 8c 89 3e 3c d3 42 a5 bc 99 21 8b 3c 65 64 cf 3a
       0.011629473 -0.020173466 0.016983794 0.0015822767
000290 27 b0 28 bc 79 6a 12 bd 4a 29 66 3c 7c a1 e0 bc
       -0.010295904 -0.03574607 0.01404793 -0.027420752
0002a0 59 99 10 3d 3f ed 8c 3c 4b d6 d4 3c b5 fc 3c bb
       0.035302494 0.017202972 0.02598109 -0.0028837149
0002b0 67 5e 32 bc 3f 89 7e 3c a4 01 40 bc 10 6a f7 bc
       -0.010886765 0.015535652 -0.011719141 -0.030201942
0002c0 f8 e1 b7 3c 1a 53 eb 3c 77 df ab bc f9 f4 d3 3c
       0.022446617 0.02872615 -0.02098058 0.025873648
0002d0 b4 70 f3 3b c6 97 b2 3c f2 f0 11 3c a4 b0 14 3c
       0.0074292067 0.021800887 0.0089075435 0.0090753175
0002e0 d8 00 56 3c f3 89 a7 3c 75 f4 1c bc 54 55 e4 3c
       0.013061725 0.020451522 -0.0095797675 0.027872719
0002f0 b2 8f 85 bc 4b 02 f7 3c 4e 26 15 3d 0f a9 97 3c
       -0.01630387 0.03015246 0.036413483 0.01851323
000300 76 fe 0e ba c3 68 23 3c 71 c7 99 bc ce 97 8e 3c
       -0.0005454788 0.009973708 -0.018771859 0.01740637
000310 67 cd 7e bc 96 99 05 3c 68 1c e3 bb f5 ff 95 3c
       -0.015551901 0.0081542935 -0.0069308765 0.018310526
000320 4b 51 c0 bc c2 14 49 3c 0b 16 00 3d 16 d7 09 bd
       -0.023476264 0.012273015 0.03127102 -0.033652388
000330 bd 08 36 3c 7b 6d e4 bc 24 76 c2 bc 2f 9d f8 bc
       0.011110482 -0.027884236 -0.023737974 -0.030348388
000340 cc ea ea 3b ff b2 d0 3b 8b df d5 3c c1 1d 1d 3c
       0.0071691032 0.0063689942 0.02610757 0.009589613
000350 dc 5c 43 bc 75 59 93 bb b2 06 42 3c ec 81 60 39
       -0.011923995 -0.004496748 0.011842417 0.00021410704
000360 39 f2 5c 3c 11 2a 00 3d 55 c1 6f bc e3 14 23 bc
       0.013485485 0.031290118 -0.014633496 -0.00995371
000370 c8 5d e4 3c 41 1f cb bc 48 53 e1 bc 7d 84 f7 3c
       0.02787675 -0.024795176 -0.027505532 0.030214543
000380 ed 53 7a bc 4c f5 00 bd 81 40 17 3d ef 35 b8 3b
       -0.0152787985 -0.031483933 0.03692675 0.0056216638
000390 bb 23 12 3d d0 4a 39 bc ef 35 8d bb 32 b8 73 bc
       0.035678606 -0.011309341 -0.004309408 -0.014875459
0003a0 24 44 bd 3b 1b 01 ee 3c 53 be e4 39 59 17 d1 3c
       0.0057759453 0.029053262 0.0004362935 0.025523828
0003b0 48 a2 24 bc 43 6f 0d 3d 73 e6 ed 3a 73 e5 96 3c
       -0.0100484565 0.034529936 0.0018150344 0.018419957
0003c0 ff 36 1b 3c 00 d7 6f 39 4a d7 58 bc 87 b7 70 bc
       0.009473561 0.0002287291 -0.013234923 -0.014692194
0003d0 1b 6f 96 3c dd 24 61 bc 28 a4 84 3c 60 28 8c bc
       0.018363526 -0.013741699 0.016191557 -0.017109096
0003e0 36 21 10 bb 9d ae ec ba 28 57 99 bc 55 42 bf bc
       -0.0021992452 -0.001805741 -0.018718317 -0.02334706
0003f0 6b e5 f2 3c ae f6 6a bc f4 4a 51 bb 2d 68 ef bc
       0.02965041 -0.01434104 -0.0031935545 -0.02922448

linear.bias f4 [32]
000000 87 12 b9 bc 07 48 b3 ba 8f e6 06 bd 64 13 13 3b
       -0.022591842 -0.0013678082 -0.03293472 0.0022441978
000010 51 4d f8 bc dd 9e 82 bc 52 51 50 bc 7c c4 9e bc
       -0.030310305 -0.015944893 -0.012714701 -0.0193808
000020 ec 0e bf bc 70 9a 06 3d 3a 88 a1 bc 14 51 d0 3c
       -0.023322545 0.032862127 -0.019718278 0.025429286
000030 4c f2 70 bb f6 47 71 3c 23 f3 4b 3c 9f f5 c2 3c
       -0.0036765514 0.0147266295 0.012448105 0.023798762
000040 4a 3b 0e 3d 9c 95 05 bb e2 0e 0a 3d 77 24 7d 3b
       0.03472451 -0.0020383364 0.0337056 0.003862647
000050 92 23 6e bb 47 69 7e bc 62 64 7a 3c 61 25 75 bc
       -0.003633712 -0.01552803 0.015282722 -0.014962525
000060 8f 2a 13 3b 24 25 d6 ba 72 5a 4b bc 4d 19 52 3c
       0.0022455787 -0.0016337973 -0.012411701 0.012823415
000070 74 f7 85 3c a1 21 09 bd ea 88 da 3c 24 2a 0f bc
       0.016353346 -0.033479337 0.026676614 -0.008738074
